src/ai/autoencoder_v2/autoencoder_v2_model.pth (torch, 133674 bytes, 16 tensors)

weight f4 [82, 110]
0	0xbceb8d68	-0.028753951
1	0xbd8fcdef	-0.070217006
2	0xbb9963f9	-0.004681107
3	0xb9809aae	-0.00024529308
4	0xbd3ffbf2	-0.046871133
5	0xbcab94ff	-0.02094507
6	0x3d941ece	0.07232438
7	0xbcaf00fd	-0.021362776
8	0xbda15378	-0.078772485
9	0xbd996640	-0.07490206
10	0xbdbd6bfe	-0.092491135
11	0xbd001acc	-0.031275555
12	0xbd1d8639	-0.038458083
13	0x3d633e3b	0.05547927
14	0x3dc1f5cf	0.094707124
15	0xbd548ed3	-0.05189402
16	0x3cb37c8e	0.021909978
17	0xbd92ba15	-0.071643986
18	0xbd68c61a	-0.05682955
19	0xbd6bc262	-0.057558425
20	0x3d8f3f40	0.06994486
21	0xbdb62cfa	-0.08895297
22	0xbd745763	-0.05965365
23	0xbbd105a8	-0.006378848
24	0x3d7b8240	0.061403513
25	0x3d8d7e51	0.069088586
26	0xbd20fbee	-0.03930276
27	0x3d5b7248	0.053575784
28	0x3d0f94b8	0.03505394
29	0x3d1ec46b	0.038761538
30	0xbdac4700	-0.0841198
31	0xbd51a85d	-0.051185954
32	0xbda8af00	-0.082365036
33	0xbda9f6d4	-0.08299032
34	0x3dc646a1	0.0968144
35	0x3cbbb7f8	0.022914872
36	0x3d993b69	0.07482035
37	0xbc667b51	-0.014067487
38	0xbd091c5b	-0.033474308
39	0x3cf43189	0.029808776
40	0x3d121f63	0.035674464
41	0x3d37aa44	0.044840112
42	0xbb1f10dc	-0.0024271524
43	0xbda727ae	-0.08161865
44	0x3d39275b	0.045203548
45	0xbd8e8dff	-0.06960677
46	0x3cd25a29	0.025677757
47	0xbdb1cd98	-0.08681792
48	0xbd8754aa	-0.06607945
49	0x3cb97412	0.022638354
50	0x3d8b4584	0.068003684
51	0x3d133dc9	0.035947595
52	0x3daa282f	0.08308446
53	0xbd52fc8f	-0.05151039
54	0xbc9df283	-0.019280678
55	0xbd9888f7	-0.07447999
56	0xbcbb73e4	-0.02288241
57	0xbc03dd1b	-0.008048321
58	0x3d966fec	0.07345566
59	0x3d8781b7	0.06616538
60	0xb780e87c	-1.5367048e-05
61	0xbd3a4032	-0.045471378
62	0xbd900e5c	-0.07033989
63	0x3d612cdf	0.054974433
64	0x3ce22470	0.027605265
65	0x3c800df9	0.015631663
66	0x3d8d8f19	0.06912059
67	0x3d92f166	0.07174949
68	0x3d4a48e6	0.049385928
69	0xbda6d49b	-0.0814602
70	0x3dc0752d	0.093973495
71	0x3db3461f	0.08753609
72	0x3d59a134	0.05313225
73	0xbcaac75c	-0.020847015
74	0x3d89c433	0.06726875
75	0xbd895209	-0.067051
76	0xbd962581	-0.07331372
77	0x3dc15812	0.09440626
78	0xbd848454	-0.06470552
79	0xbda0fbb6	-0.0786051
80	0x3d3c52df	0.04597747
81	0xbc8a8fab	-0.01691421
82	0x3cad3d5c	0.021147422
83	0x3d645fda	0.055755474
84	0xbd8d5af3	-0.06902113
85	0xbdb4db44	-0.08830884
86	0xbdec641a	-0.1154253
87	0xbc3b8e9c	-0.011447575
88	0xbdbc7407	-0.09201818
89	0xbd647c1b	-0.05578242
90	0x3a441b4a	0.0007480873
91	0x3da83c06	0.082145736
92	0xbd809f45	-0.06280378
93	0xbd1223cf	-0.03567868
94	0xbc26bb99	-0.010176563
95	0xb91a66bf	-0.0001472486
96	0x3bdd5ac2	0.006755204
97	0x3cf8147c	0.030283205
98	0x3c256542	0.0100949425
99	0xbd850109	-0.06494338
100	0xbba4c5a9	-0.0050284457
101	0x3d4fe1a9	0.050752316
102	0x3ccb78c4	0.024837859
103	0xbd140594	-0.036138132
104	0xbd154b3d	-0.036448706
105	0xbd2dc2b6	-0.04242202
106	0xbde026c4	-0.10944894
107	0xbda0044b	-0.07813319
108	0xbd56c96c	-0.052438185
109	0xbd1e5e12	-0.03866393
110	0x3d75be30	0.05999583
111	0xba93d3ae	-0.0011278295
112	0x3d8b0bbd	0.06789348
113	0x3d941a1b	0.07231542
114	0xbcba4181	-0.022736313
115	0xbc796492	-0.015221732
116	0x3e4c4e91	0.19951846
117	0x3e9234a1	0.28555778
118	0x3bbc8cf3	0.005754107
119	0xbda4bd5e	-0.080439314
120	0xbd9f38c3	-0.07774498
121	0x3c26a4c7	0.010171122
122	0x3bbbaa3b	0.00572708
123	0xbcea4b47	-0.028600348
124	0xbd0b5df0	-0.034025133
125	0xbe7ef750	-0.2489903
126	0xbd7dc883	-0.0619588
127	0x3d473676	0.048635922
128	0xbd076473	-0.03305478
129	0xbd65e195	-0.056123335
130	0x3d8bb9ec	0.06822571
131	0x3e6537dc	0.2238459
132	0xbd9fa5b5	-0.07795278
133	0xbd896616	-0.067089245
134	0xbcc2af9c	-0.023765378
135	0x3e1e7ac0	0.15476513
136	0x3da07c81	0.07836247
137	0xbe3e6c38	-0.1859597
138	0xbe275192	-0.1633971
139	0xbb7b4a4f	-0.0038343852
140	0x3d95daa0	0.0731709
141	0x3d151498	0.036396593
142	0x3d0101be	0.031495802
143	0x3c800dd5	0.015631596
144	0xbdca47c1	-0.09876967
145	0x3e526b7a	0.20548812
146	0xbdb8504a	-0.08999689
147	0x3d67b283	0.056566726
148	0xbd84d9e6	-0.06486873
149	0xbe0d1cfe	-0.13780591
150	0xbdad7d42	-0.08471157
151	0x3d94b915	0.07261864
152	0xbd96ecdb	-0.07369395
153	0x3cdf2c68	0.027242854
154	0xbc6d8568	-0.014497139
155	0x3d947268	0.07248384
156	0xbc910aee	-0.017705407
157	0x3d70ff37	0.05883714
158	0xbd41d7bf	-0.047324892
159	0xbc840eaf	-0.016120283
160	0x3d1867e4	0.037208453
161	0x3b09af39	0.0021008982
162	0x3d4cdba5	0.050014157
163	0xbd9dc2cd	-0.07703171
164	0xbda8dc42	-0.08245136
165	0x3dbd2312	0.09235205
166	0x3db35764	0.08756903
167	0x3d99dd02	0.07512857
168	0xbe4d66d9	-0.20058765
169	0x3e97bf1d	0.29637995
170	0x3d4e5cdd	0.05038153
171	0x3b8fd7f7	0.0043897587
172	0xbd1056e5	-0.03523912
173	0xbd8f50e2	-0.06997849
174	0x3d057fb0	0.032592475
175	0xbb55afc5	-0.0032605988
176	0xbc51e386	-0.0128105935
177	0xbdb373e0	-0.08762336
178	0xbd2d07e8	-0.042243868
179	0xbd0aae31	-0.033857528
180	0x3cb086ca	0.021548647
181	0xbd8e3083	-0.069428466
182	0xbd6c6ac1	-0.057718996
183	0xbd05d62a	-0.032674946
184	0x3cfa0e12	0.030524287
185	0x3d81f502	0.0634556
186	0x3d825eac	0.063657135
187	0x3d057940	0.032586336
188	0xbd0700a5	-0.0329596
189	0xbd8ec445	-0.06971029
190	0xbc2dc3e4	-0.010605786
191	0xbd598d3a	-0.0531132
192	0xbdb5a608	-0.088695586
193	0x3d4c6852	0.049904175
194	0xbdce6465	-0.100777425
195	0xbd8e2d25	-0.069422044
196	0x3e0e3a75	0.13889487
197	0xbd6e5151	-0.058183018
198	0xbd29fe23	-0.04150213
199	0x3d5517ec	0.052024767
200	0x3e24f987	0.16110812
201	0xbd9492e9	-0.072545834
202	0x3d6f55a7	0.058431294
203	0x3cf11522	0.029429022
204	0x3cac9bdb	0.021070411
205	0x3d7e82ad	0.06213634
206	0xba1e5378	-0.00060396595
207	0x3e0e352e	0.13887474
208	0x3d62fae6	0.055415057
209	0xbb6f0752	-0.003647287
210	0xbe2de095	-0.16980202
211	0xbdc5d426	-0.09659605
212	0x3d98aca1	0.07454801
213	0x3c9ad5d7	0.018900795
214	0xbd369665	-0.04457702
215	0xbd87f85d	-0.066391684
216	0x3db3487b	0.08754059
217	0xbd7d4bcc	-0.061839864
218	0xbd7352cb	-0.05940513
219	0xbd387620	-0.045034528
220	0xbd89fa63	-0.067372106
221	0x3e1df283	0.15424542
222	0xbdbeea92	-0.093220845
223	0xbc2f53d2	-0.010701137
224	0xbdf47446	-0.1193624
225	0x3da3b92a	0.079943016
226	0xbc9e1015	-0.019294778
227	0x3e187c52	0.14891174
228	0x3d9aae46	0.07552771
229	0xbcb5d385	-0.022195587
230	0xbd1081a8	-0.0352799
231	0x3c4b3c98	0.012404583
232	0xbd177763	-0.03697909
233	0xbd385e5a	-0.045011856
234	0xbda4ce29	-0.080471344
235	0xbd9f1133	-0.07766952
236	0x3d2f05f9	0.042730305
237	0x3d571bd1	0.052516762
238	0x3db46e11	0.08810056
239	0xbd9383f6	-0.07202904
240	0xbd113970	-0.035455167
241	0x3de8be0a	0.11364372
242	0xbd4162b9	-0.04721329
243	0xbda2b9dd	-0.07945607
244	0xbe156ed4	-0.14593059
245	0x3d4cde7c	0.050016865
246	0xbe869b4b	-0.26290354
247	0xbc1f7843	-0.0097332625
248	0x3b2a74ba	0.0026009516
249	0x3d9ed1b0	0.077548385
250	0x3cbbdf03	0.022933489
251	0x3d082215	0.03323563
252	0x3d24d97b	0.040246468
253	0x3d5b80a3	0.053589474
254	0xbda5d915	-0.08098046
255	0x3d84c22e	0.06482349

bias f4 [82]
0	0x3cb4980d	0.02204516
1	0x3da7f17c	0.08200356
2	0x3dbfbf9a	0.09362717
3	0x3bfcbfb2	0.0077132815
4	0x3dc65c2d	0.0968555
5	0xbd8097a7	-0.062789254
6	0x3d0e3e6d	0.034727503
7	0x3d96e598	0.0736801
8	0x3e06b66e	0.13155529
9	0x3df4a880	0.11946201
10	0x3cea4741	0.02859843
11	0x3e0500d4	0.12988597
12	0xbd2eba2e	-0.042658024
13	0xbcbe5de4	-0.02323813
14	0x3c6c79b2	0.014433311
15	0x3da1caaf	0.07899987
16	0x3da762cf	0.08173143
17	0x3d7e8043	0.06213404
18	0xbca9b8ab	-0.02071794
19	0xbcda67ce	-0.026660826
20	0x3c34d488	0.0110369995
21	0x3c968b1a	0.018376876
22	0x3d51c996	0.051217638
23	0xbcd5fe2c	-0.026122175
24	0x3d440d65	0.047864337
25	0x3d2c2700	0.04202938
26	0x3de9d4cb	0.1141754
27	0x3cf2e173	0.029648518
28	0x3df50bb2	0.11965121
29	0x3da8cc6d	0.08242116
30	0xbda2e3b8	-0.0795359
31	0x3d91974b	0.07108935
32	0x3cde6940	0.027149796
33	0x3d811ec2	0.06304695
34	0x3d9157f6	0.07096855
35	0xbdb6dee6	-0.08929233
36	0x3d0cf614	0.034414366
37	0xbdb75410	-0.089515805
38	0x3e0c410d	0.1369669
39	0x3e0df752	0.13863876
40	0x3cb230ab	0.021751722
41	0xbba8a29f	-0.005146339
42	0xbc810b51	-0.015752466
43	0xbd8eb9d1	-0.069690354
44	0x3ced66b6	0.02897964
45	0x3b9e4ea0	0.00483115
46	0x3da2975d	0.079390265
47	0x3d7e267d	0.062048424
48	0xbd874021	-0.066040285
49	0xbd4f59c7	-0.050622728
50	0x3c8efc61	0.017454328
51	0x3da319d7	0.07963913
52	0xbb180e04	-0.0023201713
53	0x3d8afaeb	0.0678614
54	0xba86ffa1	-0.0010299572
55	0x3dc70e48	0.09719521
56	0x3e2413af	0.16023134
57	0xbd98d3ec	-0.07462296
58	0x3dde4365	0.10852698
59	0x3cff3b26	0.031156134
60	0xbc4b727a	-0.01241743
61	0xbd9e9960	-0.07744098
62	0x3c693fc6	0.014236396
63	0xbd76170a	-0.060080566
64	0xbda63870	-0.08116233
65	0xbce7a6d2	-0.028277788
66	0x3db8bdab	0.09020551
67	0x3dbc179c	0.09184191
68	0x3d3be407	0.04587176
69	0x3d8372a9	0.06418354
70	0x3d92dc7d	0.07170961
71	0xbcbd5171	-0.023110123
72	0xbd295d3e	-0.04134869
73	0x3dcd09f4	0.10011664
74	0x3da99c95	0.08281819
75	0xbc076f15	-0.00826623
76	0x3dd8a48c	0.1057826
77	0xbdc1f4a7	-0.09470492
78	0xbdcc437a	-0.09973808
79	0x3ca29326	0.019845556
80	0x3c8c30e3	0.017113155
81	0x3de5112a	0.111849144

weight f4 [55, 82]
0	0x3da1572e	0.07877956
1	0x3c0d2c49	0.008616515
2	0x3acdccc7	0.0015701287
3	0x3dabfd4b	0.08397921
4	0x3b1d1bff	0.0023972986
5	0x3b158835	0.0022816781
6	0x3d43f152	0.047837563
7	0xbd06d179	-0.032914612
8	0x3dd57bc8	0.10424
9	0xbd8668f1	-0.06562985
10	0x3d9e3bcd	0.0772625
11	0x3c2e1e80	0.010627389
12	0xbdccd48d	-0.10001478
13	0xbd2e36bc	-0.042532668
14	0x3ca1cefc	0.019752018
15	0x3c4a6826	0.0123539325
16	0x3d9c2df3	0.076259516
17	0x3dcad376	0.09903614
18	0x3dc0bbf8	0.09410852
19	0xbd3980fb	-0.04528902
20	0x3d373209	0.04472545
21	0xbde52e4e	-0.111904725
22	0xbdb62e21	-0.08895517
23	0x39c0c92d	0.0003677098
24	0xbdbd49ac	-0.092425674
25	0xbcc9a8c8	-0.024616614
26	0xbd1e06aa	-0.038580574
27	0x3db1e168	0.08685571
28	0xbd8874be	-0.06662892
29	0xbde06ef7	-0.10958665
30	0xbdd40c91	-0.10353959
31	0xbda5bf53	-0.08093133
32	0xbdaba9ec	-0.083820194
33	0xbdd8ee5b	-0.10592338
34	0xbc912629	-0.017718391
35	0xbdd7605a	-0.105164245
36	0xbc0d9771	-0.0086420635
37	0xbd9ab0c4	-0.075532466
38	0x3d56453d	0.052312125
39	0xbd8f959f	-0.0701096
40	0x3d4e57b2	0.0503766
41	0xbd1b0275	-0.03784414
42	0xbd204665	-0.039129633
43	0x3d63f8c2	0.055657156
44	0x3db1e4f8	0.086862504
45	0xbddb74f0	-0.107156634
46	0xbdbe9443	-0.093056224
47	0x3da2be4a	0.07946451
48	0xbddce579	-0.10785956
49	0xbd152b8e	-0.03641849
50	0x3dbf89e6	0.09352474
51	0x3d16b55f	0.036794063
52	0xbc700b54	-0.014651138
53	0x3daea10e	0.085268125
54	0x3d2f90c8	0.042862684
55	0xbdd503f4	-0.104011446
56	0x3c52e802	0.012872698
57	0xbdb1e5d3	-0.086864136
58	0x3db56789	0.088576384
59	0xbc83bcd0	-0.016081244
60	0xbba3b059	-0.0049953875
61	0x39adb3af	0.00033131006
62	0xbda3d1e4	-0.07999018
63	0xbdc870ae	-0.09787117
64	0x3c81b289	0.015832203
65	0xbc605c28	-0.013693847
66	0x3dc2eb4d	0.09517536
67	0x3d7bd385	0.061481018
68	0x3ca4e909	0.020130651
69	0x3dcddf06	0.10052304
70	0x3d2b9b87	0.04189637
71	0xbd107ba8	-0.035274178
72	0x3d77459a	0.06036911
73	0xbdb1a2cd	-0.0867363
74	0xbc078acf	-0.008272841
75	0x3d0ea2e3	0.03482331
76	0xbdbc4b2b	-0.09194025
77	0xbda50a53	-0.0805861
78	0x3c95c58d	0.018282676
79	0x3cc279c0	0.023739696
80	0x3cb53661	0.022120656
81	0xbdc301e4	-0.09521845
82	0xbd041930	-0.032250583
83	0x3e22f5dc	0.159141
84	0x3cd939a8	0.02651675
85	0xbe1fc7df	-0.15603589
86	0xbdc59317	-0.09647196
87	0x3db2bc00	0.087272644
88	0xbd935120	-0.07193208
89	0xbd4d81c7	-0.050172593
90	0x3e3c46b5	0.18386348
91	0xbc93bc64	-0.018034168
92	0x3d5fcb7c	0.054637417
93	0x3d63d1ef	0.05562013
94	0x3e0ff29c	0.14057392
95	0x3e1dd3e3	0.1541286
96	0x3db6762d	0.08909259
97	0xbd17794b	-0.03698091
98	0x3d44c296	0.048037134
99	0x3d1bce4b	0.038038533
100	0x3e1807a1	0.1484666
101	0x3dca8afc	0.098897904
102	0xbd802627	-0.06257277
103	0x3d9ef5e0	0.07761741
104	0x3e8723d4	0.26394522
105	0xbdf20d3c	-0.118189305
106	0x3d676b2d	0.056498695
107	0xbc992658	-0.018695042
108	0xbc54f146	-0.012996977
109	0x3dd3a257	0.10333698
110	0x3c7c1abc	0.015387233
111	0x3d9eec3e	0.07759903
112	0xbc8a250e	-0.016863372
113	0x3c909a81	0.017651798
114	0x3d3272a8	0.043566376
115	0x3e33f02e	0.1757209
116	0x3da11231	0.07864798
117	0xbc8efb4e	-0.017453816
118	0x3d66c753	0.056342434
119	0xbdc48ac2	-0.095967785
120	0x3dd40b3a	0.10353704
121	0x3d98dd69	0.07464106
122	0x3d7d1d50	0.061795533
123	0x3d5b5420	0.053547025
124	0x3de9b23f	0.11410951
125	0x3d834b23	0.064108156
126	0x3d41af84	0.047286525
127	0xbeef02d7	-0.46681854
128	0x3d7a27d2	0.06107313
129	0xbd9a22bb	-0.075261556
130	0xbc8ac3eb	-0.016939124
131	0x3b9f0a24	0.004853504
132	0x3e45d7f0	0.19320655
133	0xbc1b5020	-0.0094795525
134	0x3c15f750	0.009153202
135	0x3cc1e769	0.023669915
136	0x3e24fec7	0.16112815
137	0x3c697713	0.014249581
138	0xbd9118ce	-0.07084809
139	0xbd7e8fde	-0.06214892
140	0xbc0707af	-0.008241578
141	0x3e3a2367	0.18177567
142	0x3c01dee7	0.007926679
143	0xbdaed6fa	-0.08537097
144	0x3e2dfaa1	0.16990139
145	0xbd8b84eb	-0.068124615
146	0xbd7e3d0f	-0.06206995
147	0xbd0dbb09	-0.0346022
148	0x3df8fd30	0.12157667
149	0x3e53ec27	0.20695554
150	0x3d86718d	0.06564627
151	0xbe17520c	-0.14777392
152	0xbdaea0c2	-0.08526756
153	0xbd637f22	-0.055541165
154	0x3d2e9d46	0.042630456
155	0x3ba0224d	0.0048869015
156	0x3d9eb796	0.0774986
157	0x3e23c696	0.15993723
158	0x3e0b11c6	0.13580999
159	0x3d03e7ff	0.03220367
160	0xbd891af5	-0.06694595
161	0x3dc8c98f	0.09804069
162	0xbe4809ca	-0.19534984
163	0xbcda792d	-0.02666911
164	0xbcc25f90	-0.023727208
165	0x3dbcffed	0.092285015
166	0xbcf90792	-0.030399118
167	0xbd159fa5	-0.036529202
168	0x3dad87e1	0.084731825
169	0xbdbc461c	-0.0919306
170	0x3d940751	0.07227958
171	0xbc85ee02	-0.016348843
172	0xbde15443	-0.110024
173	0x3c0f1180	0.0087322
174	0xbc867ce8	-0.016416982
175	0xbdcf140e	-0.10111247
176	0xbd05a625	-0.03262915
177	0x3dd4a9f2	0.10383977
178	0x3bc61940	0.0060454905
179	0x3d05ac69	0.032635126
180	0xbd958bf4	-0.073020846
181	0x39505ed9	0.0001987176
182	0x3c354436	0.011063626
183	0x3db45fd7	0.088073425
184	0xbd85e5b6	-0.065379545
185	0xbcc2efdf	-0.02379602
186	0xbda57d43	-0.080805324
187	0x3bd2d766	0.006434369
188	0x3c212864	0.00983629
189	0xbd32b77e	-0.043632023
190	0x3db5d2c4	0.08878091
191	0x3d4536ef	0.048148092
192	0xbdccec42	-0.10006
193	0x3bb85282	0.00562507
194	0x3dd31b19	0.10307903
195	0xbda1bff5	-0.07897941
196	0xbc55a9bb	-0.013040955
197	0xbd31b39b	-0.043384176
198	0xbda3812c	-0.07983622
199	0x3ddfa7d6	0.10920684
200	0xbc49113e	-0.012272177
201	0xbd9b9a3f	-0.075977795
202	0x3d8f03f9	0.069831796
203	0xbd041abb	-0.032252055
204	0x3b6c934d	0.003609854
205	0xbd0be311	-0.034152094
206	0x3cce094d	0.02515092
207	0xbd9f0bff	-0.0776596
208	0xbda1ab6d	-0.07894025
209	0x3a1ba659	0.00059375685
210	0x3d204f10	0.0391379
211	0x3d1cce8d	0.03828292
212	0x3dca3062	0.098725095
213	0xbd986df2	-0.074428454
214	0x3de1bebd	0.110227086
215	0x3dc2f965	0.095202245
216	0xbddd145f	-0.10794901
217	0x3ba98ffc	0.005174635
218	0xbd8df746	-0.06931929
219	0xbd8c522f	-0.06851613
220	0x3d9d64d4	0.07685247
221	0xbcd8016e	-0.02636787
222	0xbdcce24e	-0.10004102
223	0x3ca43902	0.020046715
224	0x3c7bfff2	0.015380846
225	0xbdb6126c	-0.088902324
226	0x3ccd066c	0.025027476
227	0xbd597f2a	-0.05309979
228	0x3db0af10	0.086271405
229	0xbd5b2ca5	-0.053509373
230	0xbdb6b433	-0.08921089
231	0xbd8aef50	-0.067839265
232	0x3ccf9c44	0.025343068
233	0xbd9b885b	-0.07594367
234	0xbd7f3756	-0.06230863
235	0x3b9e4ed3	0.004831174
236	0xbc88b4bf	-0.016687749
237	0x3d82705e	0.063690886
238	0xbd8fca3f	-0.07020997
239	0x3dbc2daf	0.09188401
240	0xbdbe6079	-0.092957444
241	0x3d8b21c5	0.067935504
242	0xbdc78d24	-0.09743717
243	0x3dbaad06	0.09115033
244	0xbd8ea724	-0.06965473
245	0xbd188e8a	-0.03724531
246	0x3d1e3fb9	0.03863499
247	0x3c8852e4	0.016641088
248	0x3e4acd07	0.19804774
249	0x3dd02cfa	0.101648286
250	0x3e351a0a	0.17685714
251	0x3d97a69e	0.074048266
252	0x3d834cda	0.06411143
253	0x3e9e443b	0.3091143
254	0xbe203def	-0.15648626
255	0x3da90928	0.082536995

bias f4 [55]
0	0xbdd6d2a4	-0.10489395
1	0x3d08c297	0.0333887
2	0xbc7c2817	-0.015390418
3	0xbaf7a311	-0.0018893202
4	0xbd8dea2b	-0.069294296
5	0x3c3f11da	0.011661971
6	0x3c9f882c	0.019474111
7	0x3bf1cc1f	0.0073790695
8	0x3ca34d1a	0.019934226
9	0xbd1aedb6	-0.037824355
10	0xbcd87f76	-0.026427966
11	0xbd6c8f28	-0.057753712
12	0x3d9738e3	0.07383897
13	0xbd6b7ace	-0.057490163
14	0xbd9c483a	-0.076309636
15	0xbc0d5591	-0.008626358
16	0xbccc99f4	-0.024975754
17	0x3d81502d	0.063141204
18	0x3ce06321	0.027391018
19	0xbd40bfea	-0.047058024
20	0x3e06af39	0.1315278
21	0xbd62bdb9	-0.055356715
22	0xbd6cbf0a	-0.057799377
23	0xbde742fd	-0.11292074
24	0x3dd1c782	0.10243131
25	0xbd485d52	-0.048917122
26	0xbce2bc5b	-0.027677706
27	0x3e2f31bf	0.1710882
28	0x3dbd9062	0.092560545
29	0x3d86bdf5	0.065792
30	0x3d126e56	0.035749756
31	0x3ca9ded2	0.020736132
32	0x3d82f699	0.06394691
33	0xbaf48e9d	-0.0018658225
34	0x3cec9610	0.02888015
35	0x3c9482a2	0.018128697
36	0x3da50abb	0.08058687
37	0xbd471977	-0.04860827
38	0xbd889429	-0.06668884
39	0x3dfc8afd	0.123311974
40	0x3c15f750	0.009153202
41	0x3bd170d7	0.0063916254
42	0xbda31971	-0.07963837
43	0x3d7a9c23	0.06118406
44	0x3df84b06	0.121236846
45	0xbe068413	-0.1313632
46	0x3c97aa73	0.018513894
47	0x3c23e32b	0.0100028915
48	0xbd5c608e	-0.05380302
49	0x3dc25885	0.0948954
50	0xbdc6b194	-0.09701839
51	0xbbc9e14d	-0.006160891
52	0x3db84a5c	0.08998558
53	0x3d82eaa9	0.06392414
54	0x3d6ee721	0.05832589

weight f4 [27, 55]
0	0xbc997564	-0.018732734
1	0xbb373daa	-0.0027960339
2	0x3dec372f	0.11533963
3	0xbd6209ad	-0.05518501
4	0x3dfe1c1a	0.12407704
5	0x3e270f99	0.16314544
6	0x3e157839	0.14596643
7	0x3e367145	0.17816646
8	0x3eb35ef5	0.35033384
9	0xbdcc988c	-0.099900335
10	0x3edf7239	0.43641832
11	0xbdad5cfa	-0.084649995
12	0x3e98df7b	0.29858002
13	0xbdb5ea79	-0.08882613
14	0x3c81a8e6	0.015827607
15	0xbe5a2601	-0.2130356
16	0xbce1444a	-0.027498383
17	0xbd5ca73d	-0.05387043
18	0xbe25ed68	-0.16203845
19	0x3d9c8e88	0.07644373
20	0xbe3ab034	-0.18231279
21	0xbc71543c	-0.014729556
22	0xbd844dcf	-0.06460153
23	0xbc8ca348	-0.017167702
24	0x3e936475	0.2878758
25	0xbe0880d1	-0.1333039
26	0x3db64bbd	0.08901165
27	0x3ec245f5	0.37943998
28	0x3d9c8f66	0.076445386
29	0x3e03304d	0.12811394
30	0xbc6d5e8d	-0.014487875
31	0xbbdf7ba6	-0.00682016
32	0x3dd1e134	0.10248032
33	0x3d065211	0.03279311
34	0xbd45f536	-0.048329554
35	0x3dc176e6	0.09446506
36	0xbac53e42	-0.0015048462
37	0x3e893e4b	0.26805338
38	0xbd43135e	-0.047625892
39	0x3d3e9bce	0.046535306
40	0xbdd9971a	-0.106245235
41	0xbd27e924	-0.040993825
42	0x3dcee8c8	0.10102993
43	0xbd80f000	-0.06295776
44	0xbe8d68c3	-0.2761899
45	0xbdf10b31	-0.11769713
46	0xbb85fe3a	-0.004089144
47	0x3c36c90d	0.011156333
48	0x3d631706	0.05544188
49	0xbd849383	-0.06473448
50	0x3d77a9f0	0.0604648
51	0x3e180a67	0.14847718
52	0xbd30b398	-0.043140024
53	0x3efe566f	0.4967532
54	0x3d503d98	0.05083999
55	0x3cf5f489	0.03002383
56	0x3c60c4aa	0.013718763
57	0xbdd9be4b	-0.10631999
58	0x3c08ae90	0.0083424
59	0xbd38ebb8	-0.045146674
60	0xbdcd40d6	-0.10022132
61	0xbc85e2bc	-0.016343467
62	0xbd618c3a	-0.05506537
63	0xbd2b6016	-0.04183968
64	0xbda6d829	-0.08146698
65	0xbda81297	-0.08206671
66	0xbd763963	-0.060113322
67	0x3db56b84	0.088583976
68	0xbe07cfdc	-0.13262886
69	0x3dee892b	0.116472565
70	0xbd3f491b	-0.04670058
71	0x3d87befb	0.066282235
72	0x3cd2630c	0.025681995
73	0x3cdedab7	0.0272039
74	0x3dd1904c	0.102326006
75	0xbc475fe2	-0.012168856
76	0xbdaf9006	-0.08572392
77	0x3ddbbcf1	0.10729397
78	0x3d6cb42c	0.057789013
79	0xbd9eaa07	-0.07747274
80	0x3e00fa9e	0.12595603
81	0xbd7defff	-0.061996456
82	0xbe05e894	-0.13077003
83	0x3d9ca686	0.07648949
84	0xbd7de118	-0.061982244
85	0x3d52bce1	0.05144966
86	0xbd932da5	-0.071864404
87	0x3dc0c8fa	0.09413333
88	0x3b067b57	0.0020520294
89	0xbd0d598b	-0.034509223
90	0xbd6c3ed6	-0.057677113
91	0xbe09c523	-0.13454108
92	0xbe0afaf4	-0.13572294
93	0x3baee5bf	0.0053374465
94	0xbd93e9a6	-0.07222299
95	0xbc4fbbab	-0.012679021
96	0x3e03a310	0.12855172
97	0xbdc0f604	-0.09421924
98	0xbda21257	-0.07913654
99	0xbc628412	-0.013825433
100	0xbd7b78e2	-0.06139458
101	0xbcd4b7e1	-0.025966587
102	0x3ddf3e10	0.10900509
103	0xba94d5e5	-0.001135525
104	0x3b85476d	0.0040673525
105	0xbc738a5c	-0.01486453
106	0xbd5c2132	-0.053742595
107	0xbd52436d	-0.051333833
108	0x3c36dfb1	0.011161731
109	0xbbf39621	-0.0074336682
110	0xbda0e1dd	-0.0785558
111	0xbb8c0ef0	-0.0042742416
112	0x3c1f9c27	0.009741819
113	0xbe83c087	-0.25732824
114	0xbc1c7485	-0.009549265
115	0x3e4ed5a1	0.2019868
116	0xbdcca186	-0.09991746
117	0x3da2fc95	0.079583324
118	0xbd8553a0	-0.06510091
119	0xbdb04f70	-0.086089015
120	0x3dd79214	0.10525909
121	0x3e01a213	0.12659483
122	0xbd3ff1d3	-0.04686148
123	0x3cf317ea	0.029674489
124	0xbcb5b89f	-0.02218276
125	0xbe264f0a	-0.16241089
126	0x3d9d4c74	0.07680598
127	0x3e2649e2	0.16239122
128	0x3e6e2108	0.23254788
129	0xbbbb3c37	-0.0057139653
130	0x3dac0bd0	0.084006906
131	0x3cc7aac4	0.02437342
132	0x3de4eb84	0.111777335
133	0xbce30963	-0.027714437
134	0xbd00f086	-0.03147938
135	0x3d54457c	0.051824078
136	0x3dfda05c	0.12384102
137	0xbd38734a	-0.045031823
138	0xbdcb1778	-0.09916586
139	0xbcb8d32c	-0.022561632
140	0x3d1abdb9	0.03777859
141	0xbcc1eb4b	-0.023671767
142	0xbb3d0b25	-0.0028845754
143	0x3dda9d47	0.106745295
144	0xbdeea6a1	-0.11652876
145	0x3e052759	0.13003291
146	0xbe7b38fb	-0.24533455
147	0x3e140002	0.14453128
148	0x3dd0f97f	0.102038376
149	0x3e349e84	0.17638594
150	0x3deb3bd1	0.114860184
151	0xbe8de7f3	-0.27716026
152	0x3e190093	0.14941625
153	0x3c8fd725	0.017558644
154	0x3e013488	0.12617695
155	0x3d37bc15	0.044857103
156	0xbda9e60b	-0.0829583
157	0x3df65b8d	0.12029181
158	0x3d9e7aa2	0.07738234
159	0xbd6190aa	-0.055069603
160	0xbc9a9ac4	-0.018872626
161	0x3e945c7c	0.2897681
162	0x3cc1858b	0.023623249
163	0x3e0cb0f2	0.13739374
164	0xbd9dfe13	-0.077144764
165	0xbe05af24	-0.13055092
166	0x3e2b858e	0.16750166
167	0x3dc976bf	0.09837102
168	0xbe2d1369	-0.16901936
169	0x3ddf80b1	0.10913218
170	0x3dece6da	0.11567469
171	0x3e164164	0.14673382
172	0xbd9487ef	-0.0725249
173	0xbb7dd1b2	-0.0038729724
174	0x3ddf5764	0.1090534
175	0x3ce8361a	0.02834611
176	0xbd73c5b8	-0.05951473
177	0x3e1f50be	0.15558144
178	0xbd732273	-0.059359025
179	0x3d40930c	0.047015235
180	0x3e7dfef7	0.24804293
181	0x3e04ef5f	0.12981938
182	0x3ded03e9	0.115730114
183	0x3cce2837	0.02516566
184	0xbda6990d	-0.08134661
185	0xbd53b367	-0.051684763
186	0x3d06c9f4	0.03290744
187	0xbe0776af	-0.13228868
188	0xbda0a5c3	-0.078441165
189	0x3da0a7c7	0.07844501
190	0x3e07dcb6	0.13267788
191	0x3d9d3c55	0.07677523
192	0x3e142b19	0.14469565
193	0xbcbefe0c	-0.023314498
194	0x3e34b3d7	0.17646728
195	0xbd3cf136	-0.046128474
196	0x3bf92d13	0.00760425
197	0x3d4928f6	0.04911133
198	0xbd8b66b0	-0.068066955
199	0x3d9324be	0.071847424
200	0x3b18f044	0.002333657
201	0xbd750505	-0.05981924
202	0xbc634093	-0.013870376
203	0xbd65f01c	-0.05613719
204	0xbd3cc629	-0.046087418
205	0xbc8eb0e1	-0.017418327
206	0xbe4f6863	-0.20254664
207	0xbd049b0f	-0.032374438
208	0x3dd90bde	0.105979666
209	0xbd714953	-0.058907818
210	0xbc0271a0	-0.007961661
211	0x3e151b5f	0.14561222
212	0x3e04df6a	0.1297585
213	0x3d206cdb	0.039166313
214	0x3da3751b	0.079813205
215	0xbd9234da	-0.07138987
216	0xbd7bf0fe	-0.061509125
217	0x3e31da07	0.17368327
218	0xbf05c610	-0.52255344
219	0x3de81200	0.11331558
220	0xbcfc3a8a	-0.030789632
221	0x3e0668fd	0.13125987
222	0xbd3e4aef	-0.04645818
223	0x3e55bf23	0.20873694
224	0x3b91c943	0.004449041
225	0xbe65239a	-0.22376862
226	0x3d7bce75	0.06147619
227	0x3d05f439	0.032703612
228	0x3db3b247	0.08774238
229	0x3cc92344	0.024552949
230	0x3dbb237c	0.091376275
231	0x3ddcf871	0.10789574
232	0xbd6f8ba4	-0.05848278
233	0x3dc533d3	0.09629025
234	0x3db9fc9d	0.09081385
235	0x3e462486	0.1934987
236	0xbd92955a	-0.07157393
237	0xbd6630b6	-0.056198798
238	0x3d9173a0	0.07102132
239	0xbe10e2cd	-0.14149018
240	0x3e3fa720	0.18716097
241	0xbcb22d7f	-0.02175021
242	0xbd8460cc	-0.06463775
243	0x3c9a5ff2	0.018844578
244	0xbdc6936d	-0.09696088
245	0xbdbf6205	-0.093448676
246	0x3d6d7b41	0.057978872
247	0xbd964439	-0.07337231
248	0x3c90523b	0.017617336
249	0x3d3ae9df	0.045633193
250	0xbdbdbe00	-0.09264755
251	0x3de58240	0.11206484
252	0xbd689fad	-0.056792904
253	0x3ded1d36	0.11577837
254	0xbb7e8f85	-0.0038842869
255	0xbd364eff	-0.04450893

bias f4 [27]
0	0x3cbcfb30	0.023068994
1	0xbdd12894	-0.10212818
2	0x3be8a7c9	0.0071000797
3	0x3da4c6f6	0.08045761
4	0xb9aa9b66	-0.00032540708
5	0x3d22cc92	0.039745875
6	0xbe09d87e	-0.13461491
7	0xbc42a88e	-0.011881007
8	0x3e1c9d7e	0.15294454
9	0xbddc8dfa	-0.107692674
10	0x3c4e3980	0.012586951
11	0xbde8c320	-0.11365342
12	0x3dbfc309	0.09363372
13	0xbd849814	-0.06474319
14	0x3db0479b	0.08607408
15	0x3cdc68f3	0.026905512
16	0x3cc9c7b1	0.024631353
17	0xbd9c856d	-0.076426364
18	0x3d97df83	0.07415678
19	0xbd178a37	-0.036997046
20	0x3d72f6ac	0.059317276
21	0xbe03159c	-0.12801212
22	0x3e003f46	0.12524137
23	0xbd07e2ce	-0.033175282
24	0x3e28e1f8	0.1649245
25	0xbd8d2ac4	-0.068929225
26	0xbd7c2344	-0.06155707

weight f4 [11, 27]
0	0x3e24c142	0.16089347
1	0x3e13e8c0	0.14444256
2	0xbe73e685	-0.23818405
3	0xbe42a7a8	-0.19009268
4	0x3d9d3358	0.07675809
5	0xbe719d11	-0.23595072
6	0xbc3dc7ea	-0.011583308
7	0xbe328720	-0.17434359
8	0x3d98fb37	0.074697904
9	0x3e26ea8d	0.16300412
10	0xbe77541b	-0.24153177
11	0x3b8a8656	0.00422744
12	0x3e0bbb6b	0.13645713
13	0xbe0d29e1	-0.13785507
14	0xbdb4b017	-0.08822649
15	0xbdcaf39d	-0.09909747
16	0x3df23cf8	0.11828035
17	0xbe2806aa	-0.16408792
18	0x3e5cfa26	0.21579799
19	0xbe12926f	-0.14313672
20	0x3cccd63e	0.025004502
21	0x3dece3f7	0.11566918
22	0x3e312724	0.17300087
23	0x3cb26b66	0.021779727
24	0x3eceab50	0.40365076
25	0xbdb034a5	-0.08603791
26	0xbe0325d4	-0.12807399
27	0xbe3ae975	-0.1825312
28	0x3d97cac3	0.074117206
29	0xbe4910e3	-0.19635348
30	0x3cb17dfc	0.02166652
31	0xbe0f53d6	-0.13996825
32	0xbe0fa20e	-0.14026663
33	0xbd041bc6	-0.03225305
34	0xbe753954	-0.2394765
35	0x3df7a8fe	0.120927796
36	0xbc100bff	-0.008791923
37	0xbe285937	-0.16440283
38	0xbdcba95f	-0.09944414
39	0xbd3488df	-0.044075843
40	0xbe15d39c	-0.14631504
41	0x3db60673	0.08887949
42	0x3e2b5da9	0.16734947
43	0xbdff04b1	-0.12452067
44	0xbe8427f1	-0.25811723
45	0x3d0ceff8	0.03440854
46	0xbe96e6e4	-0.2947303
47	0xbd3651e0	-0.044511676
48	0xbe211d42	-0.15733817
49	0x3e3b2f51	0.18279769
50	0xbd1021be	-0.03518843
51	0xbd3c3f2b	-0.04595868
52	0xbd8b8073	-0.06811609
53	0x3e0d92b3	0.13825493
54	0x3bbfa658	0.005848687
55	0xbe4823c3	-0.19544892
56	0x3ec14fd8	0.37756228
57	0xbce152b4	-0.027505256
58	0x3d99a0f1	0.075014
59	0x3df052e6	0.117345616
60	0xbc0f225b	-0.008736218
61	0x3ce07920	0.027401507
62	0xbe8a62bb	-0.2702845
63	0xbd9bdcdc	-0.07610485
64	0xbe439624	-0.19100243
65	0x3dd7f9ab	0.10545667
66	0x3d945af2	0.07243909
67	0x3e8b3a7d	0.2719306
68	0xbe546b53	-0.20744066
69	0xbe533704	-0.20626456
70	0xbe7dfd24	-0.24803597
71	0xbe1cfdfd	-0.15331264
72	0xbd9935cd	-0.07480965
73	0xbe1389c6	-0.14408025
74	0xbe2cd60e	-0.1687853
75	0x3de9c612	0.11414732
76	0x3d9647c3	0.07337906
77	0x3d5bce82	0.053663738
78	0x3e4250de	0.18976161
79	0xbdf43d9b	-0.11925813
80	0x3cf02a6c	0.029317103
81	0xbd26ec87	-0.040752914
82	0xbe30a5d2	-0.17250755
83	0xbe1f4fa9	-0.15557732
84	0xbd95e81a	-0.073196605
85	0xbe821ca0	-0.25412464
86	0x3e0f054f	0.13966869
87	0xbb6c7c8f	-0.0036084985
88	0x3e57d167	0.21075974
89	0xbdbce28f	-0.092229
90	0x3db4fc63	0.088372014
91	0xbdbcbaea	-0.092153385
92	0xbd248cdf	-0.040173408
93	0xbe42a04f	-0.19006465
94	0x3da665cc	0.08124885
95	0xbbf37a60	-0.0074303597
96	0x3c326832	0.0108891
97	0xbe0105f2	-0.12599924
98	0x3cb5f7dd	0.022212917
99	0xbe3a9752	-0.18221787
100	0xbc0890f0	-0.008335337
101	0x3e849cb2	0.259008
102	0xbd0e16f4	-0.03468986
103	0x3e20ff6d	0.15722437
104	0xbe1ed538	-0.15511024
105	0xbdde2dfe	-0.10848616
106	0xbdbe71b5	-0.09299032
107	0xbdf78d98	-0.12087554
108	0xbe91886c	-0.28424394
109	0x3db84308	0.0899716
110	0x3e31f1ff	0.1737747
111	0x3e5a5447	0.21321212
112	0x3d9a4cb0	0.07534158
113	0x3de85b8e	0.11345588
114	0x3dbb4543	0.0914407
115	0xbe37c156	-0.17944846
116	0x3ec08abe	0.37605852
117	0xbd4a3b7c	-0.049373135
118	0x3c4a2a15	0.012339135
119	0x3e20aed0	0.15691686
120	0x3b9434c2	0.004522891
121	0xbdee845f	-0.116463415
122	0xbe0224e4	-0.12709385
123	0x3d37d320	0.04487908
124	0x3e9e90f5	0.30969968
125	0xbe4e2ba5	-0.20133837
126	0xbd6f576a	-0.058432974
127	0xbe22b725	-0.15890177
128	0x3e7d0e5e	0.24712512
129	0xbd19e502	-0.037571914
130	0x3e8ea972	0.27863652
131	0xbe1e1aec	-0.15439957
132	0x3e8e5a3e	0.27803224
133	0xbdcc2494	-0.09967914
134	0xbc4994ea	-0.01230357
135	0xbd6189fa	-0.055063225
136	0xbe0e9a44	-0.13926035
137	0xbefd94e5	-0.4952766
138	0x3e082352	0.13294724
139	0x3eb6f5a6	0.3573429
140	0x3da66545	0.081247844
141	0xbe18e672	-0.14931658
142	0x3e56a1f3	0.20960216
143	0x3d2c1cd7	0.04201969
144	0xbda7190c	-0.08159074
145	0x3cdc54c0	0.02689588
146	0x3e687aee	0.22703144
147	0x3ebb9a48	0.36641145
148	0x3e8566f2	0.26055104
149	0xbdfc7247	-0.12326484
150	0xbdfb8a01	-0.122821815
151	0xbe213e1b	-0.15746348
152	0x3e0c9b0d	0.13731022
153	0xbe851ca3	-0.2599841
154	0x3d1ff384	0.039050594
155	0x3df1fd56	0.11815898
156	0xbd5bb776	-0.05364176
157	0xbc827712	-0.015925918
158	0x3d207288	0.039171726
159	0x3b7bada3	0.0038403056
160	0xbcbd9e66	-0.02314682
161	0xbd68c51d	-0.056828607
162	0x3e94823c	0.2900561
163	0x3dff9d47	0.1248117
164	0xbd1b547c	-0.037922367
165	0xbe2c4375	-0.16822608
166	0x3e324bf2	0.17411783
167	0xbdf2abd7	-0.11849182
168	0xbdc15f78	-0.09442037
169	0x3b6bb3a9	0.003596524
170	0xbd82a48c	-0.06379041
171	0x3dfb83e9	0.12281019
172	0xbe0f62b7	-0.140025
173	0x3d7d310f	0.061814364
174	0x3e484375	0.19556983
175	0xbe6f60c2	-0.23376754
176	0xbdd6fd2e	-0.10497509
177	0xbe587393	-0.21137838
178	0x3d19c80c	0.037544295
179	0x3e14db4a	0.14536777
180	0xbe68eacd	-0.2274582
181	0x3e829b1d	0.25508967
182	0xbe90a4bf	-0.2825069
183	0xbe081072	-0.13287523
184	0xbd6a2b97	-0.057170477
185	0xbe13ac3e	-0.14421174
186	0x3c709b34	0.014685441
187	0x3ded9124	0.11599949
188	0xbe3dc6b0	-0.18532825
189	0xbdc0da89	-0.09416682
190	0x3d55d394	0.05220373
191	0x3e6a3c64	0.228746
192	0xbe16cac1	-0.14725782
193	0x3df72af0	0.120687366
194	0xbd096815	-0.033546526
195	0x3de9bf1f	0.114134066
196	0xbdb7cf21	-0.089750536
197	0xbe295134	-0.16534883
198	0x3d8d4d7d	0.06899545
199	0x3dfe0e25	0.124050416
200	0xbc1bff32	-0.0095212925
201	0x3e5453db	0.20735113
202	0xbe5e3a01	-0.21701814
203	0x3d840c15	0.06447617
204	0x3cdc7876	0.026912909
205	0x3d810f21	0.06301714
206	0x3d5ede14	0.05441101
207	0x3d8ab1f1	0.06772221
208	0xbdb2f250	-0.08737624
209	0x3e6835fa	0.2267684
210	0x3ce51d86	0.02796818
211	0x3e20fef8	0.15722263
212	0xbde8aa7b	-0.113606416
213	0xbd99542b	-0.07486757
214	0x3dd24bf2	0.10268392
215	0xbdd5820d	-0.10425196
216	0xbe91c1b8	-0.28468108
217	0xbdd43f40	-0.103636265
218	0x3ed12a1a	0.40852433
219	0xbe22aee8	-0.15887034
220	0x3d0ff59a	0.035146333
221	0xbd2de589	-0.04245523
222	0x3e16e394	0.14735252
223	0xbd8a159e	-0.067424044
224	0x3ea32b4a	0.31868964
225	0x3e0ce622	0.13759664
226	0xbd6cceb4	-0.057814315
227	0xbe60b9d6	-0.21945891
228	0x3e464e3c	0.19365782
229	0x3de380c0	0.111085415
230	0xbd3aece5	-0.045636076
231	0xbe30624b	-0.17224996
232	0xbde0febc	-0.10986087
233	0x3c9db882	0.01925302
234	0x3ed80203	0.42189035
235	0xbd894d5f	-0.067042105
236	0xbdb8ff15	-0.09033028
237	0x3e01bd90	0.12669969
238	0x3dd0778d	0.101790525
239	0xbd396492	-0.045261927
240	0xbbb00a8c	-0.005372351
241	0x3e284f6f	0.16436552
242	0xbca7ce69	-0.020484166
243	0x3e86280d	0.2620243
244	0x3dec442b	0.115364395
245	0x3df34b8b	0.11879643
246	0x3e6026e7	0.2188984
247	0xbe8ac647	-0.271044
248	0xbc84bf4e	-0.016204502
249	0xbd36d95b	-0.04464088
250	0xbd9ff3f0	-0.07810199
251	0x3dbd842e	0.09253727
252	0xbd81895f	-0.063250296
253	0x3e71a2eb	0.23597305
254	0x3e4f386e	0.2023637
255	0xbe82337a	-0.25429899

bias f4 [11]
0	0x3d943a4e	0.07237683
1	0xbd63e828	-0.055641323
2	0xbcb93a4c	-0.022610806
3	0x3e52b566	0.2057701
4	0x3e3f7128	0.1869551
5	0x3e26cc07	0.16288768
6	0x3dc60b10	0.09670079
7	0x3c943bf6	0.018094998
8	0xbe00adc4	-0.12566286
9	0xbe80483f	-0.2505512
10	0x3e2e279e	0.170073

weight f4 [27, 11]
0	0xbdab42ea	-0.08362372
1	0xbe88b40e	-0.2669987
2	0x3dd338e9	0.10313589
3	0xbe199393	-0.14997701
4	0x3d4e075e	0.050299995
5	0x3e4169ec	0.18888062
6	0x3e7bc7be	0.24587914
7	0x3ea2d9f6	0.31806916
8	0x3c84d955	0.016216913
9	0xbe50c89c	-0.20389026
10	0xbde1d161	-0.11026264
11	0xbe41310d	-0.18866368
12	0xbe1e11aa	-0.15436426
13	0xbbd854f6	-0.006601925
14	0xbe7855f7	-0.24251543
15	0xbe304989	-0.17215551
16	0x3e6f53e9	0.23371853
17	0x3e7d2e66	0.24724731
18	0xbd0a1bd2	-0.033717938
19	0x3e06329c	0.13105243
20	0xbe57b3c8	-0.21064675
21	0x3e5f6e0a	0.2181932
22	0xbcc532fc	-0.024072163
23	0xbe2d027e	-0.16895482
24	0xbe6c3cbd	-0.23070045
25	0xbd183793	-0.037162375
26	0xbe60ab27	-0.2194029
27	0x3e9c0653	0.30473575
28	0x3eaa66e7	0.33281633
29	0x3d5d6179	0.054048035
30	0xbe846c78	-0.25864005
31	0xbdc7e700	-0.09760857
32	0x3d1dc533	0.038518142
33	0x3d2e6df1	0.042585317
34	0xbea442f7	-0.3208234
35	0x3e465f4f	0.19372295
36	0xbea21cc0	-0.3166256
37	0xbee44181	-0.44581226
38	0xbe8e66c0	-0.27812767
39	0x3e565a79	0.2093295
40	0xbe9897b4	-0.2980324
41	0x3cfd3b27	0.030911995
42	0xbf09b700	-0.5379486
43	0x3d53462c	0.051580593
44	0x3e8103a8	0.25198102
45	0x3d8f660b	0.07001885
46	0x3ed2286b	0.4104646
47	0x3e873afa	0.26412183
48	0xbe55fa81	-0.20896341
49	0xbd512785	-0.05106308
50	0x3e845b5c	0.25850952
51	0xbeb691cc	-0.3565811
52	0xbeacfefc	-0.33788288
53	0xbea0e703	-0.31426248
54	0x3eb082b1	0.3447471
55	0xbe5e19a8	-0.21689475
56	0xbd7bdbee	-0.06148904
57	0xbecfdc5b	-0.40597805
58	0x3e5ed070	0.217592
59	0x3de68ab1	0.11256922
60	0xbd086a85	-0.03330471
61	0x3d9c9378	0.07645315
62	0xbeb0e4e5	-0.34549633
63	0xbdf7b623	-0.12095287
64	0x3dc137dc	0.094344825
65	0x3c4c817d	0.012482044
66	0x3e3acdb7	0.18242536
67	0x3ddb15a7	0.10697489
68	0xbe405b43	-0.18784814
69	0x3e37451c	0.17897457
70	0x3e99604c	0.2995628
71	0x3e079ce1	0.13243438
72	0xbe3d9393	-0.18513326
73	0x3e27bdad	0.1638095
74	0x3e2d10d1	0.16900946
75	0x3dbf1dd0	0.09331858
76	0x3e67f560	0.22652197
77	0x3c47eb1c	0.012202051
78	0x3e3aed4c	0.18254584
79	0xbdc5dfbd	-0.09661815
80	0xbc701981	-0.014654518
81	0x3e3dd534	0.18538362
82	0xbe6c7c78	-0.23094356
83	0xbd827f47	-0.063719325
84	0xbe3eb308	-0.18622983
85	0xbe47719a	-0.1947693
86	0xbd236cc2	-0.03989864
87	0xbe77060f	-0.24123405
88	0xbe692f7a	-0.22772017
89	0x3c8128e4	0.015766568
90	0x3e0624e4	0.1310001
91	0x3e112b4e	0.14176676
92	0x3de96fdb	0.11398288
93	0xbe569e20	-0.20958757
94	0xbea2e551	-0.3181558
95	0xbbf8c049	-0.0075912816
96	0x3e3cdf53	0.18444566
97	0x3da3abd7	0.0799176
98	0xbd95bd8a	-0.07311542
99	0xbe04225c	-0.12903732
100	0xbd6e312b	-0.05815236
101	0xbd12f43b	-0.035877448
102	0xbe6cb5f8	-0.2311629
103	0xbdb8c1ae	-0.090213165
104	0x3b2744a0	0.0025523081
105	0x3de80961	0.11329914
106	0x3e15de5f	0.14635609
107	0x3d9bcabc	0.07607028
108	0xbeccca9e	-0.39998335
109	0xbbda94c1	-0.006670565
110	0xbdc850c9	-0.097810335
111	0xbe92a0e0	-0.28638363
112	0x3e32170e	0.17391607
113	0x3e1e1a76	0.15439782
114	0xbe8f932f	-0.2804198
115	0x3da8e58c	0.082469076
116	0xbd9574de	-0.07297681
117	0xbcdaf12d	-0.02672633
118	0xbd431d51	-0.04763538
119	0xbbf020da	-0.007328135
120	0xbe992c3b	-0.29916558
121	0xbc06c85b	-0.008226479
122	0x3e95894c	0.29206312
123	0xbe98040c	-0.29690588
124	0x3e36fecc	0.17870635
125	0xbe8e96f1	-0.27849534
126	0xbe144f9a	-0.1448349
127	0x3e17e1ba	0.14832202
128	0x3e409088	0.18805134
129	0xbd24f40f	-0.040271815
130	0x3d510f48	0.051039964
131	0x3e31f7cc	0.17379683
132	0xbea8ea73	-0.3299137
133	0xbe17fb2a	-0.14841905
134	0x3e9ccdc3	0.30625734
135	0x3e9009fc	0.28132617
136	0x3ea5f170	0.32410765
137	0x3e9b934e	0.30385822
138	0xbe786b6c	-0.24259728
139	0x3caf0d9a	0.02136879
140	0xbe88015e	-0.26563543
141	0x3e86a053	0.26294193
142	0x3e13b782	0.14425471
143	0xbd0f139c	-0.03493081
144	0xbd526aec	-0.0513715
145	0x3ed90bc8	0.423918
146	0x3d909ea5	0.07061509
147	0x3dc1083b	0.09425398
148	0xbd19a56a	-0.037511267
149	0x3e113f94	0.1418441
150	0xbeaddc8c	-0.33957326
151	0x3d3c061b	0.04590426
152	0x3e126e78	0.14299953
153	0x3ddf6cb5	0.10909406
154	0x3ee69cd1	0.45041516
155	0xbe02527d	-0.1272678
156	0xbe84b88f	-0.25922057
157	0xbe926f3e	-0.28600496
158	0x3eaeee71	0.3416629
159	0xbe051875	-0.12997611
160	0x3e260a26	0.16214809
161	0xbdb9f8a5	-0.09080628
162	0xbd97f0cf	-0.074189775
163	0xbe4e0d8b	-0.20122354
164	0x3e1e8a18	0.15482366
165	0x3e685b20	0.22691011
166	0x3e2edebd	0.17077155
167	0xbe498916	-0.196812
168	0xbec147c2	-0.3775006
169	0x3e9fd6e2	0.3121863
170	0xbe58023c	-0.21094602
171	0xbea64f18	-0.3248222
172	0xbcc976c3	-0.024592763
173	0x3deff9f0	0.11717594
174	0xbdf892c5	-0.12137369
175	0x3ecde1d6	0.40211362
176	0xbe19659e	-0.1498017
177	0x3cfbda03	0.030743605
178	0x3e8b3cdb	0.27194867
179	0xbe03b21c	-0.12860912
180	0x3d95ca5e	0.07313989
181	0x3e589087	0.21148883
182	0xbe1282e4	-0.14307743
183	0x3e73427b	0.23755829
184	0x3ceded2c	0.029043756
185	0xbe9feb3c	-0.31234157
186	0x3e70c266	0.23511657
187	0xbe6f6840	-0.23379612
188	0x3eb0db1e	0.34542173
189	0x3e2d9714	0.16952163
190	0xbe6244bd	-0.22096534
191	0xbe8c7933	-0.27436218
192	0x3e5a6a7b	0.21329682
193	0xbe39fbfd	-0.18162532
194	0xbcf45475	-0.029825429
195	0xbe3542e8	-0.17701304
196	0xbd5a3c94	-0.053280428
197	0x3e97112f	0.29505298
198	0xbe5127db	-0.2042536
199	0x3e001f42	0.12511924
200	0x3d719708	0.058981925
201	0x3b08c325	0.0020868268
202	0xbefc1a64	-0.49238884
203	0xbe49eb03	-0.19718556
204	0xbd4a2943	-0.049355756
205	0xbf0ef731	-0.55845934
206	0xbe8c3736	-0.27385873
207	0x3ede656e	0.4343676
208	0xbed66d6f	-0.41880366
209	0x3d844cb4	0.064599425
210	0x3e811c7d	0.25217047
211	0xbc63f220	-0.013912708
212	0xbdb26e5b	-0.08712455
213	0x3e99bb6f	0.30025813
214	0x3e5f33f0	0.21797156
215	0x3e2e360f	0.17012809
216	0xbe15a282	-0.14612773
217	0x3e22517c	0.15851396
218	0xbe663b1e	-0.22483489
219	0x3ef8635a	0.485133
220	0xbc59e824	-0.013299976
221	0xbdc3699a	-0.09541626
222	0xbe8a84b2	-0.27054363
223	0x3e9f6025	0.3112804
224	0x3e5cf54c	0.21577948
225	0x3e7566fd	0.23965068
226	0xbe010109	-0.12598051
227	0x3d8e1290	0.06937134
228	0xbe7e7929	-0.24850906
229	0xbe92b788	-0.28655648
230	0xbdaa81af	-0.083255164
231	0xbe1d93f7	-0.15388475
232	0xbd9c8010	-0.076416135
233	0x3e2d51dd	0.1692576
234	0x3e6e2d88	0.23259556
235	0x3e6c660e	0.23085806
236	0x3e7d240a	0.24720779
237	0xbe85a0cb	-0.26099238
238	0xbe4da042	-0.20080665
239	0x3d9ced0f	0.07662403
240	0xbdcd1794	-0.10014263
241	0xbe58916b	-0.21149223
242	0xbe38b291	-0.18036868
243	0xbda79ce7	-0.081842236
244	0xbcd61f6a	-0.026138026
245	0x3e7275d6	0.23677763
246	0xbe241db5	-0.16026957
247	0x3e75313b	0.23944561
248	0x3e76f609	0.24117292
249	0xbe619152	-0.22028092
250	0xbcb0a84b	-0.021564623
251	0x3ea3145d	0.31851473
252	0xbe618cc1	-0.2202635
253	0xbe0fd66f	-0.14046644
254	0x3e213274	0.15741903
255	0xbe3af9a7	-0.18259297

bias f4 [27]
0	0x3e78413e	0.24243638
1	0xbeb7bc00	-0.3588562
2	0x3e76a22f	0.24085306
3	0xbe0b8626	-0.13625392
4	0x3e8e12cf	0.27748725
5	0x3e8394ab	0.25699362
6	0x3e3a2f00	0.18181992
7	0xbdf8c4fc	-0.12146947
8	0x3ea5a3df	0.32351586
9	0x3ec057bc	0.37566936
10	0x3e925633	0.2858139
11	0xbe38150e	-0.17976782
12	0x3d0b7139	0.034043524
13	0x3ecac3d4	0.3960253
14	0x3ea97e83	0.33104333
15	0xbe71eec1	-0.23626234
16	0x3ebd6f0d	0.36998788
17	0xbe7aca75	-0.24491294
18	0xbe366ea7	-0.17815648
19	0xbe9e22bc	-0.30885875
20	0x3a9c8107	0.0011940309
21	0xbe19a012	-0.15002468
22	0x3e2d1e9a	0.16906205
23	0x3e6a344c	0.22871512
24	0x3e99cde5	0.30039898
25	0x3e35fb93	0.17771749
26	0x3e36d017	0.17852817

weight f4 [55, 27]
0	0x3d8b3a50	0.067982316
1	0xbe89412b	-0.26807532
2	0x3e107b67	0.14109574
3	0x3e82ed3c	0.2557162
4	0xbe5e3bea	-0.21702543
5	0x3e2ddb5f	0.16978215
6	0xbe0cd3a9	-0.13752617
7	0x3dfc947f	0.12333011
8	0x3e1fe718	0.15615499
9	0x3d0e89b5	0.034799296
10	0xbdd50d75	-0.10402957
11	0xbc9503e4	-0.018190332
12	0x3e3081e5	0.17237051
13	0xbdb1ba6e	-0.08678137
14	0xbe679dcf	-0.22618793
15	0x3dbbe087	0.091736846
16	0xbb481d94	-0.0030535208
17	0x3dbd05e6	0.09229641
18	0x3d26a231	0.04068202
19	0x3d8890b5	0.06668226
20	0x3bd64080	0.0065384507
21	0x3bf26b92	0.0073980773
22	0x3e31065d	0.17287584
23	0xbd8bc3cf	-0.06824457
24	0x3ddb7c65	0.10717086
25	0x3e7e5709	0.24837889
26	0xbe9e65fe	-0.3093719
27	0xbde79b90	-0.11308968
28	0xbe2bc24c	-0.16773337
29	0x3e3bd2db	0.18342154
30	0x3cfe6977	0.031056149
31	0xbd991f9b	-0.074767314
32	0xbd5784e3	-0.052616965
33	0x3de48fc4	0.111602336
34	0x3e4e3c1b	0.20140116
35	0x393e3048	0.00018137798
36	0xbe4f66bd	-0.20254035
37	0x3e2c3cad	0.16820021
38	0xbe3f6894	-0.18692237
39	0x3d77ae6e	0.060469083
40	0x3e50898a	0.20364967
41	0x3e845a34	0.2585007
42	0x3d08e7c2	0.033424146
43	0x3e686ada	0.2269701
44	0xbdde8b39	-0.10866398
45	0x3b2d3c0c	0.0026433496
46	0xbd94e1a9	-0.07269604
47	0x3de5dd42	0.11223842
48	0xbe339e02	-0.17540744
49	0xbd7f6137	-0.06234857
50	0xbda1eab4	-0.07906094
51	0x3d72779b	0.059196096
52	0xbdb1338e	-0.086524114
53	0x3e4fcd19	0.20293082
54	0xbe19142b	-0.149491
55	0xbe2ac17b	-0.1667537
56	0xbd58d3b3	-0.052936267
57	0x3e24005e	0.16015765
58	0x3e70095b	0.23441069
59	0x3d5c01af	0.053712543
60	0xbd4ac07f	-0.049499985
61	0xbd0cafdd	-0.034347404
62	0x3d9e57d2	0.07731594
63	0xbd2ff803	-0.04296113
64	0x3e4d613c	0.20056623
65	0x3d7ee36e	0.062228613
66	0x3e5da1c5	0.21643741
67	0x3e7230d9	0.23651446
68	0xbd69b349	-0.057055745
69	0x3d945f51	0.07244743
70	0x3e0f86aa	0.14016214
71	0x3ca9dc65	0.020734975
72	0xbdb63d59	-0.0889842
73	0xbd346522	-0.04404176
74	0xbd67d2f5	-0.05659767
75	0x3e2f2ad8	0.17106187
76	0xbceabd63	-0.02865476
77	0x3ddf77d8	0.1091153
78	0xbe0464ce	-0.12929079
79	0x3e616ebd	0.220149
80	0xbe7d45b4	-0.24733621
81	0x3e109e48	0.1412288
82	0x3da6b4dc	0.08139965
83	0x3d88b7d7	0.0667569
84	0xbdf84dcc	-0.121242136
85	0xbdc7d6f8	-0.09757799
86	0x3dd1cac6	0.10243754
87	0x3e3d234d	0.18470497
88	0x3dd1f445	0.10251669
89	0x3c410b4d	0.0117824795
90	0xbd95a04c	-0.07305965
91	0xbbc23155	-0.005926291
92	0xbd05552a	-0.032551922
93	0x3e1979a0	0.14987803
94	0xbd8cf205	-0.06882099
95	0x3c5356ba	0.012899095
96	0xbd531e2f	-0.051542457
97	0xbe132839	-0.14370812
98	0xbd6ea0ed	-0.05825894
99	0x3e1fffce	0.15624925
100	0x3e91c4f7	0.28470585
101	0x3e14f1cb	0.14545362
102	0x3e43f4df	0.1913638
103	0xbc2fbaf6	-0.010725727
104	0x3cb65801	0.02225876
105	0x3de9c317	0.114141636
106	0xbe54fab9	-0.20798768
107	0xbdd05107	-0.10171705
108	0x3dc1a418	0.094551265
109	0x3cb54d97	0.022131724
110	0x3e6341e5	0.22193106
111	0xbe0fa080	-0.1402607
112	0x3e21304d	0.15741082
113	0x3c98dbef	0.01865956
114	0x3d8306d6	0.06397788
115	0xbdd97d07	-0.1061955
116	0xbde087b6	-0.10963385
117	0x3d6e25e8	0.05814162
118	0xbd0778fd	-0.033074368
119	0xba48cdbb	-0.0007660051
120	0xbd9a9f3a	-0.07549901
121	0xbddfe7a7	-0.10932856
122	0x3e66f004	0.22552496
123	0xbe6d3d5c	-0.23167938
124	0x3df25af3	0.118337534
125	0x3e392f7d	0.18084522
126	0xbdac7cf8	-0.084222734
127	0x3db0f38f	0.08640205
128	0x3e4af020	0.19818163
129	0xbdded9ed	-0.1088141
130	0xbd52959d	-0.051412214
131	0xbd25efef	-0.04051202
132	0x3e46c706	0.19411859
133	0x3e51d81a	0.20492592
134	0xbe571d66	-0.21007308
135	0x3e1ddc1f	0.15416001
136	0xbe1fbdd3	-0.15599756
137	0x3da95155	0.08267466
138	0xbd8551d1	-0.06509746
139	0x3d241f14	0.0400687
140	0xbdc34ef3	-0.09536543
141	0xbe1fcc73	-0.15605335
142	0x3cc84741	0.024448039
143	0xbe230b23	-0.15922217
144	0xbe0e0dc2	-0.13872436
145	0x3d33db0a	0.043910064
146	0x3e2365df	0.1595683
147	0x3d9ab114	0.07553306
148	0x3e0d1831	0.1377876
149	0xbe055279	-0.13019742
150	0xbdd8b801	-0.10581971
151	0xbe1f7983	-0.15573697
152	0xbdb640f6	-0.08899109
153	0xbd008b8c	-0.031383082
154	0x3e03ffb4	0.12890512
155	0xbe4f8469	-0.20265354
156	0xbd0881c1	-0.033326868
157	0xbe0142ea	-0.12623182
158	0xbda406fc	-0.08009145
159	0xbe01a9f9	-0.12662496
160	0xbe4c79c0	-0.19968319
161	0x3dd6ce76	0.10488598
162	0xbd69946e	-0.05702632
163	0x3e860bf1	0.26180986
164	0xbec63b48	-0.38717103
165	0xbd664bca	-0.05622462
166	0x3d2c392c	0.04204671
167	0xbe2df188	-0.16986668
168	0x3def9820	0.116989374
169	0x3e1de0a6	0.15417728
170	0x3ea64571	0.32474855
171	0xbdc799fb	-0.09746166
172	0x3d0a1d57	0.033719387
173	0xbd947770	-0.072493434
174	0x3e4f26af	0.202296
175	0x3e804ae5	0.2505714
176	0xbf1395d3	-0.5765049
177	0x3e460263	0.19336848
178	0x3cd58f49	0.0260693
179	0xbe21387d	-0.15744205
180	0xbe2aa2c4	-0.16663653
181	0xbe120918	-0.14261281
182	0x3e082598	0.13295591
183	0x3e319123	0.17340522
184	0xbd6df823	-0.05809797
185	0xbe187747	-0.1488925
186	0xbeb76dd9	-0.35825995
187	0x3e0418ae	0.1290004
188	0xbcc3f8e6	-0.023922395
189	0xba9f5ba0	-0.0012158044
190	0x3b23a3ac	0.0024969382
191	0x3daeb4ba	0.085305646
192	0x3e77c64d	0.2419674
193	0xbdada515	-0.084787525
194	0xbe111999	-0.14169921
195	0xbe63ae1a	-0.22234383
196	0x3d590f4f	0.052993115
197	0x3e4af4ee	0.19819996
198	0x3e892aea	0.26790553
199	0x3ce239b2	0.027615402
200	0x3db70b25	0.089376725
201	0x3c398390	0.011322871
202	0x3e1bf023	0.15228324
203	0x3bb1f2e8	0.005430568
204	0xbdcf6555	-0.101267494
205	0x3e8fd19f	0.28089616
206	0x3e1fc592	0.15602711
207	0xbd242d60	-0.040082335
208	0x3da17e6b	0.078854404
209	0xbcd326e6	-0.025775384
210	0xbe44e0a9	-0.19226326
211	0xbc98d99b	-0.01865845
212	0x3e31f796	0.17379603
213	0xbcf140fa	-0.029449929
214	0xbe127de8	-0.14305842
215	0xbd19f708	-0.037589103
216	0x3d3dd903	0.046349537
217	0x3df69dd3	0.12041821
218	0x3e821319	0.25405195
219	0xbe5e1085	-0.21685989
220	0x3b6da889	0.0036263785
221	0x3df9befb	0.1219463
222	0xba96c2e3	-0.0011502173
223	0xbd9c8119	-0.07641811
224	0x3ac03215	0.0014663363
225	0xbd55b131	-0.052170936
226	0x3ccc3a50	0.02493015
227	0xbd173454	-0.03691514
228	0x3e33dd35	0.17564853
229	0x3e32e534	0.17470247
230	0xbe046182	-0.12927821
231	0xbece33d2	-0.4027391
232	0xbc8b419a	-0.016999055
233	0xbde1d8d2	-0.11027683
234	0xbe6c866c	-0.23098153
235	0x3e1e6a70	0.1547029
236	0x3e0a23db	0.1349024
237	0xbdd38340	-0.10327768
238	0x3e0ced2b	0.13762347
239	0x3c84cae6	0.01621003
240	0x3de1838a	0.11011417
241	0x3cc24672	0.023715232
242	0xbec35e41	-0.38157848
243	0x3ca49a14	0.020093001
244	0xbcca7337	-0.024713142
245	0xbe3e132a	-0.18561998
246	0xbe13535f	-0.14387272
247	0xbd98019a	-0.074221805
248	0xbdadb614	-0.08481994
249	0xbcabe8a9	-0.020984964
250	0x3e2ff53b	0.17183392
251	0xbe3bc979	-0.18338574
252	0x3dd44e6a	0.10366519
253	0xbd89ce66	-0.067288205
254	0xbdbd3016	-0.09237687
255	0xbe300cb5	-0.17192347

bias f4 [55]
0	0x3d7ded0b	0.06199364
1	0x3e6d5fe5	0.23181112
2	0x3ce9ee7d	0.028556103
3	0xbd027531	-0.031850044
4	0xbc0e14e1	-0.00867197
5	0xbe11788e	-0.14206144
6	0xbdf9af9d	-0.12191699
7	0x3ea31740	0.31853676
8	0xbc9b48d1	-0.01895562
9	0xbe51da88	-0.2049352
10	0xbe8093bb	-0.2511271
11	0x3e93a9be	0.2884044
12	0x3d3feb52	0.04685528
13	0x3dc16f0c	0.09445009
14	0xbdccb9d9	-0.09996385
15	0x3e0cf78c	0.13766307
16	0xbcfec7ef	-0.031101195
17	0x3e0e732d	0.13911124
18	0x3df103bd	0.11768291
19	0x3d07b540	0.033131838
20	0x3d98e420	0.074653864
21	0xbe47824b	-0.19483297
22	0x3e060180	0.1308651
23	0x3d09c233	0.03363247
24	0x3ccbe431	0.024889084
25	0x3e3b49d7	0.18289886
26	0x3e8950ea	0.26819545
27	0xbd487ea9	-0.048948918
28	0x3e72b1e7	0.23700677
29	0x3e92b141	0.2865086
30	0xbe528063	-0.20556788
31	0x3db92fad	0.090422966
32	0xbe284cd0	-0.16435552
33	0x3e26fb42	0.16306785
34	0xbe4cd08a	-0.20001426
35	0xbdaee1d0	-0.08539164
36	0x3e9080e4	0.28223336
37	0xbd257090	-0.04039055
38	0xbdefba5f	-0.11705469
39	0x3e309d2d	0.17247458
40	0x3e6197a9	0.2203051
41	0x3e532456	0.2061933
42	0x3dabf8ff	0.083971016
43	0xbdae6a8c	-0.08516416
44	0xbd1ce702	-0.038306244
45	0x3e917eb6	0.28416985
46	0x3e63e271	0.2225435
47	0xbd00f5d6	-0.031484447
48	0x3db5a2ad	0.088689186
49	0xbdb0f616	-0.08640687
50	0xbdc9ec9e	-0.09859584
51	0x3c8f2959	0.01747577
52	0x3e5aeb04	0.21378714
53	0xbe1d0f67	-0.15337907
54	0x3d1782fc	0.03699015
