deepwatch/ai/autoencoder-mf/data/autoencoder_model.pth (torch, 282035 bytes, 8 tensors)

encoder.0.weight f4 [50, 665]
0	0x3c82ea89	0.015980976
1	0x3cca9e15	0.024733583
2	0xbcadd957	-0.0212218
3	0xbd084006	-0.033264183
4	0xbe1b2d21	-0.15153934
5	0x3ab5789e	0.0013845151
6	0xbc4bcdf2	-0.012439238
7	0xbb73138e	-0.0037090513
8	0xbd322ae9	-0.043497954
9	0xbc91ae9f	-0.017783461
10	0x3c8d54cb	0.017252347
11	0x3cfc954a	0.030832905
12	0x3c09e2f4	0.008415926
13	0x3c8c9d01	0.017164709
14	0x3c840309	0.016114729
15	0x3c9f1ed7	0.019423885
16	0xbce91a23	-0.028454846
17	0x3ccbaf49	0.024863856
18	0x3aa61469	0.0012670878
19	0x3cbe763f	0.023249744
20	0xbdeb55f9	-0.11491007
21	0xbd281f76	-0.04104563
22	0x3cf6eb3a	0.030141462
23	0x3d35d94b	0.04439668
24	0xbd184193	-0.03717191
25	0xbb94dadd	-0.004542692
26	0x3beda68c	0.00725252
27	0x3cd6e00c	0.02622988
28	0x3c7d9618	0.01547768
29	0x3ce86993	0.028370654
30	0xbc1ffa3d	-0.009764251
31	0xbc1be05c	-0.009513941
32	0xbb35706e	-0.0027685422
33	0x3c140191	0.009033577
34	0xbd05361a	-0.0325223
35	0xbc944cc7	-0.018103017
36	0xbe21634b	-0.15760534
37	0xbc6b343f	-0.014355718
38	0x3c348176	0.011017194
39	0x3d3115b5	0.043233592
40	0x383ac3a4	4.452806e-05
41	0x3c2e25ac	0.010629099
42	0xbcd8d405	-0.026468286
43	0x3c81d7a0	0.015849888
44	0x3d0b019c	0.03393708
45	0x3d147677	0.03624579
46	0x3c9ceb13	0.01915506
47	0x3c6856fa	0.014180893
48	0x3c67c669	0.014146426
49	0xbd5bc7ea	-0.05365745
50	0xbdb5d44f	-0.08878385
51	0xbd2d23d3	-0.042270493
52	0xbdd3b1ac	-0.103366226
53	0x3ddbe0a2	0.10736205
54	0x3dcddc2d	0.10051761
55	0x3ccedef6	0.0252528
56	0xbce25889	-0.027630107
57	0xbc9d32e8	-0.019189313
58	0xbd1a34e9	-0.037648115
59	0xbcf57126	-0.02996118
60	0x3c482869	0.012216666
61	0x3ad09614	0.0015913867
62	0xbcc79af8	-0.024365887
63	0x3c25e88e	0.010126246
64	0x3bdb6cf0	0.006696336
65	0xbc8044e0	-0.015657842
66	0xbc022e01	-0.0079455385
67	0xbd0f38a6	-0.034966134
68	0xbda703f8	-0.08155054
69	0x3c1d2872	0.009592162
70	0xbcad6f08	-0.021171108
71	0xbca9e82f	-0.020740597
72	0x3cdbf797	0.026851458
73	0x3daaa059	0.08331365
74	0xbd9919e6	-0.07475643
75	0xbd65aa31	-0.05607051
76	0xbc12039f	-0.008911996
77	0x3d1852e7	0.037188437
78	0xbc92be3e	-0.01791298
79	0x3d12f567	0.035878565
80	0x3ded0c12	0.11574568
81	0xbcccd9b5	-0.025006155
82	0x3cea919e	0.028633889
83	0x3cc553dc	0.024087839
84	0x3c608208	0.013702877
85	0xbab2c631	-0.0013639388
86	0xbcc1f0ab	-0.02367433
87	0x3cdd04c5	0.026979813
88	0xbd03618c	-0.03207545
89	0xbbe61368	-0.0070213564
90	0x3cb81655	0.022471586
91	0x3ae09043	0.0017132837
92	0x3cd28499	0.025697993
93	0x3c6e96ce	0.014562322
94	0x3b9510ac	0.0045491066
95	0xbc8b95d7	-0.017039223
96	0x3d08e7bf	0.033424135
97	0x3c9771a4	0.018486805
98	0x3bffb122	0.0078030983
99	0x3cce1d51	0.025160464
100	0x3e21787b	0.15768616
101	0xbc80c30f	-0.015718011
102	0xbd02f4e5	-0.03197183
103	0x3c0edb26	0.008719241
104	0x3b187b8e	0.0023267004
105	0x3c1cbf65	0.009567116
106	0xbd0c6c91	-0.034283224
107	0x3c8a982e	0.016918268
108	0x3be9ae4a	0.0071313726
109	0x3c9b3d79	0.01895021
110	0xbc98b13b	-0.018639198
111	0xbd167892	-0.03673608
112	0x3c95bb02	0.018277649
113	0xbd3d1d37	-0.04617044
114	0x3ca3e228	0.0200053
115	0x3d0f7a71	0.03502888
116	0x3cd5cd23	0.026098793
117	0x3d1b4538	0.03790781
118	0xbd887d81	-0.06664563
119	0x3db9d7ba	0.0907435
120	0xbd1749d6	-0.03693565
121	0x3c8a413f	0.016876815
122	0xbb3cb336	-0.0028793341
123	0xbb64d70d	-0.003491822
124	0x3ca4da48	0.020123616
125	0x3d090487	0.033451583
126	0xbe482547	-0.1954547
127	0xbd06559e	-0.032796495
128	0x3cb39409	0.021921175
129	0x3c915efc	0.017745487
130	0x3c05765a	0.008145893
131	0xbd034892	-0.03205163
132	0x3c61f59a	0.013791466
133	0x3ce4d743	0.027934676
134	0x3c6f5fb2	0.014610218
135	0x3bc13f65	0.00589745
136	0x3c9a6a53	0.018849527
137	0xbdd025a8	-0.10163432
138	0x3c0fe50a	0.0087826345
139	0x3cc093a8	0.023507908
140	0x3d104313	0.035220217
141	0x3ccc16a4	0.02491314
142	0x3c282a95	0.010264059
143	0xbca34fa1	-0.019935431
144	0xbca2a1e1	-0.01985258
145	0x3cca4378	0.024690375
146	0x3d13613c	0.0359814
147	0x3adde7b3	0.0016930014
148	0x3c50d2f3	0.012745607
149	0x3c4d813c	0.012543019
150	0xbca204ad	-0.01977762
151	0xbbc35287	-0.0059607658
152	0xbc7884ff	-0.0151684275
153	0xbe1ced61	-0.15324928
154	0xbcbc2260	-0.02296561
155	0xbc71dec5	-0.014762585
156	0x3cfae110	0.030624896
157	0xbbd18b8b	-0.0063948086
158	0xbada152b	-0.0016638389
159	0x3ceceecf	0.028922467
160	0x3d188e9b	0.037245374
161	0xbcc25970	-0.023724288
162	0x3cad0ae4	0.021123357
163	0x3c363873	0.011121857
164	0xbc404575	-0.01173531
165	0xbcc3625d	-0.023850614
166	0x3c70a79a	0.014688397
167	0x3cf13f78	0.02944921
168	0xbbe70d4b	-0.007051145
169	0xbdfd419a	-0.12366028
170	0xbc91a3f2	-0.01777837
171	0x3ca405be	0.02002227
172	0x3c0240da	0.007950032
173	0xbb381ef1	-0.0028094614
174	0xbcd3be76	-0.025847655
175	0x3d0cdccd	0.03439026
176	0x3d4047b1	0.04694337
177	0xbca8c570	-0.020601958
178	0x39158408	0.00014258933
179	0x3cc2d6c0	0.023784041
180	0x3c9dfe40	0.019286275
181	0xbb49bfaa	-0.0030784407
182	0x3c92a951	0.017903002
183	0x3d70a036	0.05874654
184	0xbdfaf3a8	-0.12253505
185	0xbcee87fc	-0.029117577
186	0xbdaa42a6	-0.083134934
187	0x3daa16f8	0.08305162
188	0x3d15ff16	0.036620222
189	0xbb9814a2	-0.0046411315
190	0x3c8ed41f	0.017435132
191	0xbb8ec516	-0.0043569906
192	0xbc32c3ac	-0.01091091
193	0x3caeb552	0.021326695
194	0xbd0d1fce	-0.03445416
195	0xbc358600	-0.011079311
196	0x3cf4898b	0.029850742
197	0xbcb8d0a2	-0.022560421
198	0xbced5643	-0.028971797
199	0x3c2b59c3	0.010458413
200	0x3cbb6004	0.022872932
201	0xbc8a7d08	-0.016905323
202	0xbc412336	-0.01178818
203	0x3d147265	0.036241908
204	0x3c965bd0	0.018354326
205	0xbcec4af0	-0.028844327
206	0xba9b1815	-0.0011832739
207	0x3cabcf19	0.020972775
208	0xbdd80a35	-0.10548822
209	0x3d0e6871	0.03476757
210	0xbcd64afe	-0.026158806
211	0xbc698512	-0.014252918
212	0xbc9dc78d	-0.019260192
213	0xbd3e7160	-0.04649484
214	0x3dff10fb	0.12454411
215	0x3c41be17	0.011825106
216	0x3ca16b4f	0.019704489
217	0xbc655fc4	-0.013999883
218	0x3b5c1684	0.0033582756
219	0xbc333d88	-0.010939963
220	0xbcb11b92	-0.021619592
221	0x3c4e3334	0.01258545
222	0x3d10f2b5	0.035387713
223	0x3cadee14	0.021231689
224	0x3bf10f11	0.0073565324
225	0x3c2e56f4	0.010640848
226	0xbce7a1c1	-0.028275372
227	0x3b919d89	0.0044438285
228	0x3cb7a0e4	0.022415586
229	0xbc927692	-0.017878804
230	0x3b936366	0.004497933
231	0x3c906c23	0.017629689
232	0xbcd23e7d	-0.025664562
233	0x3d816a84	0.06319144
234	0xbba0d0d3	-0.0049077063
235	0x3cb33f8c	0.021880887
236	0x3b62995d	0.0034576275
237	0xbc6c348b	-0.014416824
238	0x3c951f4d	0.018203402
239	0x3e029f5d	0.12756105
240	0xbd094ca7	-0.033520367
241	0x3d0f7ba3	0.03503002
242	0xbbc433fd	-0.005987643
243	0x3c04ac47	0.008097715
244	0x3c99abd3	0.01875869
245	0xbce3e8bb	-0.027820935
246	0xbd1201ec	-0.035646364
247	0x3c041462	0.0080615
248	0x3d159334	0.036517337
249	0x3cf6a1e5	0.030106494
250	0x3c2bf779	0.010496014
251	0xbd49ce93	-0.04926927
252	0x3dabfb49	0.08397538
253	0x3d12aac6	0.035807393
254	0xbc917ad4	-0.017758764
255	0x3cb77545	0.022394786

encoder.0.bias f4 [50]
0	0x3c56d81d	0.013113049
1	0x3ce3801d	0.02777105
2	0xbb2d9a63	-0.0026489727
3	0x3cba1fd9	0.022720264
4	0xbcb55429	-0.022134857
5	0x3c82ed76	0.01598237
6	0x3cca3aeb	0.024686297
7	0x3c34e12a	0.011040011
8	0x3c3d9f3f	0.011573612
9	0x3cd0bc7c	0.025480501
10	0xbc4cd8d8	-0.012502871
11	0x3b9e003f	0.0048218067
12	0xbb000344	-0.0019533196
13	0x3c557bc2	0.013029994
14	0x3d461cd7	0.048367348
15	0x3d28fcdb	0.041256767
16	0xbb48fcba	-0.0030668215
17	0xbb3b23a1	-0.0028555172
18	0xbc464841	-0.012102188
19	0x3d0a5922	0.03377641
20	0x3c9f8348	0.01947178
21	0xbd48c121	-0.049012307
22	0xbd2554ff	-0.04036426
23	0x3d148085	0.03625538
24	0xbcd3223e	-0.025773164
25	0xbd082b28	-0.033244282
26	0xbbadb546	-0.0053011505
27	0xbcea29dd	-0.028584415
28	0x3d2d46a8	0.04230371
29	0xbd229039	-0.039688323
30	0x3c883eeb	0.016631564
31	0x3d1c197c	0.03811024
32	0xbc9e256e	-0.019304957
33	0x3abce2cc	0.0014410852
34	0x3cd0cfba	0.025489677
35	0x3cc601a4	0.024170704
36	0xbd2d21b9	-0.04226849
37	0xbcb5b9e1	-0.02218336
38	0x3cb0f514	0.021601237
39	0xbcbc4bee	-0.022985425
40	0x3ce2c265	0.027680585
41	0x3c36945d	0.011143771
42	0x3c2ee22a	0.010674039
43	0xbc316f60	-0.0108297765
44	0xbce1d32b	-0.027566513
45	0xbd0aeba7	-0.03391614
46	0xbd3d9954	-0.046288803
47	0xbd1a64ab	-0.03769366
48	0xbd1b2135	-0.037873466
49	0xbda45168	-0.080233395

encoder.2.weight f4 [25, 50]
0	0xbe249c32	-0.16075209
1	0x3e0a1c4d	0.13487358
2	0x3d503e4d	0.050840665
3	0x3d4b6bf9	0.049663518
4	0xbdd967ae	-0.106154785
5	0x3e8e3251	0.27772763
6	0x3decd28a	0.11563595
7	0x3d27959f	0.040914174
8	0xbcc91331	-0.024545284
9	0x3dc09bbc	0.09404704
10	0x3e7c1ab5	0.24619563
11	0x3d0c3bb8	0.03423664
12	0xbde3597d	-0.11101053
13	0xbe450c22	-0.1924291
14	0x3e6c6bc7	0.23087989
15	0x3e0a1677	0.13485132
16	0x3d38a5b3	0.045079898
17	0x3e1e5e2d	0.15465613
18	0xbe3970b5	-0.181094
19	0x3d5d8648	0.05408314
20	0x3d6e8de9	0.058240805
21	0x3dc33c23	0.095329545
22	0xbdb18ac5	-0.08669046
23	0xbd4c920b	-0.049943965
24	0x3dbcd3c1	0.09220076
25	0x3ce8252c	0.028338037
26	0xbdad4efb	-0.0846233
27	0xbd365981	-0.04451895
28	0x3dd576f2	0.10423078
29	0x3d434eda	0.04768262
30	0x3d8c69d3	0.06856122
31	0x3dc61259	0.09671468
32	0xbe053f0c	-0.13012332
33	0xbdca02e3	-0.09863832
34	0xbe2085ec	-0.15676087
35	0xbe509931	-0.20370938
36	0xbdec5a56	-0.11540668
37	0xbe3ba02f	-0.18322824
38	0xbd54e61d	-0.051977266
39	0x3d2b2d40	0.0417912
40	0x3e43409e	0.19067618
41	0xbdd46413	-0.1037065
42	0x3ea15ba6	0.31515235
43	0xbd6404f0	-0.05566877
44	0x3dd1fa8a	0.10252865
45	0xbdecce42	-0.11562778
46	0x3d3fc140	0.046815157
47	0xbd183446	-0.037159227
48	0x3de19f2c	0.11016688
49	0xbb8e5b02	-0.004344345
50	0xbd8be648	-0.06831032
51	0xbdb07b07	-0.086172156
52	0xbe202611	-0.15639521
53	0x3c854b30	0.016271204
54	0x3d7b3809	0.061332736
55	0x3da20c3e	0.07912491
56	0xbe9684ef	-0.29398295
57	0xbd10afcb	-0.0353239
58	0x3dcbe266	0.099552915
59	0xbb917ba6	-0.004439789
60	0x3d4d7ba1	0.05016673
61	0x3e537dcd	0.20653458
62	0xbd4e97c8	-0.05043772
63	0xbe3a7fed	-0.18212862
64	0x3c4bb45e	0.01243314
65	0xbda8ad28	-0.08236152
66	0xbe1ea2fc	-0.15491861
67	0x3e004f47	0.12530242
68	0x3da5cca9	0.080956765
69	0xbca41c8a	-0.02003314
70	0x3da60c48	0.08107811
71	0x3b824a61	0.003976152
72	0xbda397cd	-0.07987938
73	0xbdeb896b	-0.1150082
74	0xbe68335b	-0.2267584
75	0xbd37ada4	-0.04484333
76	0x3d2077ea	0.03917686
77	0xbd939c60	-0.072075605
78	0xbdf0e2ac	-0.11761984
79	0x3e24cd78	0.16094005
80	0xbdda2ab5	-0.10652677
81	0x3e67fd94	0.22655326
82	0x3d7088fe	0.058724396
83	0xbcc898a6	-0.024486851
84	0x3e273ada	0.16331044
85	0x3d977b08	0.07396513
86	0x3de65d6a	0.11248286
87	0x3d3aaff7	0.04557797
88	0x3e083a7d	0.13303562
89	0x3dbe58ee	0.09294306
90	0x3d0d5b46	0.034510873
91	0x3d872f3b	0.06600805
92	0x3e20d268	0.15705264
93	0xbe1e31e6	-0.15448722
94	0xbd3ce1c1	-0.046113733
95	0x3d881ecc	0.06646499
96	0xbd6adc66	-0.057339095
97	0x3dc64de4	0.09682825
98	0x3e2f0646	0.17092237
99	0x3e4accb1	0.19804646
100	0xbd7c9b90	-0.061671793
101	0x3e559c85	0.20860489
102	0x3e015fe5	0.12634237
103	0xbe06309f	-0.13104485
104	0x3db6a961	0.08919025
105	0xbd60ac85	-0.054852027
106	0xbe081f02	-0.13293079
107	0x3ddbc7ef	0.10731494
108	0xbd5a39d3	-0.0532778
109	0x3e7c7c8a	0.24656883
110	0x3cc5a46c	0.024126254
111	0x3aeb221b	0.0017939241
112	0xbc649dad	-0.013953608
113	0x3d329820	0.04360211
114	0x3daa67f7	0.08320611
115	0xbd2ee3b0	-0.04269761
116	0x3cf211ab	0.02954944
117	0x3d0315d2	0.03200323
118	0xbe623003	-0.22088628
119	0x3dd1bd32	0.10241164
120	0xbcffcb47	-0.03122486
121	0xbde67162	-0.11252095
122	0x3cfaa5b0	0.030596584
123	0x3dce4264	0.10071257
124	0x3e4dbc04	0.20091254
125	0x3e6ffb86	0.23435792
126	0x3e280fc8	0.1641227
127	0xbd499d9d	-0.049222577
128	0xbce85144	-0.028359063
129	0xb9672d9a	-0.00022046865
130	0x3e3d803e	0.18505952
131	0x3e91ac4d	0.28451768
132	0xbde0d20b	-0.109775625
133	0xbe0af630	-0.13570476
134	0xbdcade05	-0.09905628
135	0xbd0055f2	-0.031331964
136	0xbec85d08	-0.39133477
137	0x3d999c73	0.075005434
138	0x3e3a5c82	0.18199351
139	0xbdf7338b	-0.12070378
140	0xbd45a79a	-0.04825554
141	0xbe34c6b7	-0.17653929
142	0x3caef075	0.021354893
143	0xbe80f42b	-0.25186285
144	0xbda7b485	-0.08188728
145	0xbe35e489	-0.1776296
146	0xbe5f4665	-0.21804197
147	0xbdf61349	-0.12015397
148	0xbd964251	-0.073368676
149	0xbdfe28ec	-0.12410149
150	0xbe374e43	-0.17900948
151	0x3adbe1c3	0.0016775656
152	0xbdd3ef51	-0.1034838
153	0x3d14ee60	0.036360145
154	0xbdc20c56	-0.09475009
155	0xbe20673a	-0.15664378
156	0x3e506860	0.20352316
157	0x3e45fbea	0.19334379
158	0x3e6e6076	0.23278984
159	0x3e703cee	0.23460743
160	0x3dc0070f	0.09376346
161	0xbe0fb2cc	-0.1403305
162	0x3d40cfa5	0.047073025
163	0xbe059158	-0.13043725
164	0x3dd526d4	0.104077965
165	0x3de3005a	0.110840514
166	0xbc588435	-0.013215114
167	0x3e9521df	0.29127404
168	0xbdac0a9a	-0.084004596
169	0x3d7cde6f	0.061735567
170	0xbd6d06ae	-0.0578677
171	0xbe35706f	-0.17718671
172	0xbe398d8c	-0.18120402
173	0x3e251a0a	0.16123214
174	0xbeb8cc4f	-0.36093375
175	0x3d8e7ecf	0.069577806
176	0xbe58a15e	-0.21155307
177	0x3cb5cdcd	0.02219286
178	0xbaf2518e	-0.001848744
179	0xbe375950	-0.17905164
180	0xbe229501	-0.15877153
181	0x3ddc39b0	0.107531905
182	0xbe685215	-0.22687562
183	0xbe7f0fc4	-0.24908358
184	0x3e43e12a	0.19128862
185	0xbe5d3366	-0.21601638
186	0x3e7fc652	0.24977997
187	0xbe410c6c	-0.18852395
188	0xbe042856	-0.12906012
189	0xbd90c8ba	-0.070695356
190	0xbe280650	-0.16408658
191	0x3dfc9d60	0.123347044
192	0x3d028d04	0.031872764
193	0x3d97fcdf	0.07421278
194	0x3ddb7d96	0.10717313
195	0xbde73b31	-0.11290587
196	0xbe2e756e	-0.17036983
197	0x3de5ff67	0.11230355
198	0xbe3dd21a	-0.18537179
199	0xbdde4283	-0.1085253
200	0x3c63789a	0.013883734
201	0x3e40835b	0.18800108
202	0x3e3c163d	0.18367858
203	0x3e465e2a	0.19371858
204	0xbe2c2446	-0.16810712
205	0x3e059fb9	0.1304921
206	0x3d7e56c1	0.062094454
207	0xbc92e217	-0.017930074
208	0xbdcbe14b	-0.099550806
209	0xbd4d175d	-0.05007111
210	0x3e5ae014	0.21374542
211	0x3c7039dd	0.014662233
212	0xbce5ad06	-0.028036606
213	0xbdfd28c0	-0.12361288
214	0x3d068bd3	0.03284819
215	0x3e6169da	0.22013035
216	0xbd2fb819	-0.04290018
217	0x3c3da29f	0.011574416
218	0x3d00c4a1	0.03143752
219	0x3e6488a3	0.22317748
220	0xbc30a3fa	-0.010781283
221	0xbe689ba1	-0.22715618
222	0xbe3b434e	-0.18287393
223	0xbca14813	-0.019687688
224	0xbe57ae81	-0.21062662
225	0xbd8181a6	-0.063235566
226	0xbd365c8a	-0.044521846
227	0x3d8a0c85	0.06740669
228	0x3ddd7d28	0.10814887
229	0x3d813e69	0.06310732
230	0x3d64c014	0.055847242
231	0x3e04337c	0.12910265
232	0xbd0bfe51	-0.034178082
233	0xbde81106	-0.11331372
234	0x3e1c70ab	0.15277354
235	0xbe1abe6b	-0.15111701
236	0x3c2c84ab	0.010529677
237	0xbe0a5bd8	-0.13511598
238	0x3e656e43	0.22405343
239	0x3cea9984	0.028637655
240	0x3e1ab3a6	0.15107593
241	0x3e7e8c60	0.24858236
242	0xbd5ed554	-0.054402664
243	0xbe8598bd	-0.26093093
244	0xbd8bec97	-0.06832235
245	0x3d559730	0.052146137
246	0xbe30f9c4	-0.17282778
247	0xbe4d7249	-0.20063128
248	0xbd477962	-0.048699744
249	0xbdec86f3	-0.11549177
250	0x3d8934ea	0.06699546
251	0x3e1597ca	0.14608684
252	0x3e11ed5d	0.14250703
253	0xbdb03337	-0.086035185
254	0x3da3ea22	0.08003642
255	0xbe967104	-0.293831

encoder.2.bias f4 [25]
0	0x3dd6fc33	0.10497322
1	0x3dd664ec	0.10468468
2	0x3e22b3d1	0.15888907
3	0x3e41221c	0.18860668
4	0xbd736848	-0.059425622
5	0x3e38fb75	0.18064673
6	0x3e0d1928	0.13779128
7	0xbb31b1a7	-0.0027113946
8	0x3d8f606d	0.07000814
9	0x3c20b80c	0.009809505
10	0x3e2d10a9	0.16900887
11	0xbc845bf0	-0.01615712
12	0x3dc039f2	0.09386052
13	0x3cadae34	0.02120123
14	0x3e5ce688	0.21572316
15	0x3e042925	0.1290632
16	0x3e301997	0.17197262
17	0x3c1a6fdc	0.009426083
18	0x3e62a1e9	0.22132076
19	0x3c323b8e	0.010878457
20	0x3e884383	0.26614007
21	0x3d93de4b	0.072201334
22	0x3d433e71	0.04766697
23	0xbd46fb10	-0.048579276
24	0xbce9c3fa	-0.028535832

decoder.0.weight f4 [50, 25]
0	0xbd86d1f1	-0.06583012
1	0x3e5dda2a	0.21665254
2	0x3db6e557	0.08930462
3	0x3e8bb349	0.2728522
4	0xbe2e5240	-0.17023563
5	0xbdacc4db	-0.08435985
6	0x3d9af912	0.07567038
7	0x3e69c1d6	0.22827849
8	0x3e499292	0.19684818
9	0x3e4d80c3	0.2006865
10	0x3e0058d8	0.12533891
11	0xbd694f64	-0.05696048
12	0x3e3d7d76	0.18504891
13	0x3e2e9f89	0.17053045
14	0x3d82ad86	0.06380753
15	0x3e27d839	0.16391076
16	0xbd3c3103	-0.04594518
17	0xbcbc06c6	-0.022952449
18	0x3e0379fb	0.128395
19	0xbb96ae26	-0.004598397
20	0x3e80df20	0.2517023
21	0x3e2eca8e	0.17069456
22	0x3e92540f	0.28579757
23	0xbdb46012	-0.088073865
24	0xbe43c82b	-0.19119327
25	0x3dbc26ac	0.091870636
26	0x3e973442	0.29532057
27	0xbe3e6706	-0.18593988
28	0x3e5386b8	0.2065686
29	0xbd86d349	-0.06583268
30	0xbd93c022	-0.07214381
31	0xbdde47ce	-0.108535394
32	0x3e4b21e7	0.19837151
33	0xbd29fbda	-0.04149995
34	0xbd12b39f	-0.03581583
35	0x3db1157a	0.086466745
36	0xbd7a2f90	-0.061080515
37	0xbda85bc6	-0.082206294
38	0x3dd3b56a	0.10337336
39	0x3da66474	0.08124629
40	0xbe22d1c6	-0.15900335
41	0x3cc7ff86	0.024413835
42	0xbda137e4	-0.078719884
43	0xbdaf810f	-0.08569538
44	0xbe84111f	-0.25794312
45	0x3ebf262a	0.37333804
46	0x3e06932e	0.13142082
47	0x3e40899d	0.18802495
48	0xbe294a6e	-0.16532299
49	0xbdef9997	-0.11699217
50	0x3d92a711	0.07160772
51	0xbd158084	-0.036499515
52	0x3db63d42	0.08898403
53	0xbe1fea9f	-0.15616845
54	0xbcb7e4e9	-0.02244802
55	0xbda4c2e3	-0.08044984
56	0xbc3f6fa2	-0.01168433
57	0xbdce52d9	-0.10074396
58	0x3de0457b	0.10950752
59	0xbe6e43e0	-0.2326808
60	0xbd464abf	-0.048411127
61	0xbcd5c764	-0.026096053
62	0xbc402051	-0.011726455
63	0x3e131f72	0.14367464
64	0xbe15a54e	-0.1461384
65	0xbe337414	-0.17524749
66	0x3d1054bb	0.035237055
67	0x3d67736e	0.056506567
68	0xbdf143e8	-0.1178053
69	0xbdecac0e	-0.11556254
70	0xbe4aae6e	-0.19793102
71	0xbde3212f	-0.11090314
72	0xbe66b866	-0.2253128
73	0xbe006e44	-0.12542063
74	0x3e432d90	0.1906035
75	0xbd9fca56	-0.078022644
76	0xbd84b0c4	-0.06479028
77	0x3e8e6d13	0.27817592
78	0xbd0a68a2	-0.033791192
79	0xbe2a2741	-0.16616537
80	0x3df81076	0.12112515
81	0x3e877219	0.26454237
82	0x3dc51865	0.096237935
83	0x3e0c3d51	0.13695265
84	0x3bef29bf	0.0072986777
85	0xbdc9afd3	-0.09847989
86	0xbca3e46f	-0.020006387
87	0xbddc263a	-0.10749479
88	0xbe9d58f4	-0.30731928
89	0x3cc675c8	0.024226084
90	0x3d8d03fa	0.06885524
91	0x3d0139b2	0.031549163
92	0x3e33b436	0.17549214
93	0x3d9d7a58	0.07689351
94	0xbd4dff25	-0.050292153
95	0xbe172237	-0.14759146
96	0xbd64c5fc	-0.055852875
97	0x3db91b32	0.0903839
98	0xbe33187e	-0.17489812
99	0xbe360c54	-0.1777814
100	0xbb70e90c	-0.003676
101	0x3e460ad3	0.19340067
102	0xbdda5e46	-0.106625125
103	0xbdb5bfb2	-0.088744536
104	0xbc616cbc	-0.013758834
105	0xbe17db91	-0.14829852
106	0xbdec6df6	-0.11544411
107	0x3e25d01f	0.16192673
108	0x3e8c1c21	0.2736521
109	0xbc842f43	-0.016135817
110	0xbe2a54b5	-0.16633876
111	0x3e14cb1b	0.14530604
112	0x3df2e22f	0.11859547
113	0xbe1ba793	-0.15200643
114	0x3bd22453	0.0064130216
115	0x3e17d2d8	0.14826524
116	0xbde8fa49	-0.11375863
117	0x3e2f1001	0.17095949
118	0xbe3938d0	-0.18088078
119	0xbe77325d	-0.24140306
120	0x3e10f066	0.14154205
121	0x3e41766e	0.18892834
122	0x3d4cb089	0.049973045
123	0x3e3f0aac	0.18656415
124	0xbd999377	-0.0749883
125	0x3e5ac8d5	0.21365674
126	0xbdec8487	-0.11548715
127	0x3dafca48	0.08583504
128	0xbdc576f9	-0.09641833
129	0xbe5cba9e	-0.21555564
130	0x3d516edd	0.051131118
131	0xbdf63fd5	-0.12023894
132	0xbd21a002	-0.039459236
133	0xbcea3c59	-0.02859323
134	0xbddfd162	-0.109286085
135	0xbe2c5dbf	-0.16832636
136	0xbe9c2176	-0.3049428
137	0xbda7efd4	-0.082000405
138	0x3eb1a7a2	0.34698206
139	0xbe5f1de3	-0.21788745
140	0xbdd3c927	-0.10341101
141	0x3e55753f	0.20845507
142	0x3d78cd24	0.060742512
143	0xbda0429c	-0.07825205
144	0x3d67365e	0.056448333
145	0x3d0a2f37	0.033736434
146	0x3e1e2e05	0.15447243
147	0x3d9c1c37	0.07622569
148	0x3e6fa7ad	0.23403807
149	0xbc6b4153	-0.014358836
150	0xbd22323e	-0.039598696
151	0xbde2133b	-0.11038824
152	0x3dcb4d85	0.09926895
153	0x3e1033e6	0.14082298
154	0xbe180f52	-0.14849594
155	0x3d569906	0.05239203
156	0x3e52fc19	0.2060398
157	0xbc0c0b3f	-0.008547603
158	0xbd8d63d7	-0.069038086
159	0x3e55e5aa	0.20888391
160	0x3e4e62e7	0.20154916
161	0xbdd910d4	-0.10598913
162	0x3e2a6f39	0.1664399
163	0x3e2aa556	0.16664633
164	0xbdd2565f	-0.1027038
165	0x3bd64b28	0.006539721
166	0x3c79e60c	0.015252601
167	0x3e60ef7c	0.21966356
168	0xbe8cd03e	-0.27502626
169	0x3d1f7649	0.038931165
170	0x3d724dd7	0.059156265
171	0xbe65eb92	-0.22453144
172	0x3d2374a7	0.03990617
173	0x3d19d001	0.037551884
174	0x3de017ec	0.10942063
175	0xbe87aac0	-0.2649746
176	0xbe8b9e69	-0.27269295
177	0xbd7f4854	-0.062324837
178	0x3ea01454	0.3126551
179	0xbe0d51c9	-0.1380073
180	0xbda62953	-0.08113351
181	0x3e615e4d	0.22008629
182	0xbebc54e2	-0.3678351
183	0xbdad954a	-0.0847574
184	0xbe19d333	-0.15021972
185	0x3e3cc6fd	0.18435283
186	0x3e84706f	0.2586703
187	0xbd525ef0	-0.05136007
188	0x3c0736b4	0.008252788
189	0x3e938c2e	0.28817886
190	0x3b424cec	0.00296479
191	0xbe077a0e	-0.13230154
192	0xbe5f12f6	-0.21784577
193	0x3e5dc173	0.21655826
194	0xbe0d4cdf	-0.13798855
195	0x3e1cc8e2	0.15311006
196	0xbc02d7b0	-0.007985994
197	0x3d1f8b06	0.038950942
198	0xbe471e18	-0.19445074
199	0xbd86cdd4	-0.06582227
200	0x3ead59f0	0.3385768
201	0xbd928ffd	-0.0715637
202	0xbe342b76	-0.17594704
203	0xbd972b5c	-0.07381317
204	0x3e620176	0.2207087
205	0x3d81164f	0.06303083
206	0x3e8556d6	0.26042813
207	0xbe577f60	-0.21044683
208	0xbdeb546f	-0.11490714
209	0x3d483eca	0.048888005
210	0xbccb9873	-0.024852967
211	0x3d69fd92	0.05712659
212	0xbe821631	-0.25407556
213	0x3deb31c0	0.114840984
214	0xbe731689	-0.23739065
215	0x3da0cdc2	0.07851745
216	0xbe5e7ffa	-0.21728507
217	0xbd78ca7c	-0.06073998
218	0xbdf11f0c	-0.117735
219	0x3e4f8fe5	0.20269735
220	0x3e96a3d2	0.2942186
221	0xbdcdba7a	-0.10045333
222	0x3d8d1edf	0.06890654
223	0x3d5c2758	0.05374846
224	0x3d840e48	0.064480364
225	0x3d8dd8c5	0.06926111
226	0xbe15462c	-0.1457755
227	0xbe372be0	-0.1788783
228	0x3d0e156e	0.034688406
229	0xbcd67948	-0.026180878
230	0x3e45fd93	0.19335012
231	0x3e3b1438	0.18269432
232	0x3e025aa6	0.12729892
233	0xbe722ee8	-0.23650706
234	0xbd8f42ae	-0.0699514
235	0x3dba1787	0.09086519
236	0xbdf05bd1	-0.117362626
237	0x3e24a8f3	0.16080074
238	0xbe20794f	-0.15671276
239	0x3d8eeda1	0.06978918
240	0xbd079227	-0.033098366
241	0xbe994253	-0.29933414
242	0xbea23ffb	-0.31689438
243	0x3cff3872	0.031154845
244	0xbe6fa376	-0.23402199
245	0x3d73438e	0.059390597
246	0x3e385fef	0.18005346
247	0x3e43ffa1	0.19140483
248	0x3cc9f1d0	0.024651438
249	0x3e0c5b07	0.13706599
250	0x3e8d5c2a	0.27609378
251	0xbdbdaf56	-0.09261958
252	0xbd5104e8	-0.05103007
253	0x3d9aacf1	0.07552517
254	0x3e3e3d28	0.18578017
255	0x3d2c911f	0.042130586

decoder.0.bias f4 [50]
0	0xbde10707	-0.109876685
1	0xbe0d51b3	-0.13800697
2	0xbe231ae4	-0.15928227
3	0xbd76ab70	-0.06022209
4	0x3c7f0180	0.0155643225
5	0xbda339bd	-0.07969997
6	0xbd6714eb	-0.056416433
7	0x3e50eb41	0.20402242
8	0x3dc33ead	0.09533439
9	0x3e3520d7	0.17688309
10	0x3c9ccd23	0.019140786
11	0xbe579dc9	-0.21056284
12	0xbe36d202	-0.17853549
13	0xbe3134b8	-0.17305267
14	0x3e0c25de	0.1368632
15	0x3d3f4182	0.046693332
16	0xbd573715	-0.052542765
17	0x3cb00c18	0.021490142
18	0xbcefb577	-0.029261334
19	0x3d21cf71	0.039504472
20	0x3e303f57	0.17211662
21	0xbe3bb27c	-0.18329805
22	0x3db873c7	0.09006458
23	0x3db6705a	0.08908148
24	0x3d91cb3c	0.07118842
25	0x3dd57355	0.104223885
26	0xbe1accb9	-0.15117158
27	0xbe68a382	-0.22718623
28	0xbe5c404d	-0.21508904
29	0xbd8d8096	-0.069092914
30	0x3d3d231c	0.04617606
31	0x3d205d61	0.039151553
32	0x3e103409	0.1408235
33	0xbe2864c9	-0.16444696
34	0x3cd0911f	0.025459824
35	0xbdcc2cd2	-0.09969486
36	0x3e2a45fa	0.16628256
37	0x3e415f7a	0.18884078
38	0xbcfc072b	-0.030765137
39	0x3e0b1efc	0.13586038
40	0xbdfade0f	-0.122493856
41	0x3ddfaad4	0.10921255
42	0x3b3cdfee	0.0028819996
43	0xbe37dd97	-0.17955624
44	0xbe0a6e52	-0.13518646
45	0x3d44cfbf	0.048049685
46	0x3de2403b	0.11047407
47	0x3d856d38	0.065149724
48	0xbab0a53d	-0.0013476979
49	0x3e2aad0b	0.16667573

decoder.2.weight f4 [665, 50]
0	0xbe3a0c63	-0.18168788
1	0xbe1aa8fc	-0.15103525
2	0xbda75992	-0.08171381
3	0xbd08a0f8	-0.033356637
4	0xbd505e4c	-0.05087118
5	0xbd3ac5b2	-0.045598693
6	0xbd594f84	-0.053054348
7	0xbe301823	-0.17196707
8	0xbe1e8766	-0.15481338
9	0xbe423054	-0.18963748
10	0x3c8907e4	0.016727395
11	0x3dedc1dc	0.11609241
12	0xbe5e7007	-0.21722423
13	0x3da92c70	0.08260429
14	0xbd771608	-0.060323745
15	0xbed5f631	-0.41789392
16	0xbe69442c	-0.22779912
17	0x3e5d9eb1	0.21642567
18	0xbdbb7471	-0.09153069
19	0xbdaa9dca	-0.08330877
20	0xbe1d466a	-0.15358892
21	0xbd94c59f	-0.07264256
22	0x3e66dbf1	0.22544838
23	0x3df3d34e	0.119055375
24	0xbcba274f	-0.022723822
25	0x3eaeacd9	0.34116247
26	0x3d2fa93d	0.042886008
27	0x3e882ca8	0.2659657
28	0xbe13c90d	-0.14432164
29	0xbdff45dc	-0.124644965
30	0xb9f5dc36	-0.0004689411
31	0x3dc0b0ba	0.09408708
32	0x3e1fa149	0.15588869
33	0x3d862803	0.065506004
34	0x3c592add	0.013254848
35	0x3d8e6e6c	0.06954655
36	0x3d47d176	0.048783742
37	0xbe43fe23	-0.19139914
38	0xbdef4b27	-0.11684256
39	0x3d5af5e8	0.05345717
40	0xbd73b2bc	-0.059496626
41	0x3e80326a	0.25038463
42	0xbd9fc56e	-0.078013286
43	0xbe853a66	-0.26021117
44	0x3e3fd165	0.18732221
45	0xbba362f0	-0.0049861595
46	0x3e3f2140	0.18665028
47	0x3d87748a	0.06614025
48	0xbd81b953	-0.06334176
49	0x3d7a7191	0.06114346
50	0xbe1053be	-0.14094445
51	0x3dae78a4	0.08519104
52	0x3d8c3e07	0.06847768
53	0x3c95dde9	0.018294292
54	0xb9b6341f	-0.00034752578
55	0x3c81da1f	0.015851079
56	0xbd779b14	-0.06045063
57	0xbdda4800	-0.10658264
58	0xbcbd5b97	-0.023114963
59	0x3db18e04	0.086696655
60	0xbd2eb660	-0.042654395
61	0x3dff272f	0.124586456
62	0xbca24c16	-0.019811671
63	0x3cb4cd14	0.022070445
64	0xbdbc7419	-0.09201831
65	0xbdbd5a1d	-0.09245703
66	0xbd243444	-0.040088907
67	0x3e1c5299	0.15265884
68	0xbd58e942	-0.052956827
69	0x3d940af1	0.072286494
70	0x3b3b39c4	0.0028568367
71	0x3cda5fab	0.026656946
72	0x3d3de87a	0.046364285
73	0xbda7973d	-0.08183143
74	0x3dbf0299	0.09326667
75	0xba28afae	-0.000643487
76	0x3c83fb74	0.016111113
77	0x3bf04d40	0.0073334277
78	0x3e0a6864	0.13516384
79	0xbde48d2f	-0.11159741
80	0xbdae44aa	-0.085091904
81	0x3dfa6915	0.12227074
82	0x3d01318e	0.0315414
83	0xbabb1648	-0.0014273608
84	0x3dc17f31	0.09448088
85	0xbd993b07	-0.07481962
86	0xbde540b7	-0.11193984
87	0x3dccd7b2	0.10002078
88	0xbda0f06c	-0.07858357
89	0x3dce5b66	0.100760266
90	0x3ce3305f	0.027733026
91	0x3d6f949f	0.058491345
92	0xbc428956	-0.011873564
93	0x3df73af9	0.12071795
94	0xbd429d51	-0.04751331
95	0xbcab2b7b	-0.020894757
96	0xbd8f0ae7	-0.06984501
97	0xbda46ea3	-0.08028915
98	0xbd6df0ea	-0.05809108
99	0xbe02903c	-0.12750334
100	0xbcbaea4b	-0.022816798
101	0xbd5b5891	-0.05355126
102	0xbe10737d	-0.14106555
103	0x3cb801d6	0.022461813
104	0xbe7806ca	-0.2422134
105	0x3dbdbe48	0.09264809
106	0xbcd83fc2	-0.02639759
107	0xbcca9347	-0.02472843
108	0x3e6a0e97	0.22857128
109	0xbd22ecf3	-0.039776754
110	0xbe47aed7	-0.1950029
111	0xbd67194c	-0.05642061
112	0xbe660c3d	-0.22465606
113	0xbeccb027	-0.39978144
114	0x3c600ce8	0.013674952
115	0x3e23e705	0.16006096
116	0x3e3946a6	0.18093356
117	0x3da6be9f	0.08141827
118	0x3e26390f	0.16232704
119	0x3ea6b15d	0.32557192
120	0x3d90e61b	0.07075139
121	0x3ba4169c	0.005007578
122	0xbe305fbd	-0.17224021
123	0xbcee4922	-0.029087607
124	0x3e8577c3	0.26067933
125	0x3e373a5a	0.17893353
126	0xbd5c9738	-0.05385515
127	0x3de8e684	0.11372092
128	0xbd69da84	-0.05709316
129	0xbe0a9270	-0.13532424
130	0x3e63946b	0.22224586
131	0x3d8c4053	0.06848206
132	0x3ea4c624	0.3218242
133	0xbdb7b866	-0.08970718
134	0x3dc4aff7	0.09603875
135	0x3e5e81b1	0.21729161
136	0x3c172401	0.009224893
137	0x3d0923cb	0.0334814
138	0x3d3f1770	0.04665321
139	0xbcda7174	-0.026665427
140	0x3d591e57	0.05300745
141	0xbc64272d	-0.013925356
142	0x3d881d25	0.06646184
143	0xbbb7708f	-0.005598135
144	0xbd831803	-0.06401064
145	0x3d3bca48	0.045847207
146	0xbd9a4b67	-0.07533913
147	0xbe5601f2	-0.2089918
148	0xbcb54742	-0.022128705
149	0x3c98af14	0.018638171
150	0xbdc8b052	-0.097992554
151	0x3db823db	0.08991214
152	0xbd8d00b5	-0.068849005
153	0xbc9c1d38	-0.019056901
154	0xbdbf3300	-0.09335899
155	0x3d721934	0.059106067
156	0xbca7bfa7	-0.02047713
157	0xbd0cd8c9	-0.03438643
158	0xbe8f1802	-0.27948004
159	0x3e5b0014	0.21386749
160	0xbe0beabe	-0.13663766
161	0xbe4f743a	-0.2025918
162	0xbe49ddcd	-0.19713517
163	0x3ec22573	0.37919196
164	0xbcbf7290	-0.023370057
165	0xbe550720	-0.20803499
166	0xbd8d0dd4	-0.06887403
167	0x3cb94654	0.022616543
168	0xbe1ef77f	-0.155241
169	0x3df3e739	0.119093366
170	0x3d660827	0.05616012
171	0x3e7dfa17	0.24802433
172	0xbe1511e9	-0.14557613
173	0x3c5af772	0.01336466
174	0x3e1781c1	0.14795591
175	0x3d7c0da6	0.061536454
176	0x3e101700	0.14071274
177	0xbdba4366	-0.090948865
178	0xbe26097a	-0.16214553
179	0xba67a5c3	-0.0008836651
180	0x3c64718a	0.013943085
181	0x3e465f9b	0.19372408
182	0x3e421aa5	0.18955477
183	0x3d853f88	0.06506258
184	0x3e35b705	0.17745598
185	0x3e2b7b35	0.16746219
186	0xbe04c57b	-0.12965958
187	0x3d19da03	0.037561428
188	0x3e2cab4b	0.16862218
189	0xbd6fe7e4	-0.058570758
190	0xbdb1d8ce	-0.0868393
191	0xbdf636e8	-0.12022191
192	0xbda95d8e	-0.08269797
193	0x3e3a6b09	0.18204893
194	0xbd877efb	-0.066160165
195	0x3d6b1011	0.05738837
196	0xbe555dda	-0.20836583
197	0x3e1fcbd8	0.15605104
198	0x3ccceac1	0.025014283
199	0xbdf0afbf	-0.11752271
200	0x3e0a16f4	0.13485318
201	0x3e4a3581	0.19746973
202	0xbd663969	-0.056207094
203	0x3e018292	0.12647465
204	0xbd430b4f	-0.047618207
205	0xbd88bbbe	-0.06676434
206	0x3e32fa36	0.1747826
207	0xbc7c5135	-0.015400221
208	0x3cf79416	0.03022198
209	0xbbab3892	-0.0052252496
210	0x3d062ebd	0.032759417
211	0xbdb63b10	-0.08897984
212	0xbe147941	-0.1449938
213	0xbdb7ff72	-0.08984269
214	0xbd2310c8	-0.039810926
215	0x3b9a1a8b	0.004702871
216	0x3cc52f26	0.024070334
217	0xbd529e49	-0.051420484
218	0xbdcb6f04	-0.09933284
219	0xbbd213a6	-0.0064110337
220	0xbe225805	-0.1585389
221	0x3dc98d07	0.09841352
222	0xbe8f65b7	-0.2800729
223	0x3dc8f65d	0.09812615
224	0xbed5711f	-0.41687867
225	0x3dfbbaa8	0.12291461
226	0x3c996bd5	0.018728176
227	0xbe386829	-0.18008484
228	0xbd9e94ab	-0.077432
229	0x3b675418	0.0035297927
230	0x3e59a8fa	0.21255866
231	0x3cf84d52	0.030310307
232	0xbda1dca0	-0.07903409
233	0x3e8ac9cf	0.27107093
234	0xbe14382b	-0.14474551
235	0xbd182136	-0.037141047
236	0x3db93ad7	0.09044426
237	0x3d29478c	0.041327998
238	0x3e380fea	0.1797482
239	0xbd0bc325	-0.03412165
240	0x3d35fb96	0.044429384
241	0xbe026466	-0.12733611
242	0x3d89545d	0.06705544
243	0xbe2d994d	-0.16953011
244	0x3e834817	0.25640938
245	0x3d449008	0.04798892
246	0x3e37ac5d	0.17936845
247	0xbd45ead3	-0.04831965
248	0x3cf52f8e	0.029929902
249	0xbdd9f23f	-0.10641908
250	0x3dd3c02a	0.10339387
251	0xbda345fe	-0.07972334
252	0x3da19a5f	0.07890772
253	0x3d7204be	0.059086554
254	0xbe4eb315	-0.20185502
255	0x3d4ef5c7	0.05052736

decoder.2.bias f4 [665]
0	0xbc88d0c9	-0.016701119
1	0xbde339da	-0.11095019
2	0x3dbd8bad	0.09255157
3	0x3dc37ca6	0.09545259
4	0xbcbf5b68	-0.023359016
5	0xbdac3619	-0.08408756
6	0x3d266f6b	0.0406336
7	0x3d8dfb91	0.06932748
8	0x3d98a8c8	0.074540675
9	0x3df88c16	0.12136094
10	0xbd445a47	-0.047937658
11	0x3d1cd7f0	0.03829187
12	0x3dc9a119	0.0984518
13	0x3d8c39b1	0.06846941
14	0x3caab2d6	0.020837229
15	0x3d9d4ebc	0.07681033
16	0x3e292116	0.16516528
17	0x3d454631	0.048162643
18	0xbd85b678	-0.06528944
19	0xbd1df395	-0.038562376
20	0x3db2b5c1	0.08726073
21	0xbddeeb41	-0.10884715
22	0x3ca4f01d	0.020134026
23	0xbdd83bcd	-0.10558281
24	0x3cdb4132	0.026764486
25	0x3daf23fa	0.08551784
26	0x3e0e5471	0.138994
27	0x3e1ed5b5	0.1551121
28	0xbd9df964	-0.07713583
29	0x3df64655	0.120251335
30	0x3e011e54	0.12609226
31	0x3e14fec7	0.14550315
32	0xbbf09318	-0.0073417537
33	0x3bdbe756	0.006710927
34	0xbd70d54a	-0.05879716
35	0xbcf5d25f	-0.03000754
36	0x3d72583d	0.05916618
37	0xbddd0151	-0.10791267
38	0x3db65ec8	0.08904797
39	0xbbbc2a49	-0.0057423455
40	0xbd4f96c3	-0.050680887
41	0x3e04f1fc	0.12982935
42	0xbd6ec172	-0.058289953
43	0xbd2de34f	-0.042453106
44	0x3d8cc4f6	0.06873505
45	0x3d54e898	0.05197963
46	0xbd632b63	-0.0554613
47	0x3d0595b0	0.032613456
48	0xbe3ff751	-0.18746687
49	0x3d06ec07	0.032939937
50	0xbe2c8654	-0.16848117
51	0xbe27f853	-0.16403322
52	0xbe61e07a	-0.22058287
53	0x3d9f7a0c	0.077869505
54	0xbc27a345	-0.010231798
55	0xbd6dafbb	-0.058028918
56	0xbe0ff1ed	-0.14057131
57	0x3da61f5a	0.081114486
58	0xbd7781d8	-0.060426563
59	0xbd24b355	-0.040210087
60	0xbe0d8a56	-0.13822302
61	0x3d110280	0.035402775
62	0xbd306731	-0.04306716
63	0x3d4e2756	0.050330482
64	0xbdd9cfda	-0.10635348
65	0xbd845fa8	-0.064635575
66	0x3b8906a8	0.0041817017
67	0xbde1f0be	-0.11032246
68	0xbc90d03f	-0.017677424
69	0x3dd2f458	0.10300511
70	0xbe4399a5	-0.1910158
71	0x3c1dbb9a	0.009627247
72	0xbde0b652	-0.10972275
73	0xbe43e941	-0.19131948
74	0x3ceb002c	0.028686605
75	0xbdf168c1	-0.11787558
76	0x3d9adfa4	0.07562187
77	0x3c009e73	0.007850277
78	0xbc3e02c1	-0.011597336
79	0xbe13e14d	-0.14441414
80	0xbd0fac61	-0.035076503
81	0xbca1495b	-0.019688299
82	0xbd801bf2	-0.0625533
83	0xbe1b55a8	-0.15169394
84	0xbe2f7c13	-0.17137174
85	0xbe11ab3a	-0.14225474
86	0xbdb00c85	-0.08596138
87	0x3bb63a69	0.0055611623
88	0x3cbe1486	0.023203146
89	0xbcb6d84a	-0.022319932
90	0xbe1b35aa	-0.1515719
91	0x3d8ef1dc	0.06979725
92	0x3d6afa16	0.057367407
93	0x3d6fe570	0.058568418
94	0xbd5b1a9f	-0.053492185
95	0xbdfc43a7	-0.12317591
96	0x3d32ea34	0.043680385
97	0xbdbc9497	-0.09208029
98	0x3ccbfa0e	0.024899509
99	0xbe129044	-0.14312845
100	0xbe3bbac9	-0.18332972
101	0x3c68f2b4	0.014218021
102	0x3c504366	0.012711382
103	0x3d2ae50d	0.041722346
104	0xbda95ccf	-0.08269655
105	0xbe07bca3	-0.13255553
106	0x3d478675	0.048712213
107	0xbd8e81c8	-0.069583476
108	0xbda9323d	-0.08261535
109	0x3cdb6efa	0.026786316
110	0xbd19ae4f	-0.03751975
111	0xbe200347	-0.1562625
112	0x3d77c49e	0.060490243
113	0xbce957ac	-0.028484188
114	0x3c6bb69d	0.0143868
115	0xbd3e66e4	-0.046484843
116	0xbc936756	-0.01799361
117	0x3dad83cb	0.08472403
118	0xbdf89d58	-0.12139386
119	0xbe888036	-0.26660317
120	0x3d92c444	0.07166341
121	0xbdca22da	-0.09869929
122	0xbe752319	-0.2393917
123	0x3dbcdd60	0.092219114
124	0xbdd3a09f	-0.103333704
125	0xbe24e5e9	-0.16103329
126	0xbe1ee944	-0.15518671
127	0x3d294eb3	0.04133482
128	0xbd0a0cb1	-0.03370351
129	0xbe347dba	-0.17626086
130	0x3ddefdbd	0.108882405
131	0xbd864a4a	-0.06557138
132	0xbdde9c88	-0.108697
133	0x3d87416d	0.06604276
134	0x3c66f275	0.014095892
135	0xbddad2a0	-0.10684705
136	0xbd923f04	-0.071409255
137	0xbc9b6215	-0.018967668
138	0x3d1ee77e	0.038794987
139	0x3dcb6920	0.099321604
140	0x3d5b7e32	0.053587146
141	0xbc6fb501	-0.014630557
142	0x3d215738	0.03938982
143	0x3e184fa5	0.14874132
144	0x3da7a23e	0.08185242
145	0xbb70bc5b	-0.0036733362
146	0x3e339fcf	0.17541431
147	0xbd46d355	-0.048541386
148	0x3e3eda4c	0.18637961
149	0xbde44138	-0.11145252
150	0x3c812089	0.015762584
151	0xbddea49c	-0.108712405
152	0x3b1d37fb	0.0023989666
153	0x3d8de8ef	0.06929194
154	0xbd8f54e6	-0.06998615
155	0xbd1a7ca1	-0.03771651
156	0x3c36e1b9	0.011162215
157	0xbd782737	-0.060584273
158	0xbcc448d1	-0.023960503
159	0x3d98d99c	0.07463381
160	0xbc315fcd	-0.010826063
161	0x3d482029	0.048858795
162	0x3e489fce	0.1959221
163	0x3d89a4b9	0.067208715
164	0x3da4854d	0.080332376
165	0x3d4956a0	0.049154878
166	0xbd8aec00	-0.06783295
167	0xbcc91dfd	-0.024550432
168	0xbe11208c	-0.14172572
169	0x3ddd08cd	0.10792694
170	0x3d2a2a70	0.041544378
171	0x3db43fbc	0.08801219
172	0x3dfa20e6	0.12213306
173	0x3dd0bc5c	0.10192177
174	0x3d7c7e8b	0.06164412
175	0x3e1a3bcb	0.15061872
176	0xbce6c187	-0.028168453
177	0xbd8bc26a	-0.06824191
178	0x3e24c5c4	0.16091067
179	0xbd39c880	-0.045357227
180	0x3de3f8d0	0.111314416
181	0xbe08f892	-0.13376072
182	0xbd7d85bb	-0.061895113
183	0xbe3186fb	-0.17336647
184	0xbdea7bbb	-0.11449381
185	0xbdccff09	-0.100095816
186	0xbcd78c8c	-0.026312135
187	0xbdd0673f	-0.10175943
188	0x3d592535	0.053014
189	0xbe243389	-0.16035284
190	0xbd907b9b	-0.07054826
191	0x3da5f287	0.08102899
192	0xbd81f309	-0.063451834
193	0x3d97a9cb	0.07405432
194	0x3dadaa6f	0.08479773
195	0x3d01533c	0.03157352
196	0xbd633e35	-0.055479247
197	0xbe0a7645	-0.13521679
198	0xbc1ac2fb	-0.009445901
199	0xbd9c3a41	-0.076282986
200	0xbca224cd	-0.019792939
201	0xbbfd0e76	-0.007722671
202	0xbbe6940d	-0.007036692
203	0xbd762d51	-0.06010181
204	0x3d579739	0.05263445
205	0xba5b8612	-0.0008374165
206	0xbe151867	-0.1456009
207	0xbd844ea0	-0.06460309
208	0xb973ea12	-0.00023261484
209	0xbcb49326	-0.022042822
210	0xbdc7e79f	-0.09760975
211	0xbd14a5c3	-0.036290895
212	0x3d28333e	0.041064493
213	0x3c4e6121	0.0125963995
214	0xbe205f83	-0.15661435
215	0x3dac2715	0.08405892
216	0xbd92d4dc	-0.07169506
217	0xbd534b80	-0.051585674
218	0x3dc0df1b	0.09417554
219	0xbe225311	-0.15852
220	0xbe047ebb	-0.12938969
221	0xbc962d10	-0.018332034
222	0xbda6a0af	-0.08136117
223	0x3d25a9d9	0.040445182
224	0xbd19c303	-0.037539493
225	0xbdde41fe	-0.10852431
226	0xbdaa03b0	-0.083014846
227	0xbcf5843e	-0.029970285
228	0xbcaa80e2	-0.02081341
229	0xbdbe7e24	-0.09301403
230	0xbc5f552a	-0.013631145
231	0xbe277283	-0.16352277
232	0xbe54039d	-0.20704503
233	0xbd923da1	-0.07140661
234	0xbe3cf05b	-0.18451063
235	0x3d2b0c5c	0.041759834
236	0xbd8548a0	-0.06507993
237	0xbc47c687	-0.012193329
238	0x3d4bf007	0.049789455
239	0xbe36f637	-0.17867361
240	0xbd8a0506	-0.067392394
241	0x3d88b162	0.06674458
242	0xbd702243	-0.058626425
243	0xbe34a5c1	-0.17641355
244	0x3da88600	0.082286835
245	0xbdb78e43	-0.08962681
246	0x3bde45ce	0.0067832237
247	0xbe360e5a	-0.17778912
248	0xbe3e49d3	-0.18582849
249	0x3cddb814	0.027065314
250	0xbe244de1	-0.16045333
251	0xbe13f52d	-0.14448996
252	0xbe3722b9	-0.1788434
253	0xbc817dd6	-0.015807074
254	0x3d2d6d9d	0.042340863
255	0xbded26a2	-0.11579634
