deepwatch/ai/autoencoder-mf/data/autoencoder_model.pth (torch, 282035 bytes, 8 tensors)

encoder.0.weight f4 [50, 665]
00000000: c4ce 1fbd 1aef 3fbd 7d01 03bd af32 39bd
00000010: 39e3 103b 9721 febc e2d8 bebb 3a6c abbc
00000020: 4dc2 2b3c d451 c73b 6f94 41bc b2be d53c
00000030: 2002 2cbd 06a2 8cbb 67cf 79bc 93a7 7cbc
00000040: c2d3 553a a896 31bd 78ce e13c 3b0a 24bd
00000050: e4e4 4fbc 82ee f73c 2be2 02bd b6bd be3c
00000060: 9b1a b7bc e969 bcbc 6ea1 b0bc 23ab 97bb
00000070: 6413 8ebc bb56 163c b2a9 8abd 3cf1 80bc
00000080: 90bc d53c e256 84bd 6e80 f6bc 7215 e4bb
00000090: f7f6 b63c d122 5b3c 3df3 153b 089b a5bc
000000a0: f959 45bd 1d88 dc3c 4f17 0dbd cb2b f2bb
000000b0: 467c da39 6d8d bcbc d71d 98bc 4c34 05bd
000000c0: c211 dc3d c838 e73c 45e4 59bd cb91 22bd
000000d0: ddd1 f23c a22b 09bb 748b 3b3d 4fdd f5bc
000000e0: f461 51bc a21b 79bc 667b b23c f96f ebbc
000000f0: d425 413c 2037 053d 31d2 133d 23ac f33c
00000100: cd72 f43c f899 013d 6ca5 07bd e92b d13d
00000110: 0757 133d 35dd 2abc bffe 0abd 0082 de3c
00000120: 1431 13bd 2601 573e 3b9b c7bd 4a3e 14be
00000130: ca35 9e3c d600 cfbc fc75 c9bb 1d8b 4abc
00000140: 5df1 5ebe 054c 0abc 3317 d5bc 0c9c 403a
00000150: 3d63 1cbc 965a 793c 2d74 ca3c 73f2 743c
00000160: 6ff5 ee3c 88e6 9ebc 278f d9ba 904e ad3c
00000170: e922 a33c e552 a63c 2c17 84bb a436 08bc
00000180: a0bf 15bd ffd6 e3bb 366c 013a 8543 81be
00000190: fbc2 2f3d 25f9 423c b1c5 a7bc 7a15 3abb
000001a0: da46 0b3d 7853 91bb 8b42 143d 9e73 973c
000001b0: bcf9 ebbc bf6b ff3c c851 0dbb 2bbe 453a
000001c0: 3894 cbb9 3e80 513e b569 72bc 7af5 103d
000001d0: dfee 3e3c 8dc9 953c 0656 2fbd 9b0e 2bbe
000001e0: 0f7b 1dbd 593f 003c 745d 9b3d d4e0 f53c
000001f0: 88b4 bc3d b2ca f3bc ea07 61bd c39f 923c
00000200: 3171 d8bc 6065 ab3a a64a ef3c 947b 373b
00000210: aee2 a3bc 7b50 13bd 63e5 32bd 10bf 9a3c
00000220: 3486 18bc 140e d8bb 82a7 19bd 9042 023b
00000230: edbb 973c 9a87 f1bc 70c4 95bc 725c b4bc
00000240: a314 5ebc bd43 97bd 7e50 853a de1e 16bd
00000250: ff15 6ebc 979a 5abd b720 14bb 1cfc 8b3c
00000260: 6793 773c 4d29 31bc 93bd 81bc 37ac 7b3c
00000270: 7f3e bd3c bfde 44bd 53fe 0fbd 9515 8f3b
00000280: 3cac 303d 4de3 8fbd 0da7 2fbd 606f 68bd
00000290: 4fc2 fb3b 3d08 63bd 7687 95bc 9a43 5e3b
000002a0: 7db8 34ba 8276 89bb e4ac ad3c d656 763c
000002b0: 60a9 373c 726d 243c 68e3 d739 e522 b83a
000002c0: 4638 2b39 e696 7fbd 1621 e33c f0d0 78bd
000002d0: bc82 ddbc f565 2ebc 3b0d 0abb c36b 05be
000002e0: 36e2 c3bd 8eac 943c 6b0e 11be b454 3e3e
000002f0: 381a 4cbc 9dbf 433c 4ada 20bc 5f60 1f3c
00000300: 1499 153c 9ded ab3c 1d04 10bd 549c fbbb
00000310: 6449 61bb 06ed a93c e0c7 823c 7b7c 983c
00000320: 0913 a43c bee3 833d fc5a ddbc e875 ed3c
00000330: 449d 213c 36de e939 d0f9 2cbd 86d8 10bd
00000340: 9e80 38be 68da 603c d147 e5ba e528 163d
00000350: 2a97 d4bc aa02 39be cd35 483c 1005 dbbc
00000360: bf9b 06bb bc65 593b 8746 03bc d940 2f3c
00000370: 6a8b e4bc 2ee2 cebc a295 543c c580 f0bc
00000380: d568 08bd fd4d e2bc bc16 5f3c ada0 7abc
00000390: cc9e 153c 1936 8839 d9de b73c e092 90bc
000003a0: 72c5 bb3d c61d 19bc e512 c9bc 6877 b53c
000003b0: 2ea2 8bb9 fc2e 31bc 4a98 d83b 9569 f23d
000003c0: 2285 833b 4254 103d 7ac1 84bc e3c3 023d
000003d0: 2e7a 273b 0982 fb3b e03e 623c 01bb 86bc
000003e0: ecd8 2e3c 8d74 fdbc 59e7 c23b 7725 07bd
000003f0: 168a 2cbe 1a00 043d 1acf d2bc beff 5a3b
-0.039015546 -0.046858884 -0.03198384 -0.04521435 0.0022108092 -0.031021876 -0.0058241943 -0.02092563
0.010483337 0.0060827527 -0.0118151745 0.026091907 -0.041994214 -0.0042917756 -0.0152472025 -0.015420812
0.00081568595 -0.043356568 0.027564272 -0.04004882 -0.012688849 0.030265097 -0.03195397 0.02328382
-0.022351554 -0.02299972 -0.02156135 -0.0046285554 -0.01734323 0.009175952 -0.06770648 -0.01574003
0.02609089 -0.06461884 -0.030090537 -0.0069605643 0.022334559 0.013375 0.0022880577 -0.020215526
-0.048181508 0.026920373 -0.034446057 -0.0073904744 0.0004167279 -0.023016656 -0.018568916 -0.032520577
0.107455745 0.028225318 -0.05319621 -0.03968982 0.029641086 -0.0020930548 0.04578729 -0.030012755
-0.0127797015 -0.015204342 0.021787357 -0.028739916 0.011788804 0.032523274 0.036089126 0.029745167
0.029839898 0.031640977 -0.033116743 0.10213453 0.035971668 -0.010428716 -0.03393435 0.027161598
-0.035935476 0.20996532 -0.09746405 -0.14476886 0.019312758 -0.025268953 -0.006148098 -0.012362269
-0.2177176 -0.008440976 -0.026012039 0.00073474715 -0.009545145 0.015219351 0.0247136 0.0149503825
0.029169766 -0.019397035 -0.0016598449 0.021155626 0.019914107 0.020303199 -0.0040310826 -0.008313809
-0.0365597 -0.0069531198 0.0004937084 -0.25246826 0.042910557 0.011900221 -0.020480009 -0.0028394149
0.034003116 -0.004434999 0.036196273 0.018487748 -0.028805606 0.031179307 -0.0021563638 0.0007543291
-0.0003882961 0.20459077 -0.01479571 0.035390355 0.011653631 0.018284583 -0.042806648 -0.1670479
-0.038447436 0.007827603 0.07586184 0.030014433 0.09214121 -0.029759739 -0.054939188 0.017898446
-0.026421161 0.0013076477 0.0292104 0.0027997242 -0.02000555 -0.035965424 -0.04367579 0.018889934
-0.00930934 -0.006593475 -0.037513264 0.00198761 0.018522227 -0.029483605 -0.018282145 -0.022016738
-0.013554725 -0.07385967 0.0010171083 -0.03665053 -0.014531611 -0.053370085 -0.0022602507 0.017087989
0.015110827 -0.0108130695 -0.015837466 0.015360883 0.02310109 -0.04806399 -0.03515465 0.0043665865
0.043133005 -0.07025776 -0.04288392 -0.05674684 0.0076830755 -0.05542778 -0.01825307 0.0033914805
-0.0006893946 -0.0041950354 0.021200605 0.015035352 0.011209816 0.010035859 0.00041177426 0.0014048485
0.00016328794 -0.062399767 0.027725738 -0.060746133 -0.027039878 -0.010644426 -0.0021065015 -0.13029389
-0.09564631 0.018148687 -0.14165656 0.18586999 -0.012457423 0.01194754 -0.009817669 0.0097275665
0.009130735 0.020987326 -0.035160173 -0.007678548 -0.003437602 0.020742904 0.015964448 0.018614044
0.020028608 0.06439923 -0.027020924 0.028986886 0.009864155 0.00044606783 -0.042230427 -0.035362743
-0.18017814 0.013723947 -0.0017492716 0.036660094 -0.025950987 -0.18067423 0.012219858 -0.026735812
-0.002053961 0.003317221 -0.0080124205 0.010696613 -0.027898509 -0.025254335 0.012975128 -0.029358277
-0.0333031 -0.027625078 0.01361626 -0.015297097 0.009132098 0.00025980247 0.02244513 -0.01764816
0.09168519 -0.009345477 -0.024545142 0.022151664 -0.0002663298 -0.010814425 0.006609951 0.118365444
0.0040136734 0.035236605 -0.016205538 0.031925093 0.0025555003 0.0076754135 0.013808936 -0.016446592
0.010671835 -0.030939365 0.005947989 -0.032994714 -0.1684955 0.03222666 -0.02573352 0.0033416594

encoder.0.bias f4 [50]
00000000: 103a 8f3c 9b13 633c 4063 b13c ebd0 6cbd
00000010: a73b ca3c 6314 893c 5b9d 013d 21bd 92bb
00000020: ee84 0b3c d495 113d b584 4cbb 7883 0abd
00000030: ddca 3f3d 258f e53b cc88 26bd 2b55 93bd
00000040: 4b56 033d 7729 04bd af46 dbbc 7d84 6f3c
00000050: aefd 34bd 80a2 6b3c 8c33 773d 5e9a 20bd
00000060: d33e 1c3c 95ed 413a 5c00 213d dc1d 9c3c
00000070: 17cc 053d 47b8 de3a 8659 31bc 14bc 903c
00000080: 1897 843c 9ed5 9cbc a29f 24bc 07c1 143d
00000090: 4a60 3f3c 4c5e 0c3d a136 0e3c f899 3d3d
000000a0: 590c 853b b163 8a3c d45b afbc ac38 853d
000000b0: 50d1 433c 825b 393d 5b63 1dbd da3a 0bbd
000000c0: 04d4 e03c 0c10 f53c
0.017483741 0.013859655 0.021653771 -0.057816427 0.024686648 0.016733354 0.031644206 -0.0044781123
0.00851558 0.035543278 -0.003120703 -0.033816785 0.046824325 0.0070055895 -0.040657803 -0.07193979
0.032064717 -0.032266106 -0.026767103 0.01461899 -0.04418724 0.014382005 0.060351893 -0.039209716
0.009536463 0.0007397768 0.039306983 0.019057207 0.03266534 0.0016992175 -0.010824567 0.017667808
0.016185328 -0.01914483 -0.010047825 0.036316898 0.011680672 0.034269616 0.008680017 0.046289414
0.00406031 0.01689324 -0.021406092 0.0650495 0.011951759 0.045253284 -0.03842483 -0.033991672
0.027444847 0.029914878

encoder.2.weight f4 [25, 50]
00000000: b37c 2cbe 51eb efbd cc39 00be 7f27 46bd
00000010: 1205 ec3d 97a7 23bd 901d 333c 5040 f3bc
00000020: d518 8cbd 3943 8c3e 2ab2 53be 3a49 bcbd
00000030: 094d 233d 007f 1e3d 3065 303e 63c5 4bbe
00000040: 3168 1a3e 3465 d6bd edd5 9d3d b7f8 58be
00000050: 4316 3ebd 4d94 d6bd 0b5e d83d 4f49 1bbe
00000060: 9dcd 153e b9d7 cc3d f9ab 763e a850 863d
00000070: babd 79be 20b7 8bbd a13c 43bd 6e14 80bd
00000080: f45e 3d3e eac4 f1bd da3e 753c 629d dbbd
00000090: 0250 cabd 4e53 473e 10d7 bebd 7e13 7b3e
000000a0: 07df 613e 6e7e 263e 13ac dabd b654 143c
000000b0: 1f89 3cbe 4459 023e 7f45 953d 7b8b 22bd
000000c0: 7897 023e 345d 1fbe 349f 4ebe 016d 9d3c
000000d0: be96 1cbc 874b 64be 9d9d 54be 9eb2 953d
000000e0: 663a 003d 0bc0 53be e8bc 28be 42c5 13be
000000f0: ac6f c4be 0443 44be 08ce 263e 8f9e 543d
00000100: 551a e6bd e34f e83d 8364 ef3c 2298 8fbe
00000110: 4e37 6a3d 98d0 123d aec0 0cbe 2194 653d
00000120: b4dd 843d 50ff e3bd c09c b63d 4a38 8ebe
00000130: 5872 e0bd 0209 36bd b9d8 63be c41c 073d
00000140: 2e45 51be 5cdc efbd 07fb 5f3e 2dc7 1a3e
00000150: 83cb 2d3c b8e2 a73c decd 9b3c 9780 4f3e
00000160: 9b12 16be 3349 573e 041c 28be e01f 0dbe
00000170: d272 2dbd 295c 453d 6ffc e33d a64a 1e3e
00000180: 5f60 243e 698e 5c3e 98ba fabd afb0 2d3e
00000190: 258a 87bd b973 3ebd c5f0 0d3d fb1b 2abe
000001a0: 2a2a 6ebd c373 ebbd a0a2 f5bd aa45 4dbe
000001b0: 7180 3fbe 9b6b 353e 0b94 16be d9e5 88bd
000001c0: d527 703e 5901 e5bc 1101 b7bd 2d24 a9bd
000001d0: cb4a 843e d545 36bd de92 41bb 765f 803d
000001e0: 8b0b 503c 1bec 3abd 8883 313e 4c33 dfbd
000001f0: fc0c 653e aa34 bc3d cc6d 293e 6cc8 033d
00000200: 73b4 c93d 5bee e7bd af5f 833c 5e54 cbbd
00000210: 285d 80bd 3e7e 49bd 2333 d73c f8d1 80bd
00000220: 035a ed3d a874 893d cc0d babd d6ce 033e
00000230: e5c7 a13e 60d6 b43c 223a 813d 3f73 e53d
00000240: bb74 4dbe 5855 aa3d b5a1 5dbd f42a cd3e
00000250: b7b0 33bd 5e2a f23d dc15 8fbe c71d 8cbd
00000260: 7f1d f83c bfc6 fa3d e8b0 9b3d 8c9e e03c
00000270: e83f c73b 40d4 463d 4161 b03c e432 323e
00000280: b0d2 b4bd afb5 90bc e20b b03d f797 debc
00000290: 098d 5fbc 2e11 e33d 8c7a 883d 555b efbd
000002a0: f981 e3bc f7a7 6abe 9f71 07be 0169 96bd
000002b0: 912a 1d3c 7058 c0bd c7ab 873d 1cd4 42bd
000002c0: 38b3 3f3e 9430 8dbe 3280 d33c 2276 4bbd
000002d0: 202c 933d cc30 36be 3367 5fbd dd31 2e3d
000002e0: 4a07 a1be d875 ad3d 5479 02be d860 29bf
000002f0: 4050 81bd 56ef e33d 643c ebba c874 dfbd
00000300: 4e80 293d f904 383b 4954 d1be 8f22 9d3d
00000310: b247 f9bd 8808 d8bc e9ba 4ebd 33ba 033d
00000320: 3d10 733e c145 b73c f7bf 3dbd 268f 09be
00000330: fba7 80bc dbfc fcbd 865f 45be 9096 53bd
00000340: ba7d c3bd ba55 e73d ff15 83bc d2c6 41be
00000350: 7e88 873e 7cdf 76be 5f71 82be 13e0 d0bd
00000360: 1ffa 433d 7b4e 0fbe 4d09 19be 5687 f5bd
00000370: 5837 6a3e 30bf ac3a 5222 313e f015 1fbe
00000380: 7ba9 95bd f5c9 e93d 299d a53d 194c 9fbe
00000390: ffeb ecbc 7d3b 083e dfdb 76be c2cd 2cbc
000003a0: 0d33 963d e353 653d 9b0d a5be f975 d23d
000003b0: c536 183e 6bd4 c63d 51d2 bebd ca26 883d
000003c0: 9664 a7bd 59d9 d4bd a75a b5bd b96f 133e
000003d0: 059d ef3d c669 393e 53ac 17bd 3d19 d73d
000003e0: 45c9 e03d 89d6 acbd f0bf 833d dc8a f0bd
000003f0: e62b 04bd 11b7 1fbe 97ac 00be 333e 26be
-0.16844444 -0.11714805 -0.12522048 -0.04837751 0.115244046 -0.039954748 0.010932341 -0.029693753
-0.06840674 0.27395037 -0.20673433 -0.09193654 0.03986839 0.038695335 0.172261 -0.19899516
0.15078808 -0.10468522 0.07706819 -0.21188627 -0.04640795 -0.10477505 0.10564812 -0.15164684
0.14629216 0.10002083 0.2408904 0.06558353 -0.24388781 -0.06822038 -0.047665242 -0.06253897
0.18493253 -0.118051365 0.014968598 -0.10723378 -0.098785415 0.19465372 -0.09318364 0.24519154
0.22057734 0.16259167 -0.10677352 0.0090534 -0.18411683 0.12729365 0.07288646 -0.0396838
0.12753093 -0.15562898 -0.20177919 0.019217016 -0.009557424 -0.22294436 -0.2076325 0.07309459
0.031305693 -0.20678727 -0.16478312 -0.14430717 -0.3836645 -0.1916619 0.16289532 0.051909026
-0.11235491 0.11343362 0.029222732 -0.28045756 0.05718165 0.03584346 -0.13745376 0.05604947
0.06487599 -0.11132681 0.089166164 -0.2777732 -0.10959309 -0.044442184 -0.22250642 0.032986417
-0.20436546 -0.11711952 0.21873103 0.15115042 0.010607603 0.02049385 0.019019064 0.20263897
-0.14655535 0.21024017 -0.16416937 -0.1378169 -0.04234583 0.048183594 0.11132132 0.15458164
0.16052388 0.215387 -0.12242621 0.1696193 -0.06618146 -0.04649708 0.034653444 -0.16612236
-0.05814568 -0.11496689 -0.11993909 -0.20046106 -0.1870134 0.1771683 -0.14704911 -0.06684465
0.23452695 -0.027954744 -0.0893575 -0.08258853 0.25838313 -0.04450019 -0.0029537003 0.06268208
0.012698065 -0.045635324 0.17335331 -0.10898456 0.22368234 0.091897324 0.1654579 0.03217356
0.09848871 -0.113247596 0.016036836 -0.09928201 -0.06267768 -0.04919266 0.026269501 -0.06290048
0.11589434 0.067117035 -0.09084663 0.1287187 0.3159782 0.022074878 0.06309916 0.11203622
-0.2006406 0.08317059 -0.054109294 0.40071833 -0.0438697 0.11824487 -0.27946365 -0.06841617
0.030287502 0.12244939 0.076021016 0.027419351 0.0060806163 0.04854226 0.02153075 0.17402226
-0.08829248 -0.017664758 0.085960165 -0.027172072 -0.013644465 0.11087261 0.06663999 -0.11687342
-0.027771937 -0.22915636 -0.13226937 -0.07344247 0.009592668 -0.09391868 0.06624561 -0.047565565
0.1872071 -0.27576125 0.025817964 -0.049673207 0.071861506 -0.17792052 -0.054541778 0.042528022
-0.31450874 0.084697425 -0.12741596 -0.66163397 -0.063141346 0.11129634 -0.0017947075 -0.10910946
0.041382127 0.0028079136 -0.40884617 0.07672607 -0.12171878 -0.026371256 -0.05047122 0.032159995
0.23736663 0.022372128 -0.04632565 -0.13433513 -0.0157051 -0.12352916 -0.1927472 -0.05165726
-0.09545465 0.11295648 -0.0160017 -0.189235 0.26471323 -0.2410869 -0.2547712 -0.10198989
0.047845956 -0.13994782 -0.14944954 -0.11988704 0.22872674 0.0013179537 0.17298248 -0.15535712
-0.073077165 0.11415473 0.080866165 -0.31112745 -0.028921125 0.13303943 -0.24107312 -0.010547103
0.07333956 0.055988204 -0.32236943 0.10276408 0.14864643 0.09708484 -0.093174584 0.066480234
-0.08173482 -0.10393018 -0.08855181 0.14398088 0.11699871 0.18106756 -0.037029576 0.10502861
0.10975889 -0.08439357 0.064330935 -0.11745235 -0.032268427 -0.15597178 -0.12565838 -0.16234665

encoder.2.bias f4 [25]
00000000: 0571 013d cf42 1b3e a26b 15bd 34aa 8fbd
00000010: f0bc 0d3e 2fa7 593e f43b b23a b625 943d
00000020: 3014 5b3d c4c8 c93d d15d 613d e731 383e
00000030: 1f2a 9a3d d0ff 2f3e 3dd3 a43d 684c 803d
00000040: ece3 3c3e 59a1 433e cfdf 04bd d823 74bb
00000050: deeb 173e 661b 153e a332 2abd 0408 b03d
00000060: 2f47 4d3e
0.031601924 0.15162204 -0.0364796 -0.070148855 0.13841605 0.21255182 0.001359819 0.07233755
0.05348605 0.09852746 0.05502111 0.17987786 0.07527565 0.17187428 0.08048103 0.06264573
0.1844632 0.19104518 -0.032440003 -0.003725281 0.1483607 0.14561233 -0.041552197 0.08595279
0.20046686

decoder.0.weight f4 [50, 25]
00000000: 3f64 393e ceff b83d 8b04 74bc 8763 99bb
00000010: 082b 0dbe c087 6cbe e47c 6e3e f678 b9bd
00000020: f7d1 633d c0dc 0f3e dde2 0fbe ab8f c93d
00000030: a9a5 a93c fe3c 14be 84ad 6bbe d390 0ebe
00000040: 2645 1d3d 73f0 e83b 1d0b 1e3e e102 27be
00000050: f0e3 6e3e 1a20 fabd cd96 eebb 7db8 0c3e
00000060: f99b cdbd ef31 273e c633 463e 4124 9b3d
00000070: a1d2 3bbe 371c 4fbe a843 6bbd 2d5d 903b
00000080: da0c 61be 2f63 ebbd b51b d8bd 24a8 bbbd
00000090: c0a7 ae3d 2c69 d93d 235d bebc 5dc6 0cbe
000000a0: 09bc 6c3d 31f1 bcbd 8bff 433e 8fc6 4abe
000000b0: 0cd8 ba3d 4db2 273e 618e 483b ea43 283e
000000c0: 8f57 88bb 4868 a23d d889 38be e44a 8cbd
000000d0: 6492 e5bd 9300 25be 1e90 f53c f13b 39bc
000000e0: 9c4e 9f3d c463 003d 3bb1 dc3d 1ad2 07be
000000f0: 1523 81bd 4391 883e 733e 8d3d 9f81 853e
00000100: 2847 263e 5988 82be 4b6c 8ebe 3d19 02be
00000110: 319c 573e d9c7 a8bd f41a e23d 4fde 5e3e
00000120: 6203 363e 88a6 663e 2d38 9abd 586e bc3d
00000130: 1f27 6d3e f988 323e 0e5e 16bd 5ab6 e53d
00000140: 459b 77be 7faf 6cbe 6b30 85bd 3696 0f3e
00000150: 0600 723d 96e2 bd3d f125 4f3e aa8e 5bbe
00000160: ed41 2d3e 65a5 be3d 115f 88be 9bcd 4abd
00000170: 9b30 10be ce1e 563d edfc 7fbd 82d2 48be
00000180: 6efd 153e efd2 a6bd 1412 063e c3ec f7bc
00000190: 8e22 54be b119 e6bd 8f8e 31be 7684 7abd
000001a0: cff9 9d3d 9aa3 913d 0b82 9c3d 7692 3cbe
000001b0: 4245 00be eeea 83bd 6074 703d f8da 08be
000001c0: 08d0 d73d 8df9 d5bd 33ca a53d 79c1 ae3e
000001d0: d114 803e f68f 2cbe dd23 48bd 808e e3bc
000001e0: 4db6 553e 2ce5 d53b 0db1 6bbd b24c 11bc
000001f0: 3370 713d fcdd 813e d48e 57be 3e67 a33d
00000200: 69a5 00be 1e0a c73d 8b9a 0bbe 06f0 113e
00000210: 6190 4bbe cb1e 86bd 064d 0b3d 34ae a9bc
00000220: adb9 ec3d 9b23 713b 379a 763c 213b 6c3d
00000230: 0786 143e 71d6 ffbd 9c57 9e3e 293c 92be
00000240: bb6c 283e 4efa 19bd b409 4dbd 6575 003d
00000250: 52fc f4bd fa90 4cbd 67fc aabe 7c32 1f3e
00000260: d810 15be 36e5 05bd 90fe 143c 3013 993d
00000270: 0a5d 45be 4d7f 9d3d cf74 59be 6ba0 de3d
00000280: bbf8 4ebe 1254 e4bd ea2f 863d 4c8b 913d
00000290: 7860 6ebe 3852 cd3d b1bd db3e 3428 9ebd
000002a0: 0720 28bd dee2 523e a61c 0dbe c74f c23d
000002b0: 8656 173b 5909 153e b1ac 5dbd 01fe 9e3d
000002c0: 2e97 9fbe feb2 c6bc 9bf5 13be 03fb 2a3e
000002d0: d736 e83d 7f7a 01be e036 173e 3e85 8bbd
000002e0: 259d 1abc 3cc1 37be 18ca febc 724c d63d
000002f0: fc69 74be d956 c8bd b2ac 263e e8ff 3a3e
00000300: 2cdd ae3d cd24 2c3e c758 c23d 9713 a7be
00000310: 9543 77bb 6f4c e03d 9a8f 82be 0016 073d
00000320: cb80 79be 4a68 523c cb6d 31be 7a7f 0b3e
00000330: 7064 c23d cbbe 933e f144 243e 64e1 7dbe
00000340: 0e02 2d3e 0374 d2ba b264 d6bc 14d2 8ebd
00000350: 2a66 b53d 849f 06be 594e 063e 9f0a 03be
00000360: fc4b 563e 8ecc 513e 2f0b e0bc a0d1 fa3c
00000370: ef6f 48be d9f8 a0bd f2d8 e0bb d02c a23d
00000380: 1ad1 0cbe 4f83 bb3d f53c dd3d ef9e 13be
00000390: a40f 733e 67e1 66be 545f 13be f61a 58bc
000003a0: 59cf da3d d55b 303d 2514 ce3d 2431 0abe
000003b0: 0f1f a2be 71cf b03d b1ea 933d eb28 5a3e
000003c0: d568 003d 35cd 87be f845 d33d be2f e0bc
000003d0: 4d52 8bbd 2fcd 183d 4349 2e3b 43ec 4d3d
000003e0: b7f0 403e 2c55 5f3e 523d 96bd 0502 833e
000003f0: fd74 4a3e a275 483d 02c1 743d 57e2 153d
0.18104647 0.09033166 -0.014893661 -0.004681054 -0.13785946 -0.2309866 0.2328983 -0.090562746
0.05562016 0.14049053 -0.14051385 0.098418556 0.020708876 -0.14476392 -0.2301541 -0.13922434
0.038396023 0.007108742 0.15433927 -0.16309692 0.23329139 -0.12213154 -0.0072811604 0.13742252
-0.10039515 0.16327642 0.19355687 0.07575274 -0.18342067 -0.20225607 -0.05743757 0.0044056387
-0.21977559 -0.11493527 -0.1055216 -0.0916293 0.085280895 0.10615763 -0.02323777 -0.13747545
0.05779651 -0.09225691 0.1914045 -0.19802307 0.09123239 0.1637661 0.0030602443 0.16432157
-0.0041608284 0.07930046 -0.18021333 -0.06850222 -0.112095624 -0.161135 0.029975947 -0.011305795
0.077786654 0.031345144 0.107759915 -0.13263741 -0.063055195 0.26673326 0.06896677 0.26075456
0.16238081 -0.2549465 -0.27816996 -0.1270494 0.21055676 -0.08241243 0.11040297 0.21764491
0.17774728 0.22524464 -0.07530246 0.09200734 0.23159455 0.17435063 -0.03671079 0.112164214
-0.24180324 -0.23113821 -0.065033756 0.14022145 0.059082054 0.092717335 0.20229317 -0.21441141
0.1691968 0.0930889 -0.2663503 -0.049512487 -0.14081042 0.05227547 -0.06249707 -0.19611552
0.14647457 -0.08145701 0.13092834 -0.030264264 -0.20716307 -0.11235369 -0.17339538 -0.06116148
0.07713663 0.07111283 0.07641991 -0.18415245 -0.1252642 -0.06441294 0.058704734 -0.1336478
0.10537726 -0.10447989 0.08095207 0.34131983 0.25015882 -0.16851792 -0.048862327 -0.02777791
0.20870323 0.0065275636 -0.057541896 -0.008868383 0.058944892 0.25364673 -0.21050578 0.07978676
-0.12563099 0.097187266 -0.13633172 0.14251718 -0.19879295 -0.06548842 0.034009002 -0.02071295
0.11558852 0.0036794904 0.015051416 0.057673577 0.14504252 -0.12492073 0.30926216 -0.28561524
0.16447727 -0.037592225 -0.05005808 0.031361956 -0.11962189 -0.049942948 -0.33395693 0.15546602
-0.14557207 -0.032689296 0.009093896 0.07474363 -0.19273773 0.07690296 -0.21235965 0.10870441
-0.2021207 -0.11148848 0.06552108 0.07106647 -0.23278987 0.100254476 0.4291816 -0.07722512
-0.04104617 0.20594355 -0.1378046 0.094878726 0.0023092343 0.14554347 -0.05411977 0.07763291
-0.31170028 -0.024255272 -0.1444916 0.16697316 0.11338585 -0.12644385 0.14767027 -0.06812523
-0.00943688 -0.17944807 -0.031102225 0.104637995 -0.23868555 -0.0978219 0.16276816 0.18261683
0.08538279 0.16810913 0.09489589 -0.32632133 -0.003772949 0.109520786 -0.25500184 0.032979965
-0.24365537 0.012842247 -0.17327039 0.13622847 0.09491813 0.288565 0.16041924 -0.24793011
0.16895315 -0.0016056303 -0.026171062 -0.06973663 0.08857377 -0.13146788 0.13115825 -0.1279702
0.20927423 0.20488188 -0.027349083 0.030617535 -0.1957395 -0.07859964 -0.0068617994 0.079187036
-0.13751641 0.091559045 0.10802642 -0.14416097 0.23736435 -0.22546922 -0.14391834 -0.013190022
0.1068408 0.043056328 0.10062436 -0.13495308 -0.3166432 0.08633316 0.07222498 0.21304671
0.031349976 -0.26523748 0.1031608 -0.027366515 -0.06802807 0.037305053 0.002659396 0.050274145
0.18841825 0.21809834 -0.07335915 0.25587478 0.1977119 0.04894031 0.05975438 0.036592808

decoder.0.bias f4 [50]
00000000: 08af 8ebd f0a9 15be e19d c3bd 3814 983d
00000010: 7208 9b3d 2028 12be bcfe 89bd 81ef a53d
00000020: d297 f4bd 49ec d2bc 69c2 9c3d 75e4 f03c
00000030: a432 4fbd cd04 efbd e89d 10be ae86 e43d
00000040: ac4b d83d 2f7c f8bd 1e66 a6bd c0fd 4abe
00000050: 5e5d 39be 7e9d e8bd a21d 023e da5a a1ba
00000060: b16a 283e 75ff 0abe 7088 713d 2479 c5bd
00000070: f37a 0fbe a185 51be cdd2 47be 632d b6bb
00000080: 7c88 f83d 6992 3c3e 71e8 fcbd fc64 3d3d
00000090: 6a45 11be 4f6c 4e3e 9569 2d3e 612e 32bc
000000a0: a22d f5bd c5d9 9f3d c2aa 1bbd 1228 97bd
000000b0: 0aab 243e 73f9 5e3d 52b4 233e a7bf 34be
000000c0: d635 1ebd 260f c3bd
-0.06966978 -0.14615607 -0.095515974 0.074257314 0.0756997 -0.14273119 -0.0673804 0.08102322
-0.1194302 -0.025747435 0.07654268 0.029405812 -0.050585404 -0.116708376 -0.14122736 0.111585006
0.10561308 -0.12133061 -0.08124946 -0.1982336 -0.18102023 -0.11358164 0.12706617 -0.0012310401
0.1644695 -0.13574012 0.058968008 -0.09642246 -0.14011745 -0.20461132 -0.19514008 -0.0055596097
0.12135407 0.18415226 -0.12349022 0.046238884 -0.14186636 0.20158504 0.16934808 -0.010875315
-0.119715944 0.07805208 -0.038004644 -0.0738069 0.16080871 0.054437112 0.15986755 -0.17651235
-0.03862556 -0.09524374

decoder.2.weight f4 [665, 50]
00000000: e0e1 233d f27d 443e 066e 44be bf38 2b3e
00000010: 54e5 07be 51f3 2c3d 1562 acbd 157e 513d
00000020: 3012 bdbe 42ee 4e3e 4e9e 0fbc c569 b5bd
00000030: 94fb 8dbd f9ea 0ebe 1c79 a53d 0f35 b13b
00000040: f48d 3fbd d69a 1b3c 86ba 9abd 1d19 afbd
00000050: fc3e 98bc 91bf 0d3e 1e01 5bbe fea7 6fbe
00000060: d14e 7ebc 7b3f 503e 88f7 62be 1834 2b3e
00000070: 300b 0f3e 7b86 b43e a0fc b73d 8dff c3bc
00000080: c0ac 273c a5f6 aabd 6c4d f9bc 8ca0 70be
00000090: d582 54bd 6a4a f63d dfe7 41be cc59 dcbe
000000a0: 0931 4a3c 1acb 05be f26f a93d c498 5cbd
000000b0: da5d a23e 3f35 383d cba1 b03c fb57 173e
000000c0: bf5a a33d 7af0 24bd a572 1cbb 9cfd c2bc
000000d0: 2035 b13d 228d f6bc f6da 303d ba02 3e3d
000000e0: e3c1 c73d 0e84 b03d 1354 30bd 101e 423d
000000f0: 3b8d bebd 55a0 1dbe 0ac1 cc3c 3acc b1bb
00000100: 2144 30bd 0717 463d 1bde e3bb 34b4 b03d
00000110: 1680 8bbd 72aa d83d fa7c a73d 7162 c9bd
00000120: afac 943c e5e2 1e3d 4940 003a 2e97 febd
00000130: 6c51 ffbc b12e 5c3d b7cb 083e 7aee f3bc
00000140: c8a2 dcbd d088 bbbd fed1 6bbd 1b56 a13d
00000150: d7b0 9d3c 1d17 de3b 1d44 653d dd02 35be
00000160: e223 63bd 620e fe3d c5bb b0bd 4772 21be
00000170: 229e 663c b729 10bd e53b 233d d05e f73d
00000180: 2e4b 82bd 445d f83d 4113 203e 726c e1bc
00000190: 9265 b83d 3fe8 623c d9d7 1dbe dd6f aabe
000001a0: 7825 923d 241b 6c3e 85e0 0dbd 406c e53d
000001b0: 8288 1c3e 4593 4d3e 0677 96be 0669 b2bd
000001c0: e080 e2bd 5963 0abe fe9c 353e 7986 90bd
000001d0: 16a7 91be bc60 313d 2d96 113e e6f5 03be
000001e0: 7ea0 1abe 00c9 0ebd e7f5 52bd 99fa 5cbe
000001f0: 4b7c 983c c62b 89bc bce8 7f3e bc8d 44bd
00000200: 8e68 023e 6fea 8f3d fa5e 90bd c14e f2bb
00000210: a79a 5d3d 4ef1 08be f196 81bd 1cb4 8cbe
00000220: ece1 af3c 3003 243d 8782 cabd c9b2 8b3e
00000230: 4bec 3d3d 3fb5 55be 91ac e7bd 0852 ae3d
00000240: 7c7c efbd 78c8 3abd 46f0 2e3d 8741 2a3d
00000250: 5813 a93d 6cd6 473e 38cb 9e3d 3f7d 2c3e
00000260: 2b4c 7c3e d303 023c f163 3d3e 1789 7cbe
00000270: 0f77 b03e 5a38 23be b88f 933e 0ebc bdbd
00000280: a7d4 f83a b4fd ca3d defd b53c 1ce6 7c3e
00000290: 6e07 c13d f899 373d 788d 31be 7549 d73a
000002a0: d4c9 8cbe 4e41 333e 3235 183e c499 03be
000002b0: 64b8 8cbd 1e9d 20be 2e87 ce3d c7aa a2bc
000002c0: efd4 61be 9196 d1bd 0d49 dbbc 82be 623e
000002d0: 5e04 0fbc b6d7 303d 66d6 7abc 2a59 81be
000002e0: 8bd1 5b3e 1662 1cbd ed5b 5c3d 9cd4 993c
000002f0: 2689 3c3d 2c4f 3fbe 0522 a0bd 4986 88bb
00000300: a16e 833d daec d53c 96ec 81bd 474a 0ebd
00000310: 325a 903d 4fef 99bd a824 f6bd efad 3d3e
00000320: 5213 0dbb ab77 f0bd 08eb fb3d 2831 82be
00000330: 9cd5 673d 7e34 2fbe c2fd 42bd bd03 b43c
00000340: dfb2 b0bd 47ac d63d a688 453e 4a3f f43c
00000350: f590 a9bd 1ace 7cbe d4ef 8c3e dffe 69bc
00000360: 4780 10be 69ef 873d 0d8a 613d e0b4 753e
00000370: b0d7 26be c6ac 9cbe 2b89 03be edbd 743e
00000380: be6a a33d bd57 4e3d f972 983d b822 763c
00000390: 807f 7a3c 5ec3 8abd 1b3e 8a3d 33d6 df3c
000003a0: a018 0cbe 1d9f 88bc 3fa8 01be fe16 0c3e
000003b0: de37 0bbd 0173 01be 3392 42bd a178 55be
000003c0: 516e 733e 595f a4bc c320 2ebe 40ec babd
000003d0: 7207 bd3d 48e1 e3bd 460c 86bd 19a0 74bd
000003e0: c088 afbd 6210 f2bd 57a5 ffbc 895f c53d
000003f0: 6070 473d 444a 4ebe d7ba c93d 916a 903e
0.040010333 0.1918867 -0.19182596 0.16720866 -0.13271075 0.042224232 -0.08417145 0.05114563
-0.36927938 0.20208076 -0.00876577 -0.088580646 -0.0693275 -0.13956822 0.080797404 0.0054079364
-0.046766236 0.009497365 -0.07555108 -0.08549712 -0.01858472 0.13842608 -0.21387145 -0.23403928
-0.015521721 0.20336716 -0.22164738 0.16719091 0.13969111 0.3525885 0.08983731 -0.023925567
0.010234058 -0.08347825 -0.030432425 -0.23498744 -0.051882584 0.12025912 -0.18936108 -0.4303726
0.012340792 -0.13065758 0.08273305 -0.053856626 0.31712228 0.044972654 0.021561524 0.14779656
0.07976293 -0.0402684 -0.0023872044 -0.023802571 0.08652711 -0.030096594 0.043177567 0.04638932
0.09753778 0.086189374 -0.04304893 0.04739195 -0.09304281 -0.15393193 0.024994392 -0.005425957
-0.043033723 0.048361804 -0.0069539673 0.08628121 -0.0681154 0.10579385 0.08178134 -0.09833229
0.018148748 0.038790602 0.0004892392 -0.12431179 -0.031166755 0.053755466 0.13358961 -0.0297768
-0.107732356 -0.09156954 -0.05757331 0.078777514 0.019249363 0.0067776577 0.05597316 -0.17676874
-0.055454142 0.12405087 -0.08629564 -0.1576625 0.014075788 -0.035196032 0.03985204 0.12078631
-0.06361996 0.12127164 0.15632345 -0.027517531 0.09003748 0.013849317 -0.1541437 -0.3328847
0.07136053 0.23057228 -0.034637947 0.11202288 0.15286449 0.2007571 -0.29387683 -0.08711438
-0.11059737 -0.1351446 0.17735669 -0.070568986 -0.2844779 0.043305144 0.14217444 -0.12886772
-0.15100285 -0.034859657 -0.051504042 -0.2157997 0.018613955 -0.016744506 0.24991125 -0.04798673
0.12735197 0.070271365 -0.07049365 -0.007394642 0.054102566 -0.133733 -0.06327618 -0.27481163
0.021470033 0.040042102 -0.09888177 0.2728484 0.046367925 -0.20869921 -0.11312211 0.0851174
-0.116936654 -0.04560134 0.04270961 0.041566398 0.08255643 0.19515389 0.07753605 0.16844653
0.24638431 0.007935482 0.18495156 -0.2466167 0.34465834 -0.15939465 0.28820586 -0.09264384
0.0018984274 0.09911671 0.02221578 0.24697155 0.09425245 0.04482457 -0.17339122 0.001642509
-0.27497733 0.1750538 0.14864042 -0.12851626 -0.06871107 -0.15684935 0.10084377 -0.019856824
-0.22053884 -0.102337964 -0.026768232 0.22142985 -0.008729069 0.043174468 -0.015309906 -0.2526334
0.21466653 -0.03817948 0.053798605 0.018778138 0.046029232 -0.18682545 -0.07818989 -0.0041663987
0.06417585 0.026113916 -0.06343953 -0.034738805 0.070484534 -0.075163476 -0.120187104 0.18523382
-0.0021526408 -0.11741575 0.12300688 -0.25428128 0.0566002 -0.17109868 -0.047605284 0.021974439
-0.08627867 0.10482078 0.19290408 0.029815335 -0.082796015 -0.24687997 0.27526724 -0.014281957
-0.14111434 0.06637461 0.055063296 0.2399478 -0.16293216 -0.30600566 -0.12845294 0.23900576
0.07979344 0.050376642 0.07443804 0.015022926 0.015289187 -0.067755446 0.06750127 0.027323818
-0.13681269 -0.016677434 -0.12661837 0.13680646 -0.033988826 -0.12641527 -0.047502708 -0.20846798
0.23772551 -0.020064997 -0.17004685 -0.09127092 0.09229936 -0.11126953 -0.0654531 -0.059722994
-0.08571005 -0.11819531 -0.03120677 0.096373625 0.048691154 -0.20145518 0.0985009 0.28206304

decoder.2.bias f4 [665]
00000000: 46ed 9eba 24e3 c63d 901e e93d 369b 7f3d
00000010: cb5b 8b3d 498a 68bd c044 ef3d 904a f2bc
00000020: 3250 80bd 221f bdbb 929c a9bd 8386 863d
00000030: 76c1 acbd b4c0 393e 3dfb 053e 7802 6f3d
00000040: 2059 dc3c 975c 61bd cf1b 88bd 34d8 1b3e
00000050: 5a6e debb e140 82bd af27 fcbd 6dc3 ea3d
00000060: 1566 e53d 2fc3 f63d 4d3b c43c e9d5 8f3d
00000070: 5628 c3bc 35e5 d23d d1e1 9f3d 7bcd 313d
00000080: e3f2 33bd c5e0 a83d 916f 643d 324c 7a3c
00000090: ff2b 40bd 0acc a1bd f9f7 b1bd c797 e5bc
000000a0: 4ae0 15bd b68c 8bbd 5704 f6bc 7159 ef3c
000000b0: 7c02 363d de03 643e 2890 dcbd 7b44 0c3e
000000c0: 5a6a ddbc 261e 4e3d d05d 32be 31e7 4d3d
000000d0: fbee 19be 7719 8fbd 8317 973d 65d0 8e3d
000000e0: 59f2 21b8 cd7b b8bd 7fe8 fbbd 9a0e eebd
000000f0: b232 08be 6c8c c5bd 736f 2ebe e22d 40bd
00000100: 2de0 37be dd49 58bd 496e 71bd 3cbd d7bd
00000110: 7650 2dbe a9b4 30be 9d9e 11be 307f 8cbd
00000120: eba2 cbbd 9936 80be 3e52 8bbe ae86 06be
00000130: c336 2b3d 0cd9 37bd 58cf 38be dcf7 f1bd
00000140: ea11 0fbc 67dd 52be 55ac b53d cb42 bebc
00000150: fea4 0ebe d1a1 e33d 2391 1c3d 7a50 e0bd
00000160: 49da dc3d f410 fabd 368b 993d 3e5d debd
00000170: adcb 543c e883 c53d 8b2c b7bd fcfb fbbd
00000180: b0a6 0dbb 5d19 e3bd 04c4 a33d 24e6 38be
00000190: 84bc 1abe 4489 4fbd 4794 3d3d f1fd 963b
000001a0: 4aed ecbd 5448 433d 577c 09be e513 023c
000001b0: 8d47 c33d bba8 cbbc 10f8 e0bd d5ff dc3d
000001c0: d740 abba e3b7 8fbc cd2a df3d 47c5 0b3d
000001d0: 1915 36bd b85c bc3d bbb0 19be 7b89 d1bb
000001e0: cc4d 33bd f470 4dbc 9c92 aabd 96c8 00be
000001f0: 7668 97bb 1373 543d 6e98 67bd 8a36 45bb
00000200: a87c 293d b155 9dbd b343 a63d c8e5 383d
00000210: 0371 343c 3c25 e4bd d6d9 87bd 004d 563d
00000220: 3d72 d33d c8fe e43c 0a2c 16be afe6 96bd
00000230: 2eda 0ebe 40ca 45bd 904d fe3d 917d 7b3d
00000240: bbf1 8d3d c07f 803d fdaa bc3d 12f3 ed3c
00000250: e0f2 043e cf09 aa3d 053f 113e 9104 983c
00000260: 3ba8 5ebd eb62 0a3e bc60 77bd 3d69 fc3c
00000270: f5b1 cfbd 9573 183d a3d9 d7bc d97e 2a3e
00000280: 8d6f 493e 4ddf 2f3e b98f 22bd 89aa 08bd
00000290: 7343 a13c 73b2 cf3d b505 cf3d 48ae d23b
000002a0: 9edb 4b3d 3cb9 923d 2486 573a ab9e e4bd
000002b0: 7eb1 ca3c 685c a0bd d448 24bd 7a99 1f3d
000002c0: c171 353d 8209 c83d 84fd af3d 2eb7 063e
000002d0: 0a24 8fbc 2d52 ddbd a2ea c73c 7e6b 9dbd
000002e0: 8131 ce3c b47c b0bb de98 363d 1b80 0ebe
000002f0: 264d b9bc bebc 823d 7dbc 8c3d 9a49 2fbe
00000300: 7f55 d0bc 59a5 613d 1b5b 30be 682a 4abd
00000310: a80b f23d 68df 29be db05 223d d6a8 513c
00000320: 1453 78bd 9916 97bd 5f6e 07be 9ed2 0fbe
00000330: 33df 093d 481d 5ebe 6d5b 51bd 3d33 0fbd
00000340: a3e3 1abe 33bf 24be bec0 0dbe f399 20be
00000350: 0c52 043d bc7b 06be d91b 1bbe d97a 17be
00000360: 65c5 a23c 2d32 aebd 8c0c 243d e12e 35be
00000370: f6e1 2dbd df71 3cbe dda8 5cbd 8bc8 633c
00000380: f1c9 f5bd 8694 c7bd 62d6 36be 0ef1 e23c
00000390: 6592 473d 17e0 29bd 40a7 c63d 7004 dd3d
000003a0: 7b20 7cbd 56d5 d73d 5411 92bd 0dee f63d
000003b0: ef02 f9bd 0c74 83bc eec5 5e3d b924 13be
000003c0: f471 ba3d 71ed 23be 25dd 563d b976 acbd
000003d0: 7946 aa3d d73e b4bc 8ab5 80bd 5e5d d9bc
000003e0: 0c41 bf3d c293 0dbd c766 38bd 5c67 87bd
000003f0: 25ce 78be 3586 c83d 3f65 2dbe 8507 57bd
-0.0012125156 0.097112924 0.113827825 0.06240388 0.068046175 -0.056772504 0.11683035 -0.02957657
-0.06265296 -0.0057715336 -0.082818165 0.06568625 -0.08435337 0.18139917 0.13084121 0.058351964
0.026897967 -0.05501994 -0.06645929 0.15219194 -0.0067880573 -0.06360031 -0.123122565 0.11463056
0.11201111 0.12048947 0.023954058 0.07023222 -0.023822945 0.10297624 0.07806743 0.043408852
-0.043932807 0.082459964 0.05577046 0.015276955 -0.046916958 -0.079002455 -0.08689875 -0.028026475
-0.03659085 -0.06813948 -0.030031366 0.029217454 0.044435963 0.222671 -0.10769683 0.13697998
-0.027028251 0.05032172 -0.17418599 0.05026931 -0.1503257 -0.06987279 0.073775314 0.06973342
-3.8611095e-05 -0.09007988 -0.123002045 -0.11623879 -0.13300589 -0.09645924 -0.17034702 -0.046918757
-0.1795661 -0.052804817 -0.058943067 -0.105341405 -0.16925225 -0.17256416 -0.14220662 -0.068601966
-0.099431835 -0.25041655 -0.27211183 -0.13137314 0.04180027 -0.044884726 -0.18047845 -0.118148535
-0.008732298 -0.20592271 0.0887076 -0.023225209 -0.13930127 0.111148484 0.03822435 -0.1095285
0.10783822 -0.12210265 0.074972555 -0.10857628 0.012988013 0.096443 -0.08944043 -0.123039216
-0.0021614246 -0.11088822 0.079963714 -0.18056542 -0.15110976 -0.050668016 0.046283986 0.004607909
-0.11568697 0.0476764 -0.13426338 0.007939314 0.095351316 -0.02486073 -0.10984814 0.107909836
-0.0013065588 -0.017543739 0.108968355 0.034123685 -0.044453714 0.09197372 -0.15008824 -0.006394563
-0.043775365 -0.012539137 -0.08328745 -0.12576517 -0.004620607 0.051867556 -0.056541853 -0.0030092322
0.041378647 -0.0768236 0.08118381 0.04514101 0.011013272 -0.111399144 -0.06633346 0.052319527
0.103245236 0.02795352 -0.14665237 -0.07368218 -0.13950416 -0.048288584 0.124171376 0.061399046
0.06930872 0.062743664 0.09212301 0.029046569 0.12983274 0.08302652 0.14184196 0.018556865
-0.054359656 0.13514297 -0.060394987 0.0308119 -0.101413645 0.037219603 -0.026348894 0.16649951
0.1967146 0.17175026 -0.039687846 -0.03336576 0.019685483 0.10141458 0.101085104 0.0064294674
0.04976999 0.07164237 0.00082215876 -0.11163076 0.024742838 -0.07830125 -0.040108517 0.038964726
0.044297937 0.097674385 0.08593276 0.13155815 -0.01747324 -0.108066894 0.024403874 -0.07686518
0.02517009 -0.0053859595 0.04457938 -0.13916056 -0.022619795 0.06383656 0.06871889 -0.1711792
-0.025431393 0.05508933 -0.17222254 -0.049356848 0.118186295 -0.16589129 0.039556365 0.012796601
-0.060626104 -0.07377357 -0.13225697 -0.14045188 0.033660125 -0.21690857 -0.05111258 -0.034960974
-0.15125899 -0.16088562 -0.13843057 -0.15683727 0.03230481 -0.13133138 -0.15147342 -0.14792956
0.019869516 -0.08505664 0.040051028 -0.17693664 -0.04245182 -0.18402813 -0.053871978 0.013902794
-0.12001408 -0.097451255 -0.17855218 0.027702834 0.048723597 -0.041473474 0.09699869 0.10791862
-0.061554413 0.105387375 -0.07132211 0.12057123 -0.12158763 -0.016046546 0.05438798 -0.14369477
0.09103766 -0.16008545 0.052456994 -0.08421082 0.08314223 -0.02200262 -0.06284626 -0.026533779
0.093385786 -0.03456474 -0.04501989 -0.06611511 -0.24297388 0.09791223 -0.16933154 -0.052497406
