deepwatch/ai/autoencoder-mf/data/autoencoder_model.pth (torch, 191155 bytes, 8 tensors)

encoder.0.weight f4 [50, 440]
0	0xbe5abe4c	-0.21361655
1	0x3c32b6e7	0.010907865
2	0x3c8d2781	0.017230751
3	0xbd922a2e	-0.071369514
4	0x3caa3e77	0.020781739
5	0xbdddf07c	-0.108368844
6	0xbd5ec5a9	-0.054387722
7	0x3da016de	0.078168616
8	0xbe75b200	-0.23993683
9	0x3e1aaed8	0.1510576
10	0xbd24c54f	-0.04022723
11	0x3bfc8fba	0.007707563
12	0x3cf6f4a9	0.03014596
13	0x3d30a289	0.043123756
14	0xbb0a6f89	-0.002112361
15	0xbb812eb5	-0.0039423355
16	0x3d164ca1	0.036694173
17	0x3d081045	0.03321864
18	0x3d0aff56	0.033934914
19	0xbd00cfab	-0.031448048
20	0xbba6b545	-0.005087527
21	0x3b8481dd	0.004043801
22	0xbe13f783	-0.14449887
23	0x3dcaa5a4	0.09894875
24	0x3856ef2e	5.124433e-05
25	0x3d42b169	0.047532473
26	0x3d3fb997	0.04680785
27	0x3d106962	0.03525675
28	0xbe5a0e01	-0.21294405
29	0xbca5739f	-0.020196734
30	0x3e04a075	0.12951834
31	0x3c25b9e4	0.010115121
32	0xbc9ddacf	-0.019269375
33	0xbc154936	-0.009111693
34	0xbc954c74	-0.018224932
35	0xbc16d8d6	-0.009206971
36	0x3da118f6	0.07866089
37	0x3c16d18a	0.009205231
38	0x3cb4ccbb	0.02207028
39	0xbd3a3b11	-0.045466486
40	0xbc10507b	-0.008808251
41	0xbce73be1	-0.028226795
42	0x3d2f3d2a	0.04278294
43	0xbc7263a1	-0.014794261
44	0x3ae27dc6	0.0017279915
45	0xbc669fe1	-0.014076204
46	0xbc8b3391	-0.016992362
47	0x3d1d5296	0.03840884
48	0xbc78f2ba	-0.015194589
49	0xbc70f86f	-0.014707669
50	0x3c406efb	0.01174521
51	0xbcf35787	-0.029704822
52	0x3a00f141	0.0004918762
53	0x3c132585	0.008981113
54	0xbda5831e	-0.08081649
55	0x3e21a287	0.15784656
56	0x3cfbdf38	0.030746087
57	0xbd38b17a	-0.04509113
58	0xbd22e1b8	-0.039766043
59	0xbd8489f4	-0.06471625
60	0x3cf95e93	0.030440604
61	0xbd3fe513	-0.04684932
62	0x3cef82de	0.029237207
63	0xbcd9ef94	-0.026603498
64	0x3d0f3072	0.03495831
65	0x3cf2ac18	0.029623076
66	0x3b8cd99e	0.004298403
67	0x3cde5906	0.027142059
68	0x3e281323	0.1641355
69	0xbc7e35f2	-0.015515791
70	0xba4d6407	-0.00078350346
71	0xbbc31e24	-0.005954521
72	0x3cdbaf83	0.026817089
73	0xbd9d3f31	-0.076780684
74	0x3e7460e2	0.23865083
75	0xbd18b2dd	-0.037279952
76	0x3d33719e	0.043809526
77	0x3e09976b	0.13436668
78	0x3d194543	0.03741957
79	0x3e286fb2	0.16448858
80	0xbc8e9b21	-0.017407956
81	0x3d7831cd	0.06059437
82	0x3cfea2b0	0.031083435
83	0x3be6db85	0.0070452117
84	0xba9e25ed	-0.0012065746
85	0x3c4d1f36	0.012519648
86	0xbd0cec4b	-0.034405034
87	0x3cb1a0df	0.021683155
88	0xbcc27c9c	-0.023741059
89	0x3e2c7382	0.16840938
90	0x3cde856d	0.027163232
91	0xbd32c6a5	-0.043646473
92	0xbc5d9567	-0.01352439
93	0x3e8424e2	0.2580939
94	0x3dd31928	0.103075325
95	0xbdf714ed	-0.12064538
96	0x3dcc52f4	0.099767596
97	0xbd94d4dc	-0.07267162
98	0xbd359c61	-0.044338588
99	0xbbcff595	-0.0063464143
100	0x3b05443a	0.0020334856
101	0xbb61b267	-0.0034438611
102	0xbce372da	-0.027764726
103	0x3d25c8de	0.040474765
104	0xbcc89c15	-0.024488488
105	0xbba1046d	-0.0049138577
106	0xbd42d0d0	-0.04756242
107	0x3cd80ad0	0.026372343
108	0x3cb6cc5f	0.022314249
109	0x3d1ee863	0.03879584
110	0xbc9a6690	-0.018847734
111	0xbdc4a986	-0.096026465
112	0xbb790da9	-0.0038002527
113	0xbd1809f7	-0.03711888
114	0xba2db2d3	-0.0006626073
115	0xbe133815	-0.14376862
116	0x3bc89e01	0.006122351
117	0x3e0aa77d	0.13540454
118	0x3cf389eb	0.02972885
119	0xbd42f230	-0.04759425
120	0x3d428eee	0.04749959
121	0x3d2c982d	0.042137314
122	0xbbf63f6b	-0.007514884
123	0xbdf61cde	-0.12017225
124	0x3ddee0d0	0.10882723
125	0x3c1e7a00	0.009672642
126	0xbb969805	-0.004595759
127	0xbd144293	-0.036196303
128	0x384b2ed1	4.8442573e-05
129	0xbd0510d1	-0.03248674
130	0xbd03b4c7	-0.032154825
131	0xbd40707a	-0.046982266
132	0x3d2d94c4	0.042378202
133	0x3be7ea41	0.007077486
134	0xba6309ef	-0.0008660843
135	0xbca55aa1	-0.020184817
136	0x3c81dc7a	0.015852202
137	0x3c332d27	0.010936058
138	0xbc2ba653	-0.0104766665
139	0x3c50124f	0.012699678
140	0x3ba3c2cc	0.004997587
141	0xbcb370d0	-0.02190438
142	0x3db19368	0.08670694
143	0x3d82428b	0.06360348
144	0xbcd3f64e	-0.025874283
145	0xbc92563c	-0.017863385
146	0xbd24edf9	-0.04026601
147	0x3e06eab7	0.13175474
148	0x3cf25591	0.029581817
149	0x3ce8bf30	0.028411478
150	0x3c8aff7f	0.016967533
151	0xbc7340d5	-0.014847
152	0xbc43d622	-0.011952909
153	0xbc38cf63	-0.011279914
154	0x3cce69a2	0.025196854
155	0xbc9a1302	-0.018807892
156	0x3cfe7c57	0.03106515
157	0xbcc5f856	-0.024166267
158	0x3cb937d3	0.022609627
159	0xbc704140	-0.014663994
160	0xbc92188c	-0.01783397
161	0x3e1090e4	0.14117771
162	0x3d3b2905	0.045693416
163	0x3a31b70a	0.0006779289
164	0xbd371095	-0.04469355
165	0xbd6fce5b	-0.058546405
166	0xbd0c1bf6	-0.034206353
167	0xbd9cd6cb	-0.07658156
168	0xbcedf330	-0.029046625
169	0xbcec31ed	-0.0288324
170	0x3c327322	0.010891708
171	0x3d10a597	0.03531417
172	0xbbfa71ec	-0.007642975
173	0xbcd992e9	-0.02655931
174	0xbc261497	-0.010136745
175	0x3d0dd22d	0.034624267
176	0x3e01c95a	0.12674466
177	0xbd217200	-0.03941536
178	0xbe48f1a5	-0.1962343
179	0x3e1793b4	0.14802438
180	0x3dcd8554	0.10035196
181	0x3d2789ec	0.040903017
182	0x3db3107c	0.087433785
183	0x3da7b022	0.081878915
184	0xbdeef933	-0.11668625
185	0xbd2789b5	-0.040902812
186	0x3ab2f54e	0.0013653429
187	0xbbd59167	-0.0065175775
188	0xbc7294da	-0.014805997
189	0xbc9221fc	-0.01783847
190	0x3d041c65	0.03225364
191	0xbb826dc8	-0.003980372
192	0x3c9176ff	0.017756937
193	0xbd3830c2	-0.044968374
194	0x3d241fff	0.040069576
195	0x3c6fec3f	0.014643728
196	0xbd013e53	-0.031553578
197	0x3bc73730	0.006079577
198	0x3dac6230	0.08417165
199	0xbc9ca392	-0.019120965
200	0xbd27b0cd	-0.040940095
201	0xbce376f3	-0.02776668
202	0xbd27dd37	-0.04098245
203	0x3d5aae94	0.053389147
204	0xbdd62319	-0.10455913
205	0xbdbc360f	-0.09189998
206	0x3e25df86	0.16198549
207	0x3d2ef68b	0.04271559
208	0xbd05336a	-0.032519735
209	0xbd144901	-0.036202434
210	0x3ce7b17a	0.02828287
211	0x3d3e2c81	0.04642916
212	0x3d6346e4	0.05548753
213	0xbb93fae1	-0.004515991
214	0xbcaf09d8	-0.021366999
215	0xbcce8ec3	-0.025214558
216	0x3ce4d5fe	0.02793407
217	0x3d3d6a2d	0.046243835
218	0x3cfd2cba	0.030905116
219	0x3cfb134f	0.030648855
220	0x3bbe2507	0.005802754
221	0x3d1da252	0.03848488
222	0xbc8ed5e3	-0.017435974
223	0x3d08f5c3	0.0334375
224	0xbc0d35ea	-0.008618811
225	0xbc251728	-0.010076322
226	0xbd3fac47	-0.046795156
227	0xbc9e3504	-0.01931239
228	0x3bbbf841	0.0057363813
229	0xbc859d04	-0.016310222
230	0xbd6a60c5	-0.057221193
231	0x3d83ac80	0.06429386
232	0x3d15189f	0.036400434
233	0x3d0cf446	0.034412645
234	0xbd32e943	-0.043679487
235	0x3cff47c0	0.031162143
236	0xb9f65ce1	-0.00046989977
237	0xbcb2ac81	-0.021810772
238	0x3cfc29cd	0.03078165
239	0x3c140ffa	0.009037012
240	0x3c0f2956	0.008737883
241	0xbc7a634f	-0.015282466
242	0x3bbb1649	0.0057094437
243	0x3d0287ae	0.031867675
244	0x3e118d72	0.14214113
245	0xbb28ce5b	-0.0025757763
246	0xbccd957d	-0.025095696
247	0xbc1b7532	-0.009488391
248	0xbcd70f2b	-0.02625235
249	0x3e1431ab	0.14472072
250	0x3ca17d45	0.019713053
251	0x3d2d444d	0.042301465
252	0x3d03c342	0.032168634
253	0x3dff27ab	0.12458738
254	0xbce15999	-0.027508544
255	0xbd2421da	-0.040071346

encoder.0.bias f4 [50]
0	0x3d8651a5	0.06558541
1	0xbe1c8671	-0.1528566
2	0x3c4f463c	0.0126510225
3	0xbe501c1f	-0.20323227
4	0xbe280157	-0.16406761
5	0xbe0ccd98	-0.13750303
6	0x3cff134b	0.03113713
7	0xbda941be	-0.082644925
8	0x3caf40d3	0.021393215
9	0xbe6e3651	-0.23262908
10	0x3e006616	0.12538943
11	0x3c81e08d	0.015854144
12	0x3da8fd93	0.082514904
13	0xbdc4f797	-0.096175365
14	0xbd5abb5c	-0.053401336
15	0x3e790065	0.24316557
16	0x3ce412b8	0.027840957
17	0x3e1f2a57	0.15543495
18	0xbd4f0cd5	-0.050549347
19	0xbdfe1241	-0.124058254
20	0xbbb7468a	-0.0055931257
21	0x3e2f90fe	0.17145154
22	0xbea26235	-0.3171555
23	0xbd1bd03b	-0.03804038
24	0xbdf75e21	-0.120785005
25	0xbd850dff	-0.0649681
26	0x3da2b61f	0.07944893
27	0xbc51a64e	-0.012795998
28	0x3c33a1b3	0.010963845
29	0x3d3f9518	0.046773046
30	0x3e5e359a	0.21700135
31	0x3e620b6b	0.22074668
32	0x3dde3ba3	0.108512186
33	0xbca9cae6	-0.020726632
34	0x3ddb6a8c	0.107136816
35	0x3d1c100d	0.038101245
36	0xbe44a7a0	-0.19204569
37	0x3e9dd8b8	0.30829406
38	0xbd8e82b7	-0.06958526
39	0x3d8567e4	0.06513956
40	0x3e681f71	0.22668244
41	0xbe210e35	-0.15728076
42	0xbdf0b213	-0.11752715
43	0x3d0f1fc7	0.034942415
44	0xbd04080b	-0.032234233
45	0xbdd08df4	-0.101833254
46	0x3cb5b71f	0.022182046
47	0x3e317020	0.17327929
48	0x3db8e439	0.09027905
49	0xbbdbc4ce	-0.0067068106

encoder.2.weight f4 [25, 50]
0	0x3ea90999	0.33015135
1	0xbeaeca91	-0.3413892
2	0xbda691f5	-0.08133308
3	0xbe289bd1	-0.16465689
4	0x3e2553c0	0.1614523
5	0xbdeb1e7e	-0.11480425
6	0x3e2a8bb3	0.16654854
7	0x3e061acb	0.13096158
8	0xbe9574b3	-0.29190597
9	0xbeaaa411	-0.33328298
10	0x3ec66067	0.38745424
11	0xbd485967	-0.048913386
12	0x3e4ad2dd	0.19807
13	0x3d2dcc2a	0.042431034
14	0xbda6508d	-0.081208326
15	0x3e828420	0.25491428
16	0x3ebf1723	0.3732234
17	0xbdd7329b	-0.10507699
18	0xbec3887e	-0.38190073
19	0xbeb29306	-0.34877795
20	0x3c2394d5	0.009984215
21	0xbe45bfd2	-0.19311455
22	0xbe89d01f	-0.26916596
23	0xbeecf692	-0.46281868
24	0xbd33dab6	-0.04390975
25	0xbd67dcf7	-0.056607213
26	0xbc17e2d9	-0.009270393
27	0x3f043475	0.51642543
28	0x3e87828b	0.26466784
29	0x3cb4eda5	0.022085974
30	0x3dd6ccfc	0.104883164
31	0xbdbd3e48	-0.09240395
32	0x3e627f05	0.22118767
33	0x3e07879d	0.13235326
34	0x3dd962fc	0.10614583
35	0xbd7c0ebe	-0.061537497
36	0xbece10ac	-0.40247095
37	0xbe1a6340	-0.15076923
38	0x3ded1784	0.11576751
39	0x3e6ccc8e	0.23124906
40	0x3e324f64	0.17413098
41	0xbe62f9b3	-0.22165565
42	0xbe07059a	-0.1318573
43	0xba82fa38	-0.0009992784
44	0x3e545acd	0.20737763
45	0xbe8145c7	-0.25248548
46	0xbdbac6a2	-0.091199175
47	0x3e6b044c	0.22950858
48	0x3e3aa202	0.18225864
49	0xbe46ae51	-0.19402434
50	0xbdb59db6	-0.088679716
51	0xbea3a45d	-0.31961337
52	0xbcd0b925	-0.025478909
53	0xbe810690	-0.2520032
54	0x3da364d0	0.07978213
55	0x3d9983ac	0.074958175
56	0xbd870157	-0.065920524
57	0x3dbf1c1f	0.093315355
58	0x3c8ed629	0.017436104
59	0xbeda7ecd	-0.42674866
60	0xbe1d99f0	-0.15390754
61	0x3eb35ce2	0.350318
62	0x3e8e219a	0.2776001
63	0xbeb14d27	-0.34629175
64	0xbe9e989f	-0.30975816
65	0x3ec7d2cd	0.39028016
66	0xbe95cff0	-0.29260206
67	0x3e5e9efa	0.21740332
68	0x3e957e54	0.29197943
69	0xbdda9255	-0.10672442
70	0xbdfa18ba	-0.122117475
71	0x3dae0a6a	0.0849808
72	0xbea84507	-0.32865164
73	0x3e92eb65	0.28695217
74	0x3d416211	0.047212664
75	0xbe06bd4f	-0.13158153
76	0x3ea97484	0.33096707
77	0x3e014935	0.12625583
78	0x3e497f16	0.19677386
79	0xbe54e5b1	-0.20790745
80	0xbe8277b3	-0.25481948
81	0x3e2b654d	0.16737862
82	0xbe064191	-0.13110949
83	0x3ec33670	0.3812747
84	0xbe8d88ef	-0.27643535
85	0xbe807818	-0.25091624
86	0xbe0248e7	-0.12723123
87	0x3e8310b7	0.2559869
88	0xbe1737ce	-0.14767382
89	0x3c663c53	0.014052468
90	0x3ebd5f60	0.36986828
91	0xbe95eebf	-0.2928371
92	0xbea48791	-0.3213468
93	0x3e44b224	0.1920858
94	0xbe27e5a6	-0.16396198
95	0x3e470c3b	0.1943826
96	0x3be90b9a	0.0071119787
97	0x3ec0509b	0.37561497
98	0xbcf0c660	-0.029391468
99	0x3e96ee99	0.2947891
100	0xbd0e869b	-0.03479634
101	0xbe016ac6	-0.12638387
102	0x3dee2f0c	0.11630067
103	0xbdace449	-0.084419794
104	0x3d649783	0.055808555
105	0xbe1af59e	-0.15132758
106	0x3c94a45c	0.018144779
107	0x3e90696b	0.28205428
108	0x3ebaf147	0.36512205
109	0xbe0e8644	-0.13918406
110	0xbddfdb11	-0.109304555
111	0xbe1f79a2	-0.15573743
112	0x3d9536c1	0.07285834
113	0x3dcbdeaf	0.09954583
114	0xbd3cc91e	-0.046090238
115	0x3e1599b7	0.14609419
116	0xbe45715b	-0.19281523
117	0x3e89ef11	0.26940206
118	0xbe82d8f5	-0.2555615
119	0xbd348472	-0.044071622
120	0xbd2aad32	-0.04166908
121	0xbd480727	-0.048834946
122	0x3db973e8	0.090553105
123	0x3d921730	0.07133329
124	0x3e323262	0.17402032
125	0xbe8383ee	-0.25686592
126	0xbc8262be	-0.015916225
127	0x3d53e825	0.051735062
128	0x3ae9cf44	0.0017838259
129	0x3eab4ffd	0.33459464
130	0xbe0b87c4	-0.13626009
131	0x3e8722df	0.26393792
132	0xbdfd86b3	-0.123792075
133	0xbd35856e	-0.0443167
134	0xbd54999f	-0.051904317
135	0x3e11b151	0.14227797
136	0xbe3f19c3	-0.18662171
137	0x3ebe919b	0.37220463
138	0xbec1e3d9	-0.37869146
139	0x3e1f40be	0.15552041
140	0xbd8c95ce	-0.068645105
141	0xbe1a0037	-0.15039144
142	0xbe5a4b5c	-0.2131781
143	0x3e58983a	0.2115182
144	0xbe5b9ab1	-0.21445729
145	0xbee8923f	-0.45424077
146	0xbe7f28d0	-0.24917912
147	0xbe05b997	-0.13059078
148	0x3c44dd5f	0.01201567
149	0xbdafe6d9	-0.085889526
150	0x3dee09be	0.11622952
151	0xbeb50d1a	-0.35361558
152	0xbd02b8df	-0.031914588
153	0x3e242507	0.1602975
154	0xbdba99e3	-0.09111383
155	0xbe876f77	-0.26452228
156	0x3da5a7ee	0.08088671
157	0xbe141334	-0.1446045
158	0x3d6f7baa	0.058467545
159	0xbe6bdbce	-0.23033068
160	0x3d82963f	0.063763134
161	0x3ed47f72	0.41503483
162	0xbc1c4c6b	-0.009539704
163	0x3d806206	0.062686965
164	0x3e7fc4c9	0.24977411
165	0xbd4c27a7	-0.049842503
166	0x3dfa67ba	0.122268155
167	0x3e16fb4f	0.14744304
168	0x3dbc7c6e	0.092034206
169	0xbe5c353b	-0.21504681
170	0x3e61bf89	0.22045721
171	0xbe01602b	-0.12634341
172	0xbea27d20	-0.31736088
173	0x3be90b46	0.0071119396
174	0x3ea051b6	0.3131234
175	0x3c8ed424	0.01743514
176	0xb9d9be34	-0.00041531178
177	0x3dc12d88	0.094325125
178	0x3e21f5d2	0.1581643
179	0x3e9f2001	0.31079105
180	0xbcfd03c6	-0.030885588
181	0x3eb1daf9	0.34737375
182	0x3a0b9ef3	0.00053261145
183	0x3c8a820a	0.01690771
184	0x3e88e655	0.2673823
185	0xbe0893fb	-0.133377
186	0xbe7f0fb4	-0.24908334
187	0x3cf064db	0.029344967
188	0xbdab80e0	-0.0837419
189	0x3eb96205	0.36207595
190	0xbd3f2474	-0.046665624
191	0xbe1832d6	-0.14863142
192	0xbe207d5c	-0.15672821
193	0xbd8c3bfb	-0.06847378
194	0xbe6ae06f	-0.22937177
195	0xbe84521a	-0.2584389
196	0xbdb92f14	-0.090421826
197	0xbe0f7910	-0.14011025
198	0xbe098237	-0.1342858
199	0xbe6b4144	-0.22974116
200	0x3e975846	0.29559535
201	0xbe64cec0	-0.22344494
202	0xbe1385cb	-0.14406507
203	0xbed0ade9	-0.40757683
204	0xbe5a2f86	-0.21307191
205	0x3df3324e	0.11874829
206	0x3e300124	0.17187935
207	0x3e0b27f8	0.13589466
208	0x3d33cb95	0.043895323
209	0xbddf08af	-0.10890328
210	0x3d8f75f2	0.07004918
211	0xbdc772b1	-0.097386725
212	0x3dfa0982	0.12208845
213	0xbd892580	-0.06696606
214	0xbd4a8057	-0.0494388
215	0x3e8ef48e	0.27920955
216	0xbe698a42	-0.22806647
217	0x3df8fc0c	0.12157449
218	0x3e130395	0.14356835
219	0xbda6f59f	-0.08152317
220	0x3ecc69a7	0.39924356
221	0xbd1ce266	-0.038301848
222	0xbd99f824	-0.07518032
223	0xbeb89e6d	-0.3605837
224	0xbd9e3bbf	-0.077262394
225	0xbebe7b3b	-0.37203392
226	0xbd8f34b1	-0.06992472
227	0xbc827213	-0.015923535
228	0x3eb58ad4	0.3545748
229	0x3e8eab15	0.278649
230	0x3edad50d	0.4274067
231	0x3dbc94f1	0.09208096
232	0x3ae1636a	0.0017195765
233	0xbe8efa0d	-0.2792515
234	0x3dbd934a	0.09256609
235	0x3ed68fc9	0.41906574
236	0xbea31ec5	-0.31859413
237	0x3ebb2ba6	0.3655674
238	0xbe4c67d8	-0.19961488
239	0xbc8466a9	-0.016162233
240	0x3e521bf5	0.20518477
241	0xbe6babf2	-0.2301481
242	0xbe960b05	-0.29305282
243	0x3e86bd45	0.26316276
244	0x3c571e53	0.013129788
245	0xbd1950df	-0.03743064
246	0xbeb6255a	-0.35575372
247	0x3ead9400	0.33901978
248	0xbdb1bccd	-0.08678589
249	0xbd382bfe	-0.04496383
250	0x3e164764	0.14675671
251	0xbd2fbf07	-0.042906787
252	0xbcc4ea10	-0.024037391
253	0xbe0639d4	-0.13107997
254	0xbe1dc92f	-0.15408777
255	0x3d90fd94	0.07079616

encoder.2.bias f4 [25]
0	0x3e85ec26	0.2615673
1	0x3e3991c5	0.18122013
2	0x3e3556db	0.17708914
3	0x3dc33f34	0.095335394
4	0x3e248d56	0.1606954
5	0x3dbd3558	0.0923869
6	0x3d354768	0.04425755
7	0xbd2a4a4b	-0.041574758
8	0x3e4b8f8c	0.19878978
9	0x3ce1fde4	0.027586885
10	0x3e2e4fe4	0.17022663
11	0x3dafd3e0	0.08585334
12	0x3de9395d	0.11387894
13	0x3e45bf2e	0.1931121
14	0x3dd38352	0.10327782
15	0x3dff6793	0.12470927
16	0x3d9e6df6	0.07735817
17	0x3e96c700	0.294487
18	0x3eb23389	0.34804943
19	0x3e457eff	0.19286726
20	0x3e887cd9	0.2665775
21	0x3c13b432	0.00901513
22	0x3db9062b	0.090343796
23	0x3b970e0e	0.0046098297
24	0x3cb12119	0.021622228

decoder.0.weight f4 [50, 25]
0	0xbe07424a	-0.13208881
1	0xbe77f7d9	-0.2421564
2	0xbc8cf5ba	-0.017207015
3	0x3e2c01de	0.16797587
4	0xbe6e0eaf	-0.23247789
5	0xbe270ff9	-0.16314687
6	0x3ea2d61f	0.31803986
7	0x3dddd16d	0.108309604
8	0x3c77bf3d	0.015121278
9	0x3ec644c2	0.38724333
10	0xbde8eb82	-0.113730446
11	0x3ec010c0	0.3751278
12	0x3cb41788	0.021983877
13	0xbe5be793	-0.21475057
14	0x3e3e8b49	0.1860782
15	0x3dec9451	0.115517266
16	0x3e438ff8	0.19097888
17	0xbece7ca2	-0.40329462
18	0xbdef708f	-0.11691391
19	0x3e3176e5	0.17330511
20	0x3d6c9e6e	0.057768278
21	0xbea9ea4a	-0.3318656
22	0x3e8698d7	0.26288483
23	0xbe961700	-0.29314423
24	0xbe77b896	-0.24191508
25	0x3e94d834	0.290712
26	0xbeb00e2f	-0.3438582
27	0xbe79d132	-0.24396208
28	0x3e30775f	0.17233036
29	0xbc6fbe32	-0.014632748
30	0xbc938dbe	-0.018011924
31	0xbedb52e4	-0.42836678
32	0x3dcebffb	0.10095211
33	0xbe84b70d	-0.25920907
34	0xbe392fe6	-0.18084678
35	0x3ee64024	0.4497081
36	0x3e7c36e8	0.2463032
37	0xbd180518	-0.037114233
38	0x3d820ff6	0.063507006
39	0x3ccd4a15	0.02505974
40	0x3ea22735	0.31670538
41	0x3df0ef2c	0.117643684
42	0x3ec362d4	0.38161337
43	0xbdcf4953	-0.10121407
44	0xbe972ffe	-0.29528803
45	0xbea12c2b	-0.3147901
46	0xbd1e1c3e	-0.038601153
47	0x3d79f2d4	0.061022595
48	0xbd7e5d54	-0.062100723
49	0x3eb1f3e2	0.3475638
50	0x3da17e73	0.078854464
51	0x3c0063e6	0.007836318
52	0xbd88a68e	-0.06672393
53	0x3cfe4201	0.031037332
54	0xbe9db02a	-0.30798465
55	0x3e2c543a	0.16829005
56	0x3e6062ec	0.21912736
57	0xbdeb7633	-0.11497154
58	0xbe0cc07b	-0.137453
59	0x3e1e7afd	0.15476604
60	0xbea3d6d1	-0.3199983
61	0x3d52a98e	0.05143123
62	0xbe8068af	-0.25079867
63	0xbeb617c6	-0.35565013
64	0xbe7f3466	-0.24922332
65	0xbe6d7b97	-0.23191677
66	0xbec55439	-0.3854082
67	0x3ce68ed4	0.028144278
68	0x3ec9bda3	0.39402494
69	0xbe3fb9f6	-0.18723282
70	0xbe3aa47a	-0.18226805
71	0x3e7d5fc5	0.24743564
72	0x3e155d54	0.14586383
73	0xbd5d000b	-0.05395512
74	0xbd721c06	-0.059108756
75	0x3e639bc1	0.22227384
76	0xbe49ff3e	-0.19726273
77	0xbe14721a	-0.14496651
78	0xbdc87a1a	-0.09788914
79	0xbc8e3657	-0.017359896
80	0xbe7d9e61	-0.24767448
81	0xbdf26a73	-0.1183671
82	0x3f0e1fef	0.55517477
83	0x3e2b819f	0.16748665
84	0x3de7a97c	0.113116235
85	0xbccf829a	-0.02533083
86	0x3dcb72de	0.099340186
87	0x3ebf3aea	0.37349635
88	0xbe9dffde	-0.30859274
89	0x3e4cba49	0.19992937
90	0xbe6148c3	-0.22000413
91	0x3e5db88b	0.21652429
92	0xbf11b0c8	-0.5691037
93	0x3c8b316f	0.016991345
94	0x3e4d425a	0.20044842
95	0x3d5d7be9	0.054073248
96	0x3e2ea157	0.17053734
97	0x3d8acaba	0.06776948
98	0x3d871e2e	0.06597553
99	0xbec2bc61	-0.38034347
100	0xbe788b38	-0.24271858
101	0xbdee1dbc	-0.11626765
102	0xbdedd458	-0.11612767
103	0xbdab6c1e	-0.08370231
104	0xbec219ae	-0.37910217
105	0xbe5f752f	-0.21822046
106	0x3e793821	0.24337818
107	0xbd6e9f32	-0.05825729
108	0x3e54c7cf	0.20779346
109	0xbc0c28c8	-0.008554645
110	0x3da91763	0.08256414
111	0x3e815187	0.25257513
112	0x3bc6e359	0.0060695824
113	0xbe5874f4	-0.21138364
114	0xbea2da92	-0.3180738
115	0xbe8ff405	-0.2811586
116	0xbe628f63	-0.2212501
117	0xbbb721f5	-0.005588765
118	0x3de8381f	0.11338829
119	0xbe9cc816	-0.30621403
120	0xbeeb39a0	-0.45942402
121	0x3dc9eaa8	0.0985921
122	0x3d05d0a3	0.032669675
123	0xbe05f270	-0.13080764
124	0x3e2e8271	0.17041947
125	0x3e35775a	0.1772131
126	0x3da14cae	0.078759536
127	0x3db6aedf	0.08920073
128	0x3d829076	0.0637521
129	0x3e414786	0.1887494
130	0xbe9c75f2	-0.30558735
131	0xbdd1b49b	-0.10239526
132	0x3e914914	0.28376067
133	0xbedb6d56	-0.42856854
134	0xbe90369d	-0.28166667
135	0xbe6cfab6	-0.23142514
136	0xbd017c0d	-0.031612445
137	0x3e46df3c	0.19421095
138	0xbe2464a1	-0.16054012
139	0x3e8cbd52	0.2748819
140	0xbe1a86ed	-0.15090533
141	0x3e613f77	0.21996866
142	0x3e2a6975	0.16641791
143	0x3f055d30	0.5209532
144	0xbab52c20	-0.0013822354
145	0x3dc27487	0.09494882
146	0xbe892349	-0.26784733
147	0xbd46dfa2	-0.048553117
148	0x3e32033d	0.17384048
149	0xbc935569	-0.017985063
150	0x3ebbe18d	0.3669552
151	0xbd7cec24	-0.06174864
152	0xbe9cb80b	-0.30609164
153	0xbe0eb9df	-0.13938092
154	0xbe99faad	-0.30074063
155	0x3ea45f53	0.32103977
156	0xbeb86c75	-0.36020246
157	0x3e9a616f	0.3015246
158	0x3e276fc6	0.16351232
159	0xbc35b43c	-0.0110903345
160	0xbb01d404	-0.001981021
161	0xbe4116b2	-0.18856314
162	0xbe266b28	-0.16251814
163	0x3e4edb9d	0.20200963
164	0xbe33a712	-0.17544201
165	0x3ec10519	0.37699202
166	0x3d2761b7	0.040864673
167	0xbe403500	-0.18770218
168	0x3ea38617	0.3193824
169	0x3e42fcf7	0.19041811
170	0xbe3f0af7	-0.18656527
171	0xbd36b7ef	-0.044609006
172	0xbe5ce1eb	-0.21570556
173	0x3e66e03f	0.2254648
174	0x3e474284	0.19458967
175	0xbe4906ca	-0.19631496
176	0x3d8c4191	0.06848443
177	0x3e5e4373	0.21705417
178	0x3d4012d2	0.04689295
179	0x3c8be37a	0.017076243
180	0x3e8aef63	0.27135763
181	0xbdce7650	-0.1008116
182	0xbeaff4b3	-0.34366378
183	0x3e650846	0.22366437
184	0x3e863e56	0.26219434
185	0x3e4e20f3	0.20129757
186	0xbe1bb99c	-0.15207523
187	0xbe757b60	-0.23972845
188	0xbe9c5f17	-0.30541298
189	0x3d9eab48	0.07747513
190	0xbe170204	-0.14746863
191	0xbea22dff	-0.31675717
192	0x3ebc588a	0.367863
193	0xbd96f82e	-0.07371555
194	0x3e07ee0a	0.13274398
195	0x3db7a87d	0.089676835
196	0xbc45b6d0	-0.012067512
197	0x3da8120f	0.082065694
198	0xbe15b0a1	-0.1461816
199	0xbe85c5b4	-0.26127398
200	0xbd6ffeca	-0.058592595
201	0x3ea1afea	0.31579524
202	0xbb2b91a8	-0.0026179347
203	0x3b1f8e5c	0.0024346327
204	0xbc9ef6f8	-0.019404873
205	0x3e90e01e	0.28295988
206	0xbf096100	-0.53663635
207	0xbddac111	-0.10681356
208	0xbddcbc89	-0.10778148
209	0xbe2145c4	-0.1574927
210	0xbde2b2ef	-0.11069285
211	0xbeaf7f38	-0.34276748
212	0xbea8f008	-0.3299563
213	0x3ebd48ef	0.36969706
214	0x3e8caab2	0.2747398
215	0x3e0a7322	0.13520482
216	0xbe09327b	-0.13398163
217	0x3ebfd94f	0.3747048
218	0x3ebae028	0.36499143
219	0xbe3b1299	-0.18268813
220	0x3e673132	0.2257736
221	0xbf04512c	-0.5168636
222	0xbe72f8ac	-0.23727673
223	0xbd88817c	-0.06665322
224	0x3ca282c3	0.019837743
225	0xbd335ff7	-0.04379269
226	0x3e186c95	0.14885171
227	0xbd775d76	-0.060391866
228	0x3d0fc179	0.03509662
229	0x3e87e951	0.26545194
230	0x3c2ded68	0.010615684
231	0xbe946ea7	-0.2899067
232	0x3e1c6474	0.15272695
233	0xbeb5844c	-0.35452497
234	0x3e1c8124	0.15283638
235	0x3df05a24	0.11735943
236	0xbeb1a6c9	-0.3469756
237	0xbc8b3e77	-0.016997559
238	0x3e21c0a2	0.1579614
239	0x3e48687f	0.19571112
240	0xbdd42ebd	-0.10360477
241	0x3e8c5e66	0.2741577
242	0xbe968c57	-0.29403946
243	0xbe61cb4f	-0.22050212
244	0xbd8788d5	-0.066178955
245	0xbdd90aa7	-0.10597735
246	0xbe327bc5	-0.17430027
247	0x3edeac84	0.43490994
248	0xbe68f323	-0.22749
249	0x3e74f6f6	0.23922333
250	0x3e99dbbf	0.30050465
251	0xbe13f775	-0.14449866
252	0x3d88766e	0.06663214
253	0xbe7e7958	-0.24850976
254	0x3ec9d056	0.3941676
255	0x3deb7e57	0.11498707

decoder.0.bias f4 [50]
0	0xbdef2faa	-0.11679013
1	0x3e57b44a	0.21064869
2	0xbe30f15e	-0.17279574
3	0xbdf8afc0	-0.12142897
4	0xbc4ee975	-0.012628903
5	0x3e5d7739	0.21627511
6	0x3da71a36	0.08159296
7	0xbdcfbda1	-0.10143591
8	0x3e407e2c	0.18798131
9	0xbdb29285	-0.08719353
10	0x3ea1ed5a	0.31626397
11	0x3db9535a	0.09049101
12	0x3d456e3b	0.048200827
13	0x3ca9d990	0.020733625
14	0xbe4cc630	-0.19997478
15	0xbdb6bc34	-0.08922616
16	0x3d9de59c	0.0770981
17	0xbe85fa9a	-0.26167756
18	0xbe552b68	-0.2081734
19	0x3e862c8f	0.2620587
20	0xbe507ae8	-0.20359385
21	0x3d9aad0a	0.07552536
22	0xbe72d7f5	-0.23715194
23	0xbe839769	-0.25701454
24	0xbce29cf3	-0.02766273
25	0xbdf16dc9	-0.11788518
26	0x3e1ec151	0.15503432
27	0x3e7b9a01	0.24570467
28	0xbe175139	-0.14777078
29	0xbe111060	-0.14166403
30	0xbc8c96d2	-0.01716176
31	0xbe3b2f6a	-0.18279806
32	0x3e4422b0	0.19153857
33	0x3d7a2593	0.06107099
34	0x3e8ab273	0.2708927
35	0x3dd02f0f	0.10165226
36	0x3e50bec0	0.20385265
37	0x3e26f08f	0.16302703
38	0x3d531b30	0.0515396
39	0x3e8133d4	0.25234854
40	0x3e90559a	0.2819031
41	0xbe1e8f5f	-0.15484379
42	0xbe193e9d	-0.14965291
43	0xbebfd9cc	-0.37470853
44	0xbd0cb09e	-0.034348123
45	0x3e272c86	0.16325578
46	0xbe48efd7	-0.19622742
47	0x3e1cb786	0.15304384
48	0xbdfd23ec	-0.12360367
49	0xbdbda61d	-0.09260199

decoder.2.weight f4 [440, 50]
0	0x3ead5c77	0.33859608
1	0xbe220c94	-0.1582511
2	0x3dd79238	0.10525936
3	0xbe5bfcc3	-0.2148314
4	0xbdf93821	-0.12168909
5	0xbe0cc904	-0.13748556
6	0x3e188be3	0.14897113
7	0x3edca599	0.4309509
8	0xbc9b1037	-0.01892863
9	0xbd826c35	-0.06368295
10	0xbe9d65d4	-0.3074175
11	0x3d5785a9	0.052617703
12	0x3db27ad5	0.087148346
13	0xbde84914	-0.113420635
14	0xbe0b6d1d	-0.13615842
15	0x3d582d52	0.052777596
16	0x3e30eaa6	0.17277011
17	0x3e990d17	0.298928
18	0xbe41f5cf	-0.18941425
19	0xbdbafe7e	-0.09130572
20	0xbeb115d0	-0.34586954
21	0x3d5ef4fa	0.054432847
22	0x3e2f0f6a	0.17095724
23	0x3df78970	0.12086761
24	0x3dc965c9	0.09833867
25	0xbed52f50	-0.4163766
26	0x3dfdbde5	0.12389735
27	0xbe9d3d57	-0.3071086
28	0x3e1f4f92	0.15557697
29	0xbe76746f	-0.24067853
30	0xbd328941	-0.043587927
31	0xbe622200	-0.22083282
32	0x3ce72ae9	0.028218703
33	0xbe28a3fe	-0.16468808
34	0x3d839bc1	0.06426192
35	0xbe28adc6	-0.1647254
36	0xba302531	-0.0006719409
37	0x3eb04138	0.34424758
38	0x3e167105	0.14691551
39	0x3dce7a9c	0.1008198
40	0x3d4405d9	0.04785714
41	0xbe981e8e	-0.2971081
42	0xbe38d054	-0.18048221
43	0xbe08d024	-0.1336065
44	0x3e6b7131	0.22992398
45	0x3d83ef44	0.06442121
46	0x3e870f23	0.26378736
47	0xbe96f738	-0.29485488
48	0xbe2901e5	-0.16504629
49	0x3e12854f	0.14308666
50	0x3db8206f	0.08990561
51	0x3d92716f	0.07150542
52	0x3d772ea4	0.060347214
53	0x3e9b5104	0.30335248
54	0xbe3a1397	-0.18171535
55	0x3e8978e7	0.26850054
56	0x3e73af3b	0.23797314
57	0xbe706d84	-0.23479277
58	0xbf176a8e	-0.59146965
59	0xbb71325b	-0.0036803696
60	0xbe7eb136	-0.24872288
61	0xbdc1d116	-0.09463708
62	0xbe1c5936	-0.15268406
63	0xbddca0ce	-0.107728586
64	0x3e5eec7c	0.21769899
65	0x3eb85df5	0.36009184
66	0x3e94b46e	0.29043907
67	0x3eea0709	0.45708492
68	0x3e079642	0.13240913
69	0xbe295b38	-0.16538703
70	0x3e7be3e9	0.2459866
71	0xba888729	-0.0010416257
72	0x3dfa9b3d	0.122366406
73	0x3e9d0bca	0.30673057
74	0x3e862792	0.26202065
75	0xbe96a43d	-0.2942218
76	0xbdbdcdbd	-0.09267757
77	0x3e2ccd0b	0.16875093
78	0x3e54bced	0.20775194
79	0xbed16322	-0.40895945
80	0xbe5af38e	-0.21381971
81	0xbcb889f6	-0.022526722
82	0xbef40b17	-0.4766471
83	0xbdf1330e	-0.11777316
84	0xbcd90d7e	-0.026495691
85	0xbeb53931	-0.35395196
86	0xbea0e5f8	-0.31425452
87	0x3e81887c	0.25299442
88	0x3ea00a84	0.31258023
89	0xbe99a8bd	-0.3001155
90	0xbd6c2756	-0.0576547
91	0x3db0c738	0.08631748
92	0x3f28b79b	0.6590516
93	0x3e93f620	0.28898716
94	0x3e82affa	0.25524884
95	0xbebee701	-0.37285617
96	0x3d3aea72	0.04563374
97	0x3e055890	0.13022065
98	0xbb780559	-0.0037844984
99	0x3ce23cc1	0.02761686
100	0x3e655f60	0.22399664
101	0xbe3e4d1f	-0.18584107
102	0x3eafecdf	0.34360406
103	0xbb5e2a23	-0.0033899627
104	0x3e8f61d6	0.2800433
105	0x3e2fcbd9	0.17167605
106	0xbf664a26	-0.8995689
107	0x3dc0f34a	0.09421404
108	0xbe6bec7e	-0.23039433
109	0xbe645d37	-0.22301184
110	0x3f46246f	0.77399343
111	0x3e4bc7db	0.19900458
112	0xbf88454b	-1.0646147
113	0x3ea8c6c8	0.32964158
114	0xbe3d8551	-0.18507887
115	0x3e170419	0.14747657
116	0xbe008fa4	-0.12554795
117	0xbbacaff2	-0.0052699978
118	0x3ed2b0b2	0.41150433
119	0xbf00df72	-0.5034095
120	0x3e18a97a	0.149084
121	0x3e007512	0.12544659
122	0xbe0d6160	-0.13806677
123	0x3dfcf0e7	0.12350636
124	0xbf09aabf	-0.5377616
125	0x3e93d0ee	0.28870338
126	0xbf7e2759	-0.9927879
127	0x3e8154d7	0.2526004
128	0xbb62f57e	-0.0034631188
129	0x3e6898d9	0.22714557
130	0x3ba27548	0.0049578287
131	0x3de8eaa9	0.11372883
132	0x3e3eb213	0.18622617
133	0xbf390cca	-0.7228514
134	0xbce9f369	-0.02855845
135	0xbe9d61e3	-0.30738744
136	0x3dfe7bae	0.12425934
137	0xbdc42d4b	-0.095789514
138	0xbdccd361	-0.10001255
139	0xbeb203dd	-0.34768572
140	0xbd6e96d7	-0.05824932
141	0x3d817a7c	0.0632219
142	0xbddeaa0b	-0.10872277
143	0xbe820b71	-0.25399354
144	0xbe25d92d	-0.16196127
145	0x3e27148f	0.16316436
146	0xbd5acf60	-0.053420424
147	0x3e80220c	0.25025976
148	0x3ea7f3b1	0.3280311
149	0x3d3627b7	0.04447147
150	0x3c51df72	0.012809621
151	0xbde3e6fb	-0.111280404
152	0xbe958af1	-0.29207566
153	0x3e56be7e	0.20971105
154	0xbe590bbe	-0.21195886
155	0x3e5105dc	0.20412391
156	0xbe708130	-0.23486781
157	0x3d7a66cd	0.061133195
158	0x3e718bc5	0.23588474
159	0x3e09a71f	0.13442658
160	0xbe3e7b3f	-0.18601702
161	0xbebf3190	-0.373425
162	0xbd72b2db	-0.0592526
163	0x3e39fea9	0.18163551
164	0xbaa24617	-0.0012380508
165	0x3dc2e2cf	0.095159166
166	0xbe424101	-0.1897011
167	0xbdcf21fe	-0.10113905
168	0xbe82580e	-0.25457805
169	0x3e2fd074	0.17169362
170	0x3da460b7	0.080262594
171	0xbd758975	-0.059945542
172	0x3e246212	0.16053036
173	0x3cae2f35	0.021262744
174	0xbea7c833	-0.32769927
175	0xbc29eee1	-0.010371895
176	0x3e55fbb8	0.20896804
177	0xbec6ab7b	-0.38802704
178	0x3e15a1da	0.14612523
179	0x3e91fad7	0.28511688
180	0x3d9a2bcd	0.075278856
181	0xbd8f9c45	-0.07012228
182	0x3ebbd5d0	0.36686563
183	0xbd88d6ee	-0.066816196
184	0xbe18d634	-0.14925462
185	0xbd31d2ee	-0.04341405
186	0xbeb30204	-0.34962475
187	0xbea84554	-0.32865393
188	0x3e103f75	0.14086707
189	0x3ec41d31	0.3830352
190	0xbdf9dc94	-0.12200275
191	0xbe5220c1	-0.20520307
192	0xbe97c51d	-0.29642573
193	0xbec3899d	-0.38190928
194	0xbd95dc8f	-0.07317459
195	0xbc226123	-0.0099108545
196	0x3e9d8815	0.30767885
197	0xbd57c608	-0.05267909
198	0xbdc3f992	-0.09569086
199	0xbe2a49e8	-0.16629755
200	0xbdff1b6c	-0.12456402
201	0xbe697de7	-0.22801934
202	0xbda4ed3c	-0.08053061
203	0x3e82815f	0.25489327
204	0xbe214cc2	-0.15751937
205	0xbde64e24	-0.11245373
206	0x3d223bad	0.039607693
207	0x3d3143b2	0.04327745
208	0x3c59f68a	0.013303408
209	0x3e5d7c92	0.21629551
210	0xbe3940df	-0.18091153
211	0xbee91f16	-0.4553153
212	0x3dffe749	0.12495286
213	0x3d939dec	0.072078556
214	0x3de0f41d	0.10984061
215	0x3d881a47	0.06645637
216	0xbd2d7663	-0.04234923
217	0xbe445956	-0.19174704
218	0xbb8081a3	-0.003921704
219	0xbda030d3	-0.078218125
220	0xbd51c6f1	-0.051215116
221	0x3d46b189	0.048509154
222	0x3db75ba7	0.08953028
223	0xbe09bf7f	-0.13451956
224	0xbeaa9ff5	-0.33325163
225	0xbdee47f1	-0.116348155
226	0x3e945a2c	0.28975046
227	0xbe94b218	-0.29042125
228	0xbd6498aa	-0.055809654
229	0x3e2c46f7	0.16823946
230	0x3e17d7e1	0.14828445
231	0x3cd11ae8	0.025525525
232	0xbdadb393	-0.08481517
233	0xbe197718	-0.14986837
234	0x3dc5e387	0.09662538
235	0x3ddb7dd8	0.10717362
236	0xbe4eb6fe	-0.20186993
237	0xbe235024	-0.1594854
238	0x3d160be0	0.03663242
239	0x3e512fea	0.20428434
240	0xbd34982d	-0.04409044
241	0xbe334abe	-0.1750898
242	0x3d439104	0.04774572
243	0xbca87a8a	-0.020566244
244	0xbde6d240	-0.11270571
245	0x3d5308eb	0.051522177
246	0x3e22d4ad	0.15901442
247	0x3d650c79	0.055920098
248	0xbc552520	-0.01300934
249	0x3c773d14	0.015090246
250	0x3de0da1d	0.10979102
251	0xbc4607ca	-0.012086818
252	0x3deb5d8a	0.114924505
253	0xbe3dff81	-0.18554498
254	0x3d0db61a	0.034597494
255	0xb9115982	-0.00013861622

decoder.2.bias f4 [440]
0	0xbd56d4fe	-0.05244922
1	0xbd374efc	-0.04475306
2	0xbd76be37	-0.060239997
3	0xbe3ef697	-0.18648754
4	0xbe07a522	-0.13246587
5	0xbe4d5e23	-0.20055442
6	0xbd0bbe9c	-0.034117326
7	0xbe7b06c0	-0.24514294
8	0xbe234158	-0.15942895
9	0xbe2faddb	-0.17156164
10	0xba6d385a	-0.00090492296
11	0xbe16cc2e	-0.14726326
12	0xbc9d8737	-0.019229515
13	0xbe43de01	-0.19127657
14	0xbd6e0eed	-0.058119703
15	0x3d4fdee5	0.05074968
16	0xbd99930f	-0.07498752
17	0xbdf93891	-0.12168992
18	0xbdffabbf	-0.1248393
19	0xbde2e38b	-0.110785566
20	0xbe3be7c0	-0.18350124
21	0xbe42d5ce	-0.19026873
22	0xbddee5f9	-0.108837076
23	0xbb3803cb	-0.0028078433
24	0xbe1003de	-0.14063975
25	0xbd969ea9	-0.07354481
26	0xbd6d8c29	-0.057994995
27	0xbe63e70b	-0.22256105
28	0xbd005fd6	-0.031341396
29	0xbdfdd6ce	-0.12394486
30	0xbe00c217	-0.1257404
31	0x3d7d614b	0.061860364
32	0xbe6f4312	-0.23365429
33	0x3d70f0c9	0.05882338
34	0xbe6f35c8	-0.2336036
35	0xbe855d85	-0.26047912
36	0xbdf3d05a	-0.11904974
37	0x3c8c1f25	0.017104695
38	0xbe82adbe	-0.2552318
39	0x3cdd9c85	0.027052173
40	0x3d9015e8	0.07035428
41	0x3d8bfa53	0.06834855
42	0x3c632721	0.0138643095
43	0x3d10333a	0.035205103
44	0xbe2e0897	-0.16995464
45	0xbe33c866	-0.17556915
46	0xbd2c7ce0	-0.042111278
47	0xbe051f25	-0.13000162
48	0xbdd42350	-0.10358298
49	0xbe6e5581	-0.23274805
50	0x3d69040e	0.056888632
51	0x3d048901	0.03235722
52	0xbe4933ab	-0.19648616
53	0x3dab3843	0.083603404
54	0xbe1913fb	-0.14949028
55	0xbe0fe066	-0.14050445
56	0xbcca55b6	-0.024699073
57	0xbe3e4f11	-0.18584849
58	0xbde116f4	-0.10990706
59	0xbd2104ba	-0.03931115
60	0xbe63c483	-0.22242932
61	0xbd89d557	-0.067301445
62	0x3c7243d6	0.014786681
63	0xbe2a3465	-0.1662155
64	0x3d0b34d9	0.033985946
65	0xbcb3a51a	-0.021929312
66	0xbce5a20a	-0.028031368
67	0x3d98391e	0.07432769
68	0xbc9a1a88	-0.01881148
69	0xbe1fd54e	-0.15608713
70	0xbe4d0f51	-0.20025374
71	0xbdc510f9	-0.09622378
72	0xbdfa9f7c	-0.122374505
73	0xbe244806	-0.160431
74	0x3dee51d2	0.116367
75	0xbe47d066	-0.19513091
76	0xbe1b7c91	-0.15184237
77	0xbe25f07f	-0.16205023
78	0xbe0a7151	-0.1351979
79	0xbe42ccc8	-0.1902343
80	0xbdaadd9c	-0.0834305
81	0xbccc17a9	-0.024913626
82	0x3d5a2ab6	0.05326339
83	0xbc1352ad	-0.008991879
84	0xbe83d0ba	-0.25745183
85	0xbe5a27bd	-0.21304221
86	0xbe52be71	-0.2058046
87	0xbe1bc72b	-0.15212695
88	0xbd203bd5	-0.03911956
89	0xbd832782	-0.0640402
90	0x3cf94f23	0.030433243
91	0xbe419f25	-0.18908365
92	0xbe3ccd5d	-0.18437715
93	0xbe1f3b8b	-0.15550058
94	0x3d0d2437	0.034458365
95	0xbdda4c6c	-0.106591076
96	0xbdf0635f	-0.117377035
97	0xbe7bf6d1	-0.24605872
98	0xbd8ecb1f	-0.06972336
99	0xbdfa9cf7	-0.1223697
100	0x3d70d7ac	0.05879943
101	0xbe22fdbf	-0.15917109
102	0xbd80812d	-0.06274638
103	0x3d48a344	0.048983827
104	0xbe6a6de0	-0.22893476
105	0x3d3e8999	0.046517942
106	0xbe7813e9	-0.24226345
107	0xbc5d4ad9	-0.013506615
108	0x3cff51db	0.031166961
109	0xbe693e17	-0.22777592
110	0x3bdfc5f4	0.006829018
111	0xbd8e53bc	-0.06949565
112	0xbde6eeba	-0.11276002
113	0xbe71769b	-0.235804
114	0x3d7f5391	0.062335555
115	0xbcf8e243	-0.030381327
116	0xbe5f7103	-0.21820454
117	0xbdf42f22	-0.11923052
118	0xbdb6b2a2	-0.0892079
119	0xbe552730	-0.2081573
120	0xbc37a855	-0.011209567
121	0xbbbf0e2e	-0.005830548
122	0xbbe00af8	-0.006837245
123	0xbe862a9a	-0.26204377
124	0xbdd15a20	-0.10222268
125	0xbde1910c	-0.110139936
126	0x3d398096	0.045288645
127	0xbe06b4a4	-0.13154846
128	0xbc9085d8	-0.017641947
129	0xbe3fc7d9	-0.1872858
130	0xbe1e8f55	-0.15484364
131	0xbe3d7ecb	-0.18505399
132	0xbe080f51	-0.13287093
133	0x3d67ee2f	0.056623634
134	0xbe40aea8	-0.18816626
135	0xbd360fb1	-0.04444856
136	0xbd971ac8	-0.07378155
137	0xbdec4fa4	-0.11538628
138	0xbe4282dc	-0.18995231
139	0xbdb106b0	-0.08643854
140	0xbd560498	-0.052250475
141	0xbe0adec4	-0.13561541
142	0xbe160331	-0.14649655
143	0xbce31d47	-0.027723921
144	0xbdecdeff	-0.11565971
145	0xbe071597	-0.1319183
146	0x3d6e2bb0	0.058147132
147	0xbe653057	-0.22381721
148	0xbe3cb682	-0.18428996
149	0xbdbbf911	-0.09178365
150	0xbe89730a	-0.2684558
151	0x3ce42d39	0.027853595
152	0x3d99075a	0.07472105
153	0xbd881ea4	-0.06646469
154	0xbcec5369	-0.028848367
155	0xbd2f6500	-0.04282093
156	0xbdb33cb5	-0.08751813
157	0xbe2d2a70	-0.1691072
158	0xbe44eb24	-0.19230324
159	0xbdd60c77	-0.10451596
160	0x3d36f62c	0.04466836
161	0xbe8eb2b7	-0.27870724
162	0xbc295cee	-0.010337098
163	0x3d99f11a	0.075166896
164	0xbe8313df	-0.25601098
165	0xbe228f66	-0.15875015
166	0xbdaf6b80	-0.08565426
167	0xbe5aca78	-0.21366298
168	0x3d9f5989	0.07780749
169	0x3d9120fa	0.07086368
170	0x3cfa3048	0.0305406
171	0xbd4a28e8	-0.049355417
172	0xbe1e72df	-0.15473507
173	0xbe29a20c	-0.16565722
174	0xbe430a74	-0.19046956
175	0xbddd7e01	-0.10815049
176	0xbdda0253	-0.106449746
177	0xbdeb9874	-0.115036875
178	0x3d8f4aa7	0.06996661
179	0xbc613746	-0.013746088
180	0xbe3d3bce	-0.18479845
181	0xbdbbd870	-0.091721416
182	0xbd5c47b9	-0.053779338
183	0x3d6ad75c	0.05733429
184	0xbdd3a7c2	-0.10334732
185	0xbdead5a7	-0.11466532
186	0xbd4abe42	-0.04949785
187	0x3d8bb863	0.06822278
188	0xbe7d2187	-0.24719821
189	0xbdc1b696	-0.09458654
190	0x3db7fb23	0.089834474
191	0xbb0ffbd8	-0.002197018
192	0xbda16c3b	-0.078819714
193	0xbe08cb7f	-0.13358878
194	0x3ca8902e	0.020576563
195	0xbe8090fb	-0.2511061
196	0xbe61796b	-0.22018974
197	0xbdd7555a	-0.105143264
198	0xbdd67339	-0.10471196
199	0x3d32a3d3	0.043613266
200	0xbe1a2716	-0.15053973
201	0xbe590e47	-0.21196853
202	0xbe525708	-0.20541012
203	0xbe276b74	-0.16349584
204	0x3e02e0e4	0.12781101
205	0xbcffd6c6	-0.031230342
206	0xbd071a5c	-0.032984123
207	0xbe396fe6	-0.18109092
208	0xbd66456b	-0.056218546
209	0xbd8dbf42	-0.06921245
210	0x3b716109	0.003683152
211	0xbd44b778	-0.048026532
212	0xbe245855	-0.16049321
213	0xbe132cd4	-0.1437257
214	0xbe417eec	-0.18896073
215	0xbe0f59d3	-0.13999109
216	0xbe041f5f	-0.12902592
217	0xbca041cf	-0.01956263
218	0xbe3d7dfa	-0.18505087
219	0xbe8f1087	-0.27942297
220	0xbc98518c	-0.018593572
221	0xbe333629	-0.17501129
222	0xbd9eb133	-0.07748642
223	0xbe34d390	-0.1765883
224	0xba2277d7	-0.0006197667
225	0xbe0434da	-0.12910786
226	0xbd4440fb	-0.047913533
227	0xbdfb3c66	-0.122673795
228	0xbe0a270b	-0.13491456
229	0x3d3870e5	0.04502954
230	0xbd47c9a0	-0.04877627
231	0x3cfcb49d	0.030847842
232	0xbe77a9c4	-0.24185854
233	0xbe0fbcf4	-0.14036924
234	0xbc30e8e4	-0.010797713
235	0xbe5efa50	-0.21775174
236	0xbe4409b0	-0.1914432
237	0xbe288e0f	-0.16460441
238	0xbe1d7162	-0.15375283
239	0xbe00ebab	-0.125899
240	0xbe124008	-0.14282238
241	0x3c1396c9	0.009008118
242	0xbe419433	-0.1890419
243	0xbe297fdd	-0.16552682
244	0xbe094d31	-0.13408352
245	0xbdabd801	-0.08390809
246	0xbe6c1d2b	-0.23058002
247	0xbe59ee67	-0.2128235
248	0xbc50404c	-0.012710642
249	0xbde9f4f5	-0.11423675
250	0xbde1ad5e	-0.11019395
251	0xbdee6df7	-0.11642068
252	0x3d854ef6	0.06509201
253	0x3d04de1e	0.03243839
254	0x3da1264b	0.07868632
255	0xbe940a64	-0.28914177
