src/ai/autoencoder_v2/data/autoencoder_v2_model.pth (torch, 100202 bytes, 16 tensors)

weight f4 [70, 94]
000000 2d 38 a9 bd 44 f6 b1 bc ed 96 89 3d 5e d4 c3 bd
       -0.08262668 -0.021723874 0.0671824 -0.0956199
000010 98 02 ec bb f2 3e c9 3d 5e 7c 39 bc 0e 76 c8 bb
       -0.0072024576 0.09826459 -0.011321155 -0.006117589
000020 0b 6b cb 3d 5e 9e 4d bd 67 fc 9b bc b1 11 cf 3b
       0.09932526 -0.05019986 -0.019041253 0.0063192477
000030 86 0b 29 bd fd 9a d6 bc a3 3e b4 bd 6f 28 0f 3d
       -0.041270755 -0.026196951 -0.088010095 0.03495067
000040 ee 0e 92 3d be c9 b4 3d 7b 86 15 3d 4c 46 4a 3d
       0.07131754 0.08827542 0.036505204 0.049383447
000050 39 e1 91 bd b1 08 8f 3c 3e 73 cc 3c 86 13 2d bd
       -0.07123036 0.0174602 0.024957296 -0.042254947
000060 a9 71 a8 3b d9 1e 3e 3d ba aa a0 bd e6 9c 37 3d
       0.0051405025 0.046416137 -0.078450635 0.044827364
000070 79 84 13 bd be a5 7f bb f8 61 84 3d 80 aa 9b bd
       -0.036015008 -0.0039008702 0.064639986 -0.0760088
000080 cd c5 3c 3a 82 84 14 bc 4e a9 d2 b9 3b 55 d2 bd
       0.00072011055 -0.009064795 -0.00040180463 -0.10270163
000090 40 53 a0 3d 68 b8 31 bd 60 25 d0 3d 32 40 05 3c
       0.07828379 -0.043388754 0.10163379 0.008132981
0000a0 e0 bc 3e 3d 98 3f 4b bd 75 16 94 bd ba 05 95 bd
       0.046566844 -0.049621195 -0.07230846 -0.07276483
0000b0 1b ec 96 3d 64 52 02 bd d2 17 ff 3b 4c 2f b6 3c
       0.07369252 -0.031816855 0.007784822 0.02223935
0000c0 54 90 5f 3c bf 6d 63 3d c9 70 ad bd 00 0a be 3d
       0.01364525 0.055524584 -0.08468778 0.09279251
0000d0 dc fd 85 bd 7e 29 cc 3d e8 5c 25 bd 46 f7 57 bc
       -0.065425605 0.099688515 -0.040371805 -0.013181513
0000e0 5e 5e 99 bc 50 6d 68 bd c4 cc 64 bb 98 30 45 3d
       -0.018721756 -0.056744874 -0.003491209 0.048142046
0000f0 e8 7f 48 bd 78 98 b1 3d 63 97 51 3d 0e 1d aa 3d
       -0.048950106 0.08671659 0.051169764 0.08306323
000100 60 24 9e 3d 90 1f 5b bd 1c 07 d5 bc db e0 c6 bd
       0.07721782 -0.053496897 -0.026004367 -0.097108565
000110 78 b2 49 bd da 0e a7 b9 2f 32 cb bc b5 17 ad 3d
       -0.049242467 -0.00031863787 -0.024804203 0.084517874
000120 29 f4 94 bd 7c 5d 7b bd 6d bb 04 bd 3d f4 14 bd
       -0.07273132 -0.06136845 -0.032405306 -0.036365736
000130 b6 f7 1b 3d 31 30 a8 3c 96 16 66 3d 87 6a 85 3d
       0.038078032 0.020530792 0.056173883 0.06514459
000140 d3 3a ce 3d 7a 5e 14 bd d8 58 32 bd 86 da 4e bd
       0.100698136 -0.036222912 -0.04354176 -0.05050137
000150 03 0a a1 bd 45 33 4b bc c1 a0 7e bd 7d d7 13 bc
       -0.07863238 -0.01240236 -0.062165026 -0.009023544
000160 0e 26 ab bb 6b 1f c1 bd 4a d8 82 bd 96 07 cb 3b
       -0.0052230423 -0.094298206 -0.0638891 0.0061959727
000170 7f d9 4b 3d d6 c9 a7 bd 98 68 b6 bc 8c 94 28 3e
       0.049767967 -0.08192794 -0.022266671 0.16462916
000180 e5 b0 c6 3d d5 ed b1 bd 85 89 5f be a4 bc 88 bd
       0.09701709 -0.08687941 -0.21829803 -0.06676605
000190 e2 06 b2 3e 81 28 22 be 8e cc d1 3d 8e d3 b8 bd
       0.34770876 -0.15835764 0.10244094 -0.09024726
0001a0 7a a1 bb bd 20 e9 3d bc 5e d8 16 3d f8 8a cd bd
       -0.091616586 -0.011591226 0.036827438 -0.10036272
0001b0 f9 53 c5 3d ad 75 0e 3e 5a d9 0e 3d ff 91 d2 bd
       0.09635157 0.13912077 0.03487525 -0.10281753
0001c0 ee 88 b3 3c 9f 85 18 bc 53 13 a9 3d 67 95 39 be
       0.02191588 -0.0093092015 0.08255639 -0.18123399
0001d0 58 21 d6 3b b7 31 e4 3c 12 11 69 be 0d 72 30 3e
       0.0065347366 0.027855737 -0.22760418 0.17231007
0001e0 5e be ee 3c a1 15 49 3c a1 86 f9 bc af 1c c9 3c
       0.029143509 0.012273223 -0.030459704 0.02454981
0001f0 bc 82 4f 3d 07 59 94 bb cc 2c d2 3c d7 d8 94 bd
       0.050661787 -0.0045272144 0.025656126 -0.072679214
000200 45 68 d4 bb 76 08 75 3d 41 bd b1 bb 2a 2c b0 3d
       -0.0064821565 0.059822522 -0.005424172 0.086021736
000210 52 b0 1b be b1 5e da 3c 5f b7 5b 3d db e9 61 bc
       -0.1520398 0.02665648 0.053641673 -0.013788666
000220 ca 45 b1 3d 92 4c 3b bd cd 97 aa 3d df 6e c6 3d
       0.08655889 -0.04572732 0.08329735 0.09689116
000230 82 87 23 3d c2 67 fd 3c 87 3a bc bd 25 3e 0f 3d
       0.039924152 0.030933265 -0.09190851 0.034971375
000240 b7 be a9 3d 80 c3 74 bd 0c 35 ec bc b3 2e 35 3d
       0.08288329 -0.059756756 -0.028833888 0.04423399
000250 e7 17 6f bd ad 0e 61 bc 4a dd 52 3c 7d 83 d4 bc
       -0.058372404 -0.013736409 0.012870142 -0.025941605
000260 2d ea bd 3d 07 b9 14 bd e0 b9 75 3d e3 db 59 3d
       0.09273181 -0.03630927 0.059991717 0.053188216
000270 35 3e 09 3d 7d 70 a7 bd a4 8b 96 bd 3b c0 07 bd
       0.03350659 -0.08175752 -0.07350853 -0.03314231
000280 06 4d 94 bd 10 8a cc 3b 28 90 c4 39 b0 5a a8 3d
       -0.072412536 0.0062420443 0.00037491438 0.08220422
000290 62 b0 1e 3d 65 66 ac bd eb 20 9b 3d 26 db ad 3d
       0.03874243 -0.08417968 0.07574638 0.08489065
0002a0 8f bf 32 bd 13 6f 8f 3d b9 4d b7 bc 18 ec 50 bc
       -0.043639716 0.070036076 -0.022375928 -0.012751602
0002b0 35 9b 8d 3d 99 41 71 bd 7a 9c 1f bd 43 05 4e bd
       0.06914369 -0.05890045 -0.038967587 -0.050297987
0002c0 af 2f 0c 3d 93 d3 30 3e e3 27 35 3e 10 b0 18 3d
       0.034225162 0.17268209 0.17690997 0.03727728
0002d0 09 fa 9f bb ac 30 2a 3e db 48 5b 3c ea eb c8 bd
       -0.0048821014 0.1662013 0.013384069 -0.09810622
0002e0 83 7a c5 3d ca ef 68 3d f6 f8 10 3d ce 3e 4d be
       0.09642508 0.056869306 0.035393678 -0.2004349
0002f0 9f 11 66 3d 51 eb b5 bd d1 a2 b6 bd c6 ec 99 3d
       0.05616915 -0.08882774 -0.089177735 0.07515864
000300 bc 9d 9e bd 38 bb 85 3c e0 50 93 3d cd 4a 4a 3e
       -0.07744929 0.016324624 0.0719316 0.19755097
000310 50 cc bb bd 95 79 61 bd ba 13 bb bc e8 9e 94 bd
       -0.09169829 -0.05504759 -0.022836555 -0.072568715
000320 45 1b 74 bd e2 a0 03 3d 2f 83 b2 bb a9 38 1b be
       -0.05959632 0.03213585 -0.005447767 -0.15158333
000330 91 a8 81 3d a2 87 80 3d 42 aa 1f bd e6 e8 51 bc
       0.063309796 0.0627587 -0.03898073 -0.012811875
000340 86 c0 e4 3c 80 d9 07 3e 05 9b 05 3e 51 90 68 bc
       0.027923834 0.13266563 0.13047417 -0.014194564
000350 46 36 1e 3d 33 ae 95 3c a5 7c c9 3d 08 d1 bb 3d
       0.038625978 0.018271541 0.09838227 0.09170729
000360 4a 6d 7c 3d db 43 80 3d ee 9a f1 bc f3 63 fe 3c
       0.061627664 0.062629424 -0.029492822 0.031053519
000370 30 bb dd bd 26 f8 b0 3c 29 de a2 bc 8c 59 a7 bc
       -0.10826719 0.021602701 -0.019881325 -0.020428441
000380 bf 1a a6 3d 28 87 d0 3d 57 2d 22 3e f3 2a 9e 3d
       0.0811057 0.10182029 0.15837608 0.07723036
000390 73 fd 9a 3d 22 5b 0c bd 72 7e 87 3d b2 e3 a4 bd
       0.07567873 -0.0342666 0.066159144 -0.08051242
0003a0 1b b6 cb 3c 99 00 8d bc 56 0d 9e 3d e9 a3 cc bd
       0.024867108 -0.017212199 0.077173874 -0.09992201
0003b0 df d5 cb bc 72 97 16 bd 94 4c 01 3d 24 35 b3 3d
       -0.024882255 -0.036765523 0.03156717 0.0875037
0003c0 9c 34 6e 3d cd 95 a6 3d 20 3b bc bc 92 8a a6 bc
       0.05815564 0.08134041 -0.022977412 -0.020329747
0003d0 bc 7d 24 bd 05 71 01 3e d7 f1 52 3e a6 e5 50 3e
       -0.040158972 0.1264077 0.20600067 0.20400104
0003e0 0b e6 45 3d 61 e0 d0 3d 9e 56 0f 3c fe 1e d1 bb
       0.04831509 0.10199047 0.0087486785 -0.0063818684
0003f0 71 5f de bc b4 42 b8 bd e2 e1 a6 bd c4 e5 af bd
       -0.02714512 -0.089970976 -0.081485525 -0.08588746

bias f4 [70]
000000 5e 33 c9 bd 41 55 1e 3d 28 93 a1 3d 0e 68 65 3c
       -0.09824251 0.038655523 0.07889396 0.014001859
000010 67 ed ec 3d 0d 26 3b 3e 75 9c bd 3d 12 ef 0a 3e
       0.115687184 0.18276234 0.092583574 0.1356776
000020 23 7e 16 3e 50 25 12 3e a8 e6 b6 3d cd 34 8c 3d
       0.14696555 0.14272046 0.08930713 0.068460084
000030 fb 60 23 3e fc b2 c0 bd 5a 29 56 3d 2b 0b 90 bc
       0.15954964 -0.094091386 0.05228553 -0.01758345
000040 92 3a 09 3e 30 c3 f8 3d 60 dd 3f 3e 97 8b 9a b9
       0.13401249 0.12146604 0.18736792 -0.00029477171
000050 28 af d8 bc 52 d5 13 3b 22 9e 62 bd 81 b1 38 3e
       -0.026450709 0.0022557569 -0.05532659 0.18036462
000060 c2 b5 04 3d 7f bf f6 bc b7 49 b5 3d 09 2b 14 3e
       0.0323999 -0.03012061 0.088519506 0.14469542
000070 98 15 61 bd b3 41 af 3d d4 c1 de bc 22 35 8e 3d
       -0.054952234 0.08557453 -0.027192034 0.06943728
000080 af 3d 13 3d 92 04 db 3d fc 57 0d 3e 9b 57 b5 3d
       0.035947498 0.10694231 0.13803095 0.088546
000090 43 c7 d1 3d 6a 6c 06 3e 7a 81 e5 3d 15 1a 7f 3d
       0.10243084 0.13127294 0.11206336 0.062280733
0000a0 b2 76 94 bd f6 c0 f2 3c 58 98 8a 3d ac 2f a1 3d
       -0.07249202 0.029633027 0.067673385 0.07870421
0000b0 2b f6 03 3e 97 26 e3 3b 99 be 55 3d fd e3 11 3d
       0.12886874 0.0069320905 0.05218372 0.035617817
0000c0 3c 00 9c 3d 6a d1 ba 3d 48 f0 1c bc 4a 2c 31 3d
       0.07617232 0.09121974 -0.009578772 0.043255128
0000d0 f5 3d b2 3d 92 41 3b 3d d0 01 9d 3d 08 44 13 3e
       0.087032236 0.04571683 0.07666361 0.1438142
0000e0 e2 4b 2e 3d b8 40 09 3e de c5 33 3d 2b 42 af 3d
       0.042552836 0.13403594 0.043889873 0.085575424
0000f0 20 c2 0c 3e b1 cc 10 3e 0c 0b 90 3d 0d 15 2d 3a
       0.13745928 0.14140584 0.07033357 0.0006602563
000100 0c f9 c2 3d d2 93 2d 3d 79 44 8d 3d 54 5e e0 3c
       0.09520158 0.0423773 0.06897826 0.02738873
000110 85 c7 44 3e 05 9a 0b 3e
       0.19216736 0.13632973

weight f4 [47, 70]
000000 fb e0 66 bd 6c 22 72 3e f5 48 bd 3d e4 19 94 bd
       -0.0563669 0.23645943 0.09242431 -0.07231501
000010 60 b2 a1 bc 9d e9 06 3e 46 a1 89 be a5 c0 30 be
       -0.019738376 0.13175054 -0.26880854 -0.17260988
000020 c4 5f 5e be 64 37 3a be ea 71 b6 3d 05 fb b5 3d
       -0.21716219 -0.18185192 0.08908446 0.08885769
000030 6f d2 a5 bd 77 92 47 3c 4d 04 46 3d 46 38 0d 3d
       -0.08096778 0.012180916 0.048343945 0.034477495
000040 4c 06 48 3e a0 c1 0a 3e 8c 6b 61 3e 73 4c 8e 3b
       0.19533652 0.13550425 0.22013682 0.0043426096
000050 cd d6 c1 bd 08 1b 8b bd 68 c4 e3 bd c1 74 ab 3e
       -0.09464798 -0.06792265 -0.11121446 0.33487514
000060 31 7f a7 bd 99 2e ae be 1c ad 53 3b 5a 8e 05 3c
       -0.08178557 -0.34019926 0.0032299226 0.008151615
000070 77 e0 88 3c 80 ab 84 bd 65 a5 e8 bd 16 2c a8 3c
       0.016708596 -0.064780235 -0.113596715 0.020528834
000080 80 eb b3 3e 6d 5b dc 3d 5d 3b 4c 3e 39 74 2a 3e
       0.3514061 0.107596256 0.1994452 0.16645898
000090 b8 c0 86 3e 2a 86 00 bf cc 22 0c 3e 29 a8 a8 3e
       0.26318908 -0.5020472 0.13685149 0.32940796
0000a0 7e 10 cc bd d5 8f 85 3d 61 e1 8b be 85 45 75 bd
       -0.09964083 0.065215744 -0.27320388 -0.059880752
0000b0 07 1f 29 be d2 f5 c6 3d d9 9d a8 3e 0a 94 19 3d
       -0.16515742 0.09714855 0.32932928 0.037494697
0000c0 10 92 78 3c 48 96 88 3e 2a 67 d0 bd 0c 34 1d 3e
       0.015171543 0.26677155 -0.10175927 0.15351886
0000d0 fb 58 8a 3e 4c fa 66 3e 39 35 9b bc 64 d7 95 bb
       0.27021012 0.22556418 -0.018946277 -0.0045727957
0000e0 06 86 73 3e eb a0 0d 3e f3 3b 66 bc f2 7d 8b 3e
       0.23781595 0.13830917 -0.014052379 0.27244526
0000f0 aa e9 0a bd dd 59 9b 3d 44 48 76 3e 49 ac 8d 3d
       -0.033914246 0.075854994 0.24051005 0.069176264
000100 8c fe 2a 3e cb f9 61 be a3 77 6c bc 5c 85 03 3e
       0.16698664 -0.22067945 -0.0144328205 0.12843841
000110 ed a7 3a be e8 83 64 be 70 0d a7 bd 36 b5 9e 3d
       -0.18228121 -0.22315943 -0.0815686 0.07749407
000120 24 f0 a9 3c 3a 37 5c 3c a3 2a 09 bd 8b 57 c5 bd
       0.02074439 0.013440901 -0.033487927 -0.09635838
000130 94 cc bc bd 43 28 35 3d e2 41 17 3d de e0 f4 bc
       -0.09218708 0.04422785 0.036928065 -0.029892381
000140 d0 99 77 3c e7 f7 11 bd 9f fc 74 bc ce fc c0 3c
       0.015112355 -0.03563681 -0.014952808 0.023558047
000150 80 ad e6 bd 10 b7 cf 3c aa 4f 2b 3d 0d 86 1e bd
       -0.11263561 0.025355846 0.04182402 -0.03870206
000160 8c bd c3 3c 77 ac 5b bc 74 86 f2 3c 39 ea a9 3c
       0.023894094 -0.013407818 0.029605128 0.020741569
000170 e4 90 19 bd 3e 19 86 3d 84 ca b4 3d 07 57 24 3d
       -0.037491694 0.06547783 0.08827689 0.04012206
000180 32 53 44 bd e0 04 79 bd 3a 9d 08 3d 9b 30 b4 3a
       -0.047930904 -0.060795665 0.033353068 0.0013747396
000190 df 0e cf bc c7 2c 4d bc 33 00 17 be 0a 0f cf 3d
       -0.025275646 -0.012522883 -0.1474617 0.1011029
0001a0 46 66 fc bd 72 cc a7 bd d7 c6 27 bd 3d c7 13 3c
       -0.123241946 -0.08193292 -0.040961113 0.00901967
0001b0 4d 1c a6 3d 2f 04 20 bd 16 48 0f bd ae 94 ca bc
       0.08110867 -0.03906649 -0.034980856 -0.0247291
0001c0 17 4d 9c 3d 08 50 b4 3d a3 ce 1d bd 7b e7 c4 bc
       0.07631891 0.08804327 -0.038527142 -0.02403616
0001d0 06 3d a0 3c 6f 8d 81 3d 45 87 bf bd 24 06 88 bd
       0.019560348 0.063258044 -0.093519725 -0.06641796
0001e0 16 46 ed bc af 4c a9 bd 72 e9 e1 bd e2 e1 92 3d
       -0.028964084 -0.08266579 -0.11030854 0.0717199
0001f0 da 33 d5 bd b9 84 1e 3d 3f 4e 0c be 4a b5 ef bb
       -0.104102805 0.038700793 -0.13701724 -0.0073153125
000200 09 fa 54 3c d9 f2 b6 3c 71 41 10 bd c5 57 d1 bc
       0.012999066 0.022332596 -0.03521866 -0.025554547
000210 6b 78 fd bd ec f9 87 3d 90 9d 8a 3d 76 b7 99 3c
       -0.123764835 0.06639466 0.06768334 0.018764239
000220 ca 64 81 bd 39 6b 2d 3d 15 5d b5 bd 7e 98 26 bd
       -0.06318052 0.042338584 -0.088556446 -0.04067277
000230 e6 ea af 3d 01 30 a7 3c 79 d5 71 be e8 ef 61 3d
       0.08589725 0.020408632 -0.2361659 0.055160433
000240 5e 75 dd 3d a4 0c ae bd 65 ca 9a 3d b3 cb 18 bc
       0.10813402 -0.08498505 0.07558135 -0.009325909
000250 53 78 3e bc f0 32 12 bc 0f 58 05 be 5c cb fd bd
       -0.011625367 -0.008923277 -0.13021873 -0.12392303
000260 ce 74 74 be b6 1b 98 bd 2e 59 71 bd 75 2d 9b 3c
       -0.23872682 -0.074271604 -0.05892294 0.018942574
000270 14 64 14 3e bd cc a2 bb bc 5a 20 3d 11 d6 72 3e
       0.14491302 -0.0049682544 0.03914903 0.23714472
000280 80 1d 57 bc 51 f5 08 39 8f 55 57 3d 1f 70 4c be
       -0.013129592 0.00013061358 0.05257183 -0.19964646
000290 8a 82 60 3c f0 f7 e9 3d 49 dd be 3d 6e c9 77 3e
       0.013702998 0.114242435 0.093195505 0.24197933
0002a0 c0 b3 32 3d c0 12 42 3d e6 4d f2 3d f6 2d 0a 3d
       0.043628454 0.047381163 0.11831264 0.033735238
0002b0 8f 7a e5 3d 95 53 5b 3e a2 24 a5 bd 94 d9 c0 3c
       0.11205017 0.21418603 -0.08063628 0.02354125
0002c0 c1 73 d5 bd 09 32 0f 3d b2 35 ce 3d da 46 bf bd
       -0.10422469 0.034959827 0.10068835 -0.09339686
0002d0 0f 87 bd bd db 8e 44 be 2a 0a 76 bd aa 96 65 bd
       -0.09254276 -0.1919512 -0.060068287 -0.056051888
0002e0 89 a5 f3 bd 09 e0 26 be fb b8 a1 bd 63 d5 b0 bd
       -0.11896808 -0.162964 -0.0789661 -0.0863445
0002f0 02 fc 2b 3d 83 d1 21 3e a4 bb 24 3d 7e df 33 bd
       0.04198838 0.15802579 0.04021801 -0.04391431
000300 ae 56 b2 bd 1d 3c 9d bd a7 8a e4 bc c2 81 f9 bd
       -0.08707939 -0.07677481 -0.027898146 -0.121829525
000310 33 5e 45 be 93 f6 e4 bc b2 3c b9 bd 82 e2 38 3c
       -0.19274215 -0.027949607 -0.0904478 0.011284472
000320 ca ce 1d bd b7 9b d8 3d 9b 2e 20 be 4d 92 8e bd
       -0.038527288 0.10576575 -0.15642779 -0.069614984
000330 be 2f 74 bd e1 18 a7 bc d3 85 fd bd a6 7a 5c be
       -0.059615843 -0.020397605 -0.123790406 -0.21531162
000340 ec 80 88 be c1 9e dc bd c2 ea d6 bd b6 58 63 3e
       -0.2666086 -0.107724674 -0.10493995 0.2220181
000350 40 4b 7e 3d aa 03 cb bd d2 6f fc bd ec 6b 42 3e
       0.062083483 -0.09912808 -0.123260155 0.18986481
000360 1c 3f 28 be c2 6e a1 be 64 69 b8 bd 14 52 1a be
       -0.16430324 -0.31529814 -0.09004477 -0.15070373
000370 83 26 7a 3c c6 07 a5 3d 3b 15 6b 3e 62 e0 eb bb
       0.015267971 0.08058123 0.22957318 -0.0071983794
000380 93 90 94 3e ab 89 a0 3c c6 1b 2c 3e df be 51 3e
       0.2901655 0.019596895 0.1680747 0.20482968
000390 3b ee a6 3e 11 ea de 3d 6a 8f fa bc 67 fb 80 3d
       0.3260363 0.108844884 -0.030585963 0.06297951
0003a0 47 50 97 3d 5a 23 86 3e ce cb 75 3c 5b 0f 62 3e
       0.073883586 0.26198846 0.015002204 0.2207617
0003b0 e6 59 26 bd af f7 96 3d cc 50 de bb f0 1c 73 3d
       -0.040613078 0.07371461 -0.006784534 0.05935377
0003c0 bf 17 5f bd a9 9b 00 3d c9 99 ed 3c be 19 9e bb
       -0.054466005 0.03139845 0.029003995 -0.004824846
0003d0 f9 af fe 3d 14 7a 0c 3e a2 bd 42 3e b9 cf c3 bd
       0.12435908 0.13718444 0.19017652 -0.09561104
0003e0 ac 48 a1 3e cc 80 65 3e f8 21 a3 3d a7 47 37 3e
       0.31500757 0.22412413 0.079654634 0.17898427
0003f0 bb 46 56 be 52 51 38 3e d2 92 d7 bc fa b0 d7 3b
       -0.20925419 0.17999771 -0.026315127 0.0065823765

bias f4 [47]
000000 7f c7 8b ba 31 07 92 3d 37 b8 9c bd b5 9e e3 3d
       -0.0010664313 0.07130278 -0.07652324 0.11114255
000010 3d 77 c7 3d 08 8b 53 3d 97 40 9c 3c d4 33 71 3d
       0.0973954 0.051646262 0.019073768 0.058887318
000020 75 0c d2 bd d9 c4 2a 3e ff ce 2a 3e aa 13 cf 3d
       -0.10256282 0.16676654 0.16680525 0.101111725
000030 d3 fd a1 3c 85 d1 c4 3d 9d a9 95 bd ca 0b c5 bc
       0.019774353 0.09610275 -0.07307742 -0.024053473
000040 f9 7e a4 3d a3 7b 96 bd fa 97 e1 3c 03 49 05 3e
       0.080320306 -0.073478006 0.027538288 0.13016133
000050 90 19 ac bc b4 34 df 3d f6 65 1c bc 99 67 0a be
       -0.021008283 0.10898724 -0.009545794 -0.13516082
000060 34 10 65 3d a2 33 10 3d 9e 3d c4 3c 42 4f 40 3a
       0.055923656 0.03520549 0.023955163 0.0007336029
000070 de 4d 8e bd ba 46 06 bc 4d d5 13 3e 72 40 4d bc
       -0.06948446 -0.008195573 0.14436837 -0.012527572
000080 23 25 fe 3d b0 05 79 3b 04 16 3d 3c 97 a0 b4 3d
       0.12409427 0.0037997775 0.011540893 0.088196926
000090 c9 f4 14 3e d5 52 96 3d fb 60 b8 bd f4 a2 64 bd
       0.14546503 0.07340018 -0.090028726 -0.055819467
0000a0 b5 2b 59 bd 61 2f 1b 3d 85 38 e7 3d a9 42 94 3d
       -0.053020198 0.03788698 0.11290077 0.07239277
0000b0 a6 4b 27 3d 86 22 b4 3d c4 0d e7 3c
       0.04084363 0.08795647 0.028204806

weight f4 [23, 47]
000000 b5 50 e9 bd e3 1b de 3d 50 5c 13 be b0 5f 18 be
       -0.11392347 0.10845163 -0.14390683 -0.14880252
000010 8a a8 0a be bb 45 a7 3d 21 62 fe bd 48 69 45 bc
       -0.13540855 0.08167597 -0.1242106 -0.012049027
000020 dc 1c f1 3d 93 85 0e be 81 e9 34 bd d0 7d d7 bc
       0.117730826 -0.13918142 -0.044168 -0.02630511
000030 27 79 73 3d 63 54 dc bd be 51 11 be 8b 70 61 bd
       0.05944171 -0.10758283 -0.14191338 -0.05503897
000040 c9 46 14 bb bf 08 bd 3d 5f 1f e2 3d 0a a1 e2 bd
       -0.00226252 0.09230184 0.1104114 -0.11065872
000050 6f 20 96 3d 46 f6 ab bc 5e 94 ba 3b 01 1f 22 bd
       0.07330405 -0.020991456 0.0056939563 -0.03958035
000060 14 b3 39 3d 29 bb 4b 3d 17 cc 84 bd 6b 1e dd 3d
       0.045336798 0.049739037 -0.064842395 0.107968174
000070 89 aa 00 3e 2c ce 9b 3d 51 88 0e bc d5 99 8d 3d
       0.12565054 0.076076835 -0.008699493 0.06914107
000080 3c 5c b8 3d fc 8b dd 3d 12 6d b8 3c b4 d8 a0 bc
       0.09001967 0.108177155 0.022512946 -0.019634582
000090 11 82 12 be 8a 70 91 bc d5 78 df 3c 4e cf f8 bb
       -0.14307429 -0.017753858 0.027279297 -0.007593072
0000a0 1e 5b 1d 3d b2 41 9b 3d 31 4b cb bd 02 42 79 3d
       0.038416974 0.0758089 -0.09926451 0.060853966
0000b0 43 81 ac bd 87 ef 0c be e7 34 d9 ba ad 2b 0a bb
       -0.08423092 -0.13763247 -0.0016571552 -0.0021083162
0000c0 cd fc 3b 3c d3 96 a7 bd f6 23 2d 3d e5 1a d5 3d
       0.011473847 -0.08183064 0.042270623 0.1040552
0000d0 88 64 f0 bd 8d 32 b3 3d 1b 92 fd 3d b4 84 35 3d
       -0.11737925 0.08749876 0.12381383 0.04431601
0000e0 1e 85 d4 bd c6 3c 0b 3e fe 70 c9 3d 39 76 f7 bd
       -0.103769526 0.13597402 0.09836005 -0.12083096
0000f0 0e 67 67 3d 19 94 f3 3d db f0 88 3d 0c 8c d8 bd
       0.056494765 0.11893482 0.066865645 -0.10573587
000100 cd 15 e3 bc 2d 35 22 bd 97 41 bb bd 8c 0e 89 3d
       -0.027720356 -0.039601494 -0.0914337 0.06692228
000110 7b 3d ed bd 6b 36 a7 3d 7b 77 9e bd 4c c8 91 3d
       -0.11583992 0.08164676 -0.07737633 0.07118282
000120 40 91 c2 bd 49 eb 90 bd ae ff 60 bd e0 81 82 3d
       -0.095003605 -0.07076127 -0.054931335 0.06372428
000130 4a 21 31 3d fd e7 af 3c e1 a2 e3 3d c5 de dd bd
       0.043244638 0.021472925 0.11115051 -0.108335055
000140 37 02 13 be 40 07 0b 3e 01 c0 12 3d c6 76 c1 bd
       -0.14356314 0.13576984 0.03582764 -0.09446482
000150 c8 40 8e 3d 78 f8 47 bd fe c5 e5 bd c7 4a b6 bd
       0.0694595 -0.048820943 -0.11219405 -0.089009814
000160 63 09 43 bd 4b 7a ca bc 3a 09 ac 3d 41 7b 5d bc
       -0.047616374 -0.024716517 0.08400197 -0.013518156
000170 ae 93 b4 bc 0b 1a 08 be fb 2a 38 3d 96 c4 be 3d
       -0.022043075 -0.13291185 0.044962864 0.093148395
000180 fe f2 f7 bd 9d 37 3a bc ee 96 53 bd 89 e6 90 bd
       -0.12106894 -0.011365798 -0.05165761 -0.07075221
000190 cb 12 b1 3d 68 e9 0e be 40 cc db 3d f5 44 43 3d
       0.086461626 -0.13956225 0.10732317 0.047673184
0001a0 b3 dd a5 bc 84 0b 44 3d d1 43 00 bd 25 c2 8a bd
       -0.020247316 0.047862545 -0.031314675 -0.067753114
0001b0 72 48 cb bc 34 1a 85 bd 64 57 85 3d 07 19 de bc
       -0.024814818 -0.064991385 0.06510809 -0.027111543
0001c0 f6 32 f1 bd 6c d7 76 3d bc ca 97 bd f9 65 28 be
       -0.11777298 0.060264036 -0.074117154 -0.1644515
0001d0 26 ba f2 3d 94 f2 18 bd f5 4f 8d 3d 45 55 a5 3d
       0.11851911 -0.037340716 0.06900016 0.080729045
0001e0 34 f4 7a bd 1a 41 ad 3c bd 84 45 bd b9 93 6a 3d
       -0.061268046 0.021149207 -0.048222292 0.057269786
0001f0 58 1b 9c bd 7c cf 6e bd a5 e8 fb bd 29 82 d3 bb
       -0.07622403 -0.05830334 -0.12300233 -0.0064547253
000200 21 0d d5 3c 36 54 b5 bd ba 85 8b 3d 1f 95 26 be
       0.026007237 -0.088539526 0.06812616 -0.16267823
000210 fd 19 f9 3c 2d 4c 4c 3c c9 67 d9 3d 49 14 d2 bd
       0.0304079 0.012469334 0.106154986 -0.10257775
000220 d2 21 64 bc c8 dc ca 3d c9 51 1f bd 50 97 2b be
       -0.013924079 0.09905392 -0.038896356 -0.1675694
000230 98 aa 50 bd c5 52 9c 3e c4 85 ae 3d 77 43 e4 3c
       -0.05094394 0.30531898 0.085216075 0.027864201
000240 11 6c 2c 3e 8a 07 16 3d 70 e7 d3 bd 8c 9b 4f 3e
       0.16838099 0.036628284 -0.103468776 0.2027418
000250 71 d1 1a 3e bc 0e 7a 3d ee b3 72 3e c4 59 a5 bd
       0.15118958 0.061049208 0.2370145 -0.08073762
000260 fd a9 0d 3e 36 9b f8 3d 23 81 96 bd 7b f1 8f be
       0.13834377 0.12138979 -0.073488496 -0.28113922
000270 44 2e 67 be 86 c2 79 bd fd 2c 13 bd f7 61 83 3e
       -0.22576243 -0.060976528 -0.035931576 0.2566068
000280 77 df 43 3e 64 c5 85 bd 62 4d 7f 3d 75 ba 17 3c
       0.19128214 -0.0653179 0.062329657 0.009260763
000290 35 e4 91 bd 95 63 80 3d 9b b5 a3 3c 31 0f 3d 3e
       -0.07123605 0.06268994 0.019984057 0.18462826
0002a0 25 3b aa 3e 23 96 d7 3c 7e 2f a9 3c c0 de ea bd
       0.3324825 0.026316708 0.020652529 -0.114682674
0002b0 ba e2 aa 3d aa e1 30 3e 6c fd 29 be c6 fa 04 3e
       0.08344026 0.17273584 -0.16600579 0.12986287
0002c0 07 5c f4 3c af 01 53 bb 07 a5 f4 3d 7e 7a 24 3e
       0.029829038 -0.0032197048 0.11945539 0.16062352
0002d0 7b 29 10 bd b8 cd 69 be 70 5e 4c bd e2 54 0d 3e
       -0.03519581 -0.22832382 -0.04989475 0.13801911
0002e0 ba 99 47 be 4c c4 23 3d 77 8c a3 3e 3b b6 af 3d
       -0.19492236 0.039982125 0.31943104 0.085796796
0002f0 af 10 5e bb f5 6c a7 bd a8 1d 44 bd 60 6b a9 bd
       -0.0033884456 -0.08175079 -0.047879845 -0.08272433
000300 3e 76 ab 3d 91 91 f7 bd bd 6b a4 be 24 58 59 ba
       0.08372162 -0.120883115 -0.32113448 -0.0008291027
000310 ad b5 41 bd a6 a8 11 ba b1 a5 d3 3d e7 6f 01 3e
       -0.0472924 -0.00055564416 0.103343375 0.12640344
000320 62 fa 60 3c c4 33 4e 3e 4a e3 71 3e c0 28 3a 3e
       0.013731571 0.20136935 0.2362186 0.18179607
000330 cb 2b ac 3d 70 cd ae 3d b3 60 9f bc 08 29 45 3d
       0.0840679 0.08535278 -0.01945529 0.048134834
000340 d5 cf 64 3d f2 59 63 3e b9 14 b0 3d 69 47 0b 3d
       0.055862267 0.2220228 0.085977025 0.03400365
000350 99 d8 fd bd 5a 7d 92 3d 2e f1 4f 3e 78 05 26 be
       -0.12394828 0.07152815 0.20306846 -0.16213024
000360 a5 3c 07 be 23 0a 06 3d 18 17 e2 3d 7b 6d d5 3e
       -0.13206728 0.03272451 0.11039561 0.4168509
000370 42 50 a9 bd a3 c6 22 3e 4d 2d 61 bd 04 e1 05 3e
       -0.08267261 0.15896086 -0.054974843 0.13074118
000380 f9 13 ae 3d 9c c9 20 be c1 eb a6 3d f4 4d c1 3b
       0.08499903 -0.15701908 0.08150435 0.0058991853
000390 1c a1 7c 3e 3f db 31 bd b5 e3 7a be 20 9c 69 3e
       0.24670833 -0.04342198 -0.24500926 0.22813463
0003a0 81 0e ab 3e f4 eb 35 be a3 a5 29 3e 87 c1 4a bd
       0.33409503 -0.1776579 0.16567092 -0.04950097
0003b0 9a dc cb 3d cd d9 37 bd fb 27 0b bd 1a 08 02 be
       0.09954186 -0.044885445 -0.033973675 -0.12698403
0003c0 41 62 98 bd 94 8d 12 be 24 6b ac bd 06 41 98 3c
       -0.074406154 -0.1431182 -0.08418873 0.018585693
0003d0 05 ef 74 bd 22 6a 05 bb 00 b4 46 bd cf 47 79 bd
       -0.05979826 -0.002035745 -0.048511505 -0.060859498
0003e0 0d ba 1b 3d d2 f1 f1 bc 4b 00 05 3e 0b f1 11 3c
       0.03801923 -0.029534254 0.12988393 0.008907567
0003f0 53 d6 10 be 70 e1 66 3d 49 27 0d be ee b8 11 bd
       -0.14144258 0.056367338 -0.13784517 -0.035576753

bias f4 [23]
000000 82 55 a2 bd 70 09 da bd c7 45 fb bd 83 b2 cd 3d
       -0.079264656 -0.10646331 -0.12269168 0.10043814
000010 94 d2 ab bd c6 c6 db 3d b4 19 ed bd 52 bf 91 3c
       -0.08389774 0.107312724 -0.11577168 0.017791424
000020 c3 c7 19 3e 40 cb 20 3e 05 d0 ca bd b3 d8 36 3e
       0.1501761 0.15702534 -0.09902958 0.17856102
000030 54 6a 1a be b7 1d 97 3d 50 84 18 bd b8 34 46 3d
       -0.15079623 0.073787145 -0.037235558 0.04839012
000040 cd f1 f4 3d 0d 1e d7 bc 68 fc 01 be e3 8f c5 3d
       0.11960182 -0.026259447 -0.12693942 0.09646585
000050 38 94 01 be 6c 00 e1 bd 1d 4b 16 3d
       -0.12654197 -0.109864086 0.036692727

weight f4 [9, 23]
000000 d8 5b 83 bd 92 9b 4c 3e 07 ab 03 be 7f 96 99 bd
       -0.06414002 0.1998122 -0.1285821 -0.07499408
000010 f0 1d 98 3e 6c 06 b7 bd 6a 2d 74 bc 0f c5 64 be
       0.2971034 -0.08936772 -0.014903406 -0.22340797
000020 e8 c0 9e 3e c0 8a 87 be d6 5e 1d be ba dc ab 3e
       0.3100655 -0.26473045 -0.15368208 0.33566839
000030 9b 5a 62 bd 00 46 88 3e 3c f8 0c 3e 9f 59 2a be
       -0.05526219 0.26615906 0.13766569 -0.1663575
000040 41 71 88 3e f4 09 87 bd 9a 1c 2b be 0b 8d 66 3e
       0.26648906 -0.06593695 -0.1671013 0.22514741
000050 fc e6 96 3d 11 cd a2 be 5f 71 3a be c4 fe ab bc
       0.073682755 -0.31797078 -0.1820731 -0.020995505
000060 47 81 a1 3d 7f 84 02 be ce 91 ae bd fd 94 e6 3d
       0.07885986 -0.12745856 -0.08523904 0.11258886
000070 5f 62 97 3d 22 18 aa be bb d6 49 3e 30 93 6e be
       0.0739181 -0.33221537 0.1971082 -0.23298335
000080 c6 eb 6c 3c 18 d3 ea 3d b3 fb b6 3d 8c 4d 41 3e
       0.01446051 0.11466044 0.089347266 0.18877238
000090 ea ef 84 be 96 de 2c 3e d6 6f 3d be 55 3e 44 3e
       -0.2596429 0.16881785 -0.18499693 0.19164403
0000a0 57 04 97 3d 41 fd 1d be 06 17 fc 3d 5e 19 2b 3d
       0.07373875 -0.1542864 0.12309079 0.04177224
0000b0 1c 6b a5 be d1 91 db 3d 32 ac 8c bc 8b 42 3e 3e
       -0.3230828 0.10721172 -0.017171953 0.18580072
0000c0 fb 89 bc bc 5b 93 da bd 6f d1 eb bd 99 04 5f 3e
       -0.023015013 -0.10672637 -0.11514556 0.21779098
0000d0 f2 3d dd be e5 8c f7 3d e1 c8 74 be 54 57 95 be
       -0.43211323 0.120874204 -0.23904754 -0.2916819
0000e0 cd 1f 30 3e 53 cd a1 3e 44 b1 5c 3e ee 0c 8d be
       0.17199631 0.31601962 0.21551996 -0.27548927
0000f0 f5 a2 20 be ad 37 c7 bd fe 7a 4d 3d ee 49 c8 3d
       -0.15687163 -0.09727416 0.050166123 0.09779726
000100 63 6a 84 bd ef 6c c4 bd 95 36 1d 3b 93 99 f6 3d
       -0.06465604 -0.0959109 0.0023988832 0.12041011
000110 ab e0 2d be 73 d7 66 bd e1 28 8e bd 7f 5d 25 3e
       -0.16980235 -0.056357812 -0.06941391 0.16148947
000120 57 a9 58 3e 58 06 30 be d8 39 3d bd 87 6c 2b 3e
       0.21158348 -0.1718992 -0.046197742 0.16740619
000130 b5 28 d3 be 54 9b 4c be fd e9 81 3e 27 91 6c bd
       -0.41241995 -0.19981128 0.2537383 -0.057755616
000140 d9 c4 8a 3d 9d 60 9a 3d 88 ee b1 bd 74 c7 d0 3c
       0.06775827 0.07537959 -0.08688074 0.025485732
000150 d7 28 26 be 75 96 0d be 9d 74 b9 3b bb bc c6 3a
       -0.16226517 -0.13826926 0.0056596533 0.0015162447
000160 db 88 c8 bd d1 2b 9d bd e8 e6 2e 3e 28 e7 9d 3e
       -0.09791728 -0.07674373 0.17080271 0.3084042
000170 43 2d 3b be 9a dd 41 3e 96 6f 14 3c 96 cb 8f 3e
       -0.18278985 0.1893219 0.009059807 0.2808501
000180 99 54 ba be 65 91 31 3e 1a 39 50 3e d1 72 82 be
       -0.36392668 0.1734062 0.20334283 -0.25478223
000190 d8 c5 2d be 95 73 df 3c cb 2f 55 3d a9 80 94 3d
       -0.16970003 0.027276793 0.052047532 0.072511025
0001a0 b2 61 53 bc 9f 53 1d 3d 9f 89 ce bd bf 88 0b 3d
       -0.01290171 0.038409825 -0.10084843 0.034065958
0001b0 4a 5e a0 3c 68 c1 f7 3d e2 9d 56 be cf ec 58 3e
       0.01957621 0.12097436 -0.20958665 0.21184085
0001c0 32 1f 1a bd cd 60 47 3e f3 ef 84 3e fc 9d 07 3d
       -0.037627406 0.1947052 0.25964317 0.03310965
0001d0 8b 24 37 bd 45 c6 61 bc 79 46 ae 3e 22 51 12 3e
       -0.044712584 -0.013780181 0.3403814 0.14288762
0001e0 cc 25 16 be bf 54 41 3e 7d da c8 be fd 76 80 3e
       -0.14662856 0.18879984 -0.39229193 0.2509078
0001f0 5d 90 8c be bb bf b4 3d b6 b2 d2 bb 53 4f 33 3e
       -0.2745389 0.08825632 -0.0064299954 0.17510729
000200 e1 8a df 3d e5 14 2a be d5 94 3d bd df e6 8a bc
       0.10915161 -0.16609533 -0.046284515 -0.016955791
000210 fe 6d 28 3d 0f 65 0b 3e 99 9c 13 bd bc f8 ec 3d
       0.04112052 0.1361277 -0.036038015 0.1157088
000220 4c 76 8b 3d 84 db 97 be 27 3b 4c 3e e7 b4 36 be
       0.06809673 -0.29659665 0.1994444 -0.17842446
000230 3f 5e 23 3e d7 05 94 bd da dc 2a 3e 15 21 fa bc
       0.15953921 -0.07227676 0.1668581 -0.030533353
000240 67 b4 2b be 81 09 03 3d 0e 6c 05 3e 83 69 3f 3e
       -0.16768037 0.031991486 0.13029501 0.18692593
000250 e8 f5 87 3d cf 24 91 3e 03 a2 a9 bd 43 08 2e 3e
       0.066387 0.28348395 -0.082828544 0.16995339
000260 1e 1b 8c 3e 2f 51 36 be 7b e9 bc bc 72 0b 7a bc
       0.2736444 -0.17804407 -0.02306055 -0.015261518
000270 ff 2a 0d 3e be ed 28 3e b1 4a cc 3d b1 9e 98 be
       0.13785933 0.16496941 0.09975184 -0.29808572
000280 0c 3c 56 be 9b cd c1 3d ef bf 8d bd 60 0d 46 3e
       -0.20921344 0.09463044 -0.06921374 0.1934104
000290 ce 33 c7 3c f2 92 ea 3c 52 2d 91 3d 07 db 33 3e
       0.024316695 0.028634522 0.07088722 0.17564021
0002a0 77 76 c4 3d b6 2f 1d be a7 78 c8 bc 39 45 14 3e
       0.09592908 -0.15350232 -0.024471594 0.14479531
0002b0 9e d4 65 bd 1a f6 22 be dc 39 6b be 13 dd 3d be
       -0.05611097 -0.15914193 -0.2297129 -0.18541364
0002c0 ab d6 06 be 81 35 19 be c0 b8 5e bd f5 a1 e2 bd
       -0.13167827 -0.14961816 -0.05437541 -0.11066047
0002d0 25 23 45 bc 34 03 02 3e 18 e0 0d 3e 53 ef 4f be
       -0.012032305 0.12696534 0.13855016 -0.20306139
0002e0 ac cf 33 3e 61 3d 92 bd 66 94 df 3d 67 14 3b 3b
       0.1755969 -0.07140613 0.10916977 0.0028546096
0002f0 d0 5c 52 3e 81 f4 bc 3c f7 96 24 bd d2 b9 d0 bd
       0.20543218 0.023065807 -0.040183034 -0.101916924
000300 46 f0 28 be 08 9f bd 3e d9 c6 39 be e1 de d7 3d
       -0.16497907 0.37035394 -0.1814226 0.10540558
000310 47 21 c9 bd bf b3 43 be f9 ff d4 bd c3 b4 11 3d
       -0.098208 -0.19111536 -0.104003854 0.03557278
000320 f3 aa 1c 3e 86 8f 00 be 2d a2 4a 3e b8 21 36 3e
       0.15299587 -0.1255475 0.19788428 0.177863
000330 52 f3 a8 3d d4 46 da bd c7 70 86 3e
       0.08249535 -0.10658041 0.26257917

bias f4 [9]
000000 d9 e4 52 3c e2 59 81 3d 96 57 d9 bd b5 b7 8c 3e
       0.012871944 0.06315972 -0.10612409 0.27483907
000010 38 17 33 3e e1 ad 16 be 8c 6e 0f 3e 97 83 28 be
       0.17489326 -0.14714767 0.14007014 -0.16456448
000020 57 24 e9 3c
       0.028459711

weight f4 [23, 9]
000000 c0 ee 9d 3c 32 55 a6 3e 90 e5 b1 3d 38 a3 8c 3e
       0.019278884 0.32486874 0.08686364 0.27468276
000010 56 5a 23 bd 96 40 fd 3c 9e 46 2b be 53 71 45 3e
       -0.039881073 0.030914586 -0.16726157 0.19281511
000020 f2 f2 87 be 3c 79 3a bd 0c 92 45 3e 19 35 26 3e
       -0.2655254 -0.045525774 0.19293994 0.16231193
000030 49 4b fd bd 9b c8 46 be a1 df 63 be 74 94 42 bd
       -0.12367875 -0.19412462 -0.22253276 -0.047504857
000040 ec dd 9a 3e c6 ce 37 3d a2 9a b1 be bd 26 9c 3c
       0.30247438 0.04487493 -0.34688288 0.01906144
000050 b9 bc 9e be 3b 65 b1 3e c3 ab 10 be ae ef 0d bf
       -0.3100336 0.34647545 -0.14128022 -0.5544385
000060 6c 18 26 3e ec ba 41 3e ea b9 5a 3e 14 25 98 3e
       0.16220254 0.18918961 0.21359983 0.29715788
000070 e9 2b 8d bd 7c 71 52 3c 98 93 9d be 62 de 87 be
       -0.06893141 0.01284444 -0.30776668 -0.26536852
000080 39 1f 19 3e f9 cf 4c 3e 48 f5 b0 bc 35 0a cc be
       0.14953317 0.2000121 -0.021601334 -0.39851537
000090 bf de d5 be ff a4 db bd 9e 12 d0 bd 87 1d af 3e
       -0.41771504 -0.1072483 -0.10159801 0.34202215
0000a0 ea b9 71 bd 4f 7c 30 3e eb be cf bb 34 d5 0b bd
       -0.059015192 0.1723492 -0.006339898 -0.034138873
0000b0 cd 49 06 3e ed bc ab be 49 fa ea bd 1f 15 5e 3e
       0.1311409 -0.33542576 -0.11473519 0.21687745
0000c0 3e 5e 1f be 76 5e b3 be 42 3d 3b be 89 73 0f bd
       -0.15563294 -0.35033005 -0.18285087 -0.035022292
0000d0 42 b4 04 be ca 2c a9 bd 54 d2 37 be e4 4c 1d be
       -0.12959388 -0.08260496 -0.17951328 -0.15361363
0000e0 63 6b 8a 3e de 1b 55 be 65 15 a9 3c ad 2b f8 3d
       0.27035055 -0.20811412 0.020640085 0.121177055
0000f0 2e 14 ac 3b a0 de 0e be 30 ee e4 bd 7f 19 4b 3e
       0.005251429 -0.13952112 -0.11178243 0.19833945
000100 1d 2b 47 3e 2a 7d 62 bd d5 89 25 bf 5a b3 7c be
       0.1945004 -0.055295147 -0.6466344 -0.24677792
000110 d0 f8 9f 3e b7 1b a1 3e 61 08 78 bc df 61 0b bf
       0.31244516 0.31466457 -0.015138716 -0.54446214
000120 b0 92 90 3e 03 c3 c0 be 60 d3 98 be e5 98 ca 3d
       0.28236914 -0.37648782 -0.29848766 0.098924436
000130 12 34 75 3c cb 93 94 3e 59 2f 6b be 59 a3 35 be
       0.014966028 0.29019007 -0.2296728 -0.17738093
000140 a2 2b 22 bf 1e 0c 89 3e 52 47 17 be 3a bc 16 3e
       -0.6334783 0.26767057 -0.147733 0.1472024
000150 6b 91 0a 3d 4d b5 9f bd a8 a8 a4 3e 9d 56 b2 3e
       0.033830088 -0.07798252 0.32159925 0.34831706
000160 4e cd 60 3d 17 3b 23 3e 87 a7 96 be 26 35 e1 bd
       0.054883294 0.1594051 -0.29424688 -0.109964654
000170 1f a6 1d 3e 7e 41 df 3d f2 73 90 3d 7e 4e 17 3e
       0.15395401 0.109011635 0.07053365 0.14776036
000180 dd 22 05 bf e3 61 6c 3e 0a d0 94 3e b0 31 41 be
       -0.5200632 0.23084216 0.2906497 -0.1886661
000190 00 2d 74 be 5f 6f b0 3d 9f 7e b2 3d d1 7a c7 3e
       -0.23845291 0.08614992 0.08715557 0.3896089
0001a0 8a a4 34 3e f1 64 89 bd 7c 7a 21 be 9b c2 ac 3e
       0.17640892 -0.06708706 -0.1576938 0.33742222
0001b0 9b b2 89 be a1 09 76 3e 38 97 70 be 18 2f 85 3e
       -0.26894078 0.2402711 -0.23495185 0.26012492
0001c0 6d 14 1a 3e 89 ef 19 be d3 e0 a7 bd 78 c4 c2 bd
       0.15046854 -0.15032782 -0.08197179 -0.0951013
0001d0 4f 4e 0c bd e3 db b4 3d e8 7b 8d 3d 4e 45 71 3e
       -0.03425437 0.088310026 0.06908399 0.23561594
0001e0 55 e9 32 bd d4 fd 17 3d 29 a1 01 be 25 c8 b6 3e
       -0.043679554 0.037107304 -0.12659134 0.35699573
0001f0 a1 09 a2 be 64 7f e4 3e 25 82 b8 3e e2 73 1a bd
       -0.3164797 0.4462844 0.36036792 -0.03770817
000200 51 f5 ee be 98 01 7f 3e 0f 40 ac 3e ff f2 a7 3e
       -0.46671537 0.24902952 0.33642623 0.3280258
000210 8f 7b 30 be c0 78 81 3a 13 40 45 3e ad 2e 09 3e
       -0.17234634 0.0009877905 0.19262724 0.13396712
000220 4b 97 8c 3e 7b 05 bb be 7b 13 81 be f4 c5 3c be
       0.27459177 -0.3652762 -0.25210175 -0.18434888
000230 92 d4 87 be e2 cd b7 3e 2d e4 df bc e3 de 72 3e
       -0.26529366 0.35899264 -0.027330482 0.23717837
000240 9b 52 cd be 38 fc 87 bd 6c 75 0b 3e 71 9e 48 3e
       -0.40102085 -0.06639904 0.13619012 0.1959169
000250 05 ba b4 bd 1b c9 5b be 3f 67 fa bd d1 c7 4b 3e
       -0.08824543 -0.21463434 -0.12226724 0.19900443
000260 a2 5b 65 3e 94 f2 9f 3e 2b f1 a7 3d ae 74 ea 3c
       0.22398236 0.3123976 0.08200296 0.02862009
000270 17 a1 13 bd 15 52 78 bd 96 66 8f be 91 e2 78 3e
       -0.0360423 -0.060625155 -0.28007954 0.24305178
000280 97 44 2f bd 32 f5 16 3e 6b ed e8 be 28 ce 00 be
       -0.04279002 0.14741972 -0.45493636 -0.12578642
000290 33 0b 63 3e 41 ca 24 3e da a2 9c 3e 90 5b 1f 3e
       0.22172241 0.16092779 0.30592996 0.15562272
0002a0 67 24 d8 be 4a 12 a5 3e 13 0b ee bc 46 8c 02 be
       -0.42215273 0.32240516 -0.029058015 -0.12748823
0002b0 59 55 a3 3e 93 5b e3 bd 10 dc e3 3e 7f b5 ec 3e
       0.31901053 -0.11101451 0.44503832 0.4623222
0002c0 11 c9 84 3d 5c de 99 3e b4 b6 99 be e8 67 b1 bd
       0.06483663 0.3005246 -0.30022204 -0.08662397
0002d0 5f 3f 49 3e a5 a6 d5 3e b6 83 16 3d 9c a2 5c be
       0.1965308 0.41728702 0.036746703 -0.21546406
0002e0 0f 07 9e bd 9f 33 ae be a4 14 88 be 2e 41 97 be
       -0.0771619 -0.3402376 -0.26578248 -0.29541916
0002f0 b8 60 6f 3e ca 22 4f 3e f7 65 8a bd 86 ab 9d be
       0.23376739 0.20228115 -0.067577295 -0.30794924
000300 52 92 85 be 6e 4e 87 be 6e fd 2b be 03 54 8f 3e
       -0.26088196 -0.26427025 -0.16795895 0.27993783
000310 88 11 45 3e 9f 14 8d 3e 3f d7 7a be 6a 9d a5 bc
       0.19244969 0.27554795 -0.24496172 -0.020216662
000320 93 3d a5 3e 46 a7 6b be 30 ae 66 be d6 2f 37 bc
       0.3227354 -0.23013029 -0.22527385 -0.011180839
000330 23 08 8c bd 54 92 52 be 50 92 9a 3d
       -0.068374895 -0.20563632 0.07547438

bias f4 [23]
000000 f0 57 1b be af 03 89 be 6b b1 18 3e 90 77 ae be
       -0.15170264 -0.26760623 0.1491143 -0.34075594
000010 63 b7 d4 be 19 8a 12 3e 33 e1 62 3c 34 af 70 be
       -0.41546163 0.14310493 0.013847637 -0.23504335
000020 40 88 c8 3e b5 9a 54 be 43 b6 ff bd 0b 01 5c 3e
       0.3916645 -0.20762141 -0.124859355 0.21484773
000030 da c6 0b 3a be ad cf 3e 39 a2 41 3d 29 e0 06 be
       0.00053320604 0.40562242 0.04727385 -0.13171448
000040 1e 84 1f 3e 61 b4 14 3e ab 1f 12 bd 8b 6e c9 3d
       0.15577742 0.14521934 -0.035674732 0.098355375
000050 df 77 85 be 0a 2c 8a be 93 19 e8 bd
       -0.26068017 -0.26986724 -0.11333003

weight f4 [47, 23]
000000 05 35 ef bd cf 06 0d 3d ce 45 0e bd 23 ca a6 bd
       -0.116800345 0.03443032 -0.03473454 -0.08144023
000010 cf 1c 38 3c 0f 4b ec bd 09 46 9b bd 4d 84 fc bd
       0.011237337 -0.11537754 -0.075817175 -0.12329922
000020 3c 19 1a 3c d0 23 a7 bd 24 fd f8 3c f1 79 94 3c
       0.00940543 -0.081611276 0.030394144 0.018124552
000030 f5 c6 01 bc e8 69 94 3d fb ec 5e 3e 47 59 08 bd
       -0.00792097 0.072467625 0.21770088 -0.033288267
000040 6c 9e 43 bd 81 95 31 3e 95 df db 3d 40 8f d1 3c
       -0.047758505 0.17342187 0.10736004 0.025581002
000050 bb dc 79 be f7 eb 36 be a9 ab 72 3d 8c 8b 24 be
       -0.24400608 -0.17863451 0.05924574 -0.16068858
000060 a9 cc 39 3e 84 ea 0c 3e b2 7b ef bc 7d 40 a9 be
       0.18144478 0.13761336 -0.029233787 -0.33057013
000070 92 d1 9c bd 33 b3 42 be 23 a9 00 bd 9b 46 75 be
       -0.0765716 -0.19013672 -0.0314113 -0.23952715
000080 b6 43 f7 3d 6d 18 4b 3e e6 ba f5 bd fa d4 ce bd
       0.12073462 0.19833536 -0.11998539 -0.10099216
000090 51 c1 8e 3e 1d 15 10 3e e7 0b a4 3e 97 cd 14 3e
       0.27881864 0.14070554 0.3204033 0.14531551
0000a0 c6 0f 21 3e f6 96 03 3d 19 9e 2d 3d d1 d6 1a 3e
       0.15728673 0.03212639 0.0423871 0.15121008
0000b0 dd 2e 34 3d 32 3d 32 be 12 2c cf 3d d4 36 9e 3d
       0.043990005 -0.17406157 0.101158276 0.077253014
0000c0 3d ca a4 bd 9b b4 39 3d 64 49 1e be 5f 42 57 bd
       -0.080463864 0.045338254 -0.15457684 -0.05255353
0000d0 f2 99 cf bb 49 22 41 bd 9d 98 84 3c c7 93 11 3e
       -0.0063354904 -0.047151837 0.016186053 0.14216529
0000e0 88 57 1c 3d 60 5f 00 3e a8 94 3b 3e 02 5b 05 be
       0.038169414 0.12536383 0.18318427 -0.13022998
0000f0 ed 5a 2a bd 60 9e 00 be b6 cb 19 be 5a a9 28 3c
       -0.04159062 -0.12560415 -0.15019116 0.010294283
000100 c0 e9 6c bd 89 b2 16 be 49 76 ef bd 8b 5b 6d bd
       -0.05784011 -0.14716543 -0.11692483 -0.05794863
000110 94 47 97 bd aa 2e 48 bd 05 e2 4a 3d b6 55 00 be
       -0.07386699 -0.048872627 0.049531955 -0.12532696
000120 77 cc 0d be 44 df 38 be 4f 10 2c 3e 19 0d 3b bd
       -0.13847528 -0.18053919 0.16803096 -0.045666788
000130 23 a4 fb 3c 75 90 14 3e cd 2f 40 3d 98 90 17 bd
       0.030717915 0.14508231 0.046920586 -0.03700313
000140 53 5f d1 bd 52 1b 4e bd b5 0e 41 3d 45 28 17 be
       -0.1022326 -0.050319023 0.047133166 -0.14761455
000150 46 28 21 bd f0 60 e4 bb 48 35 70 be f7 30 d1 3d
       -0.03934505 -0.0069695637 -0.23457825 0.102144174
000160 05 d8 99 3d d9 35 21 be 4e c0 15 be a9 f2 37 3e
       0.075119056 -0.15743198 -0.1462414 0.17963661
000170 f3 c1 ce 3d fe 4c 20 be 72 25 c9 3d e4 69 c9 3d
       0.10095587 -0.1565437 0.09821595 0.0983465
000180 5a 9d 6b bd 79 20 4a be 61 8a 36 be 42 a8 be 3d
       -0.05752311 -0.1973895 -0.17826225 0.093094364
000190 a6 c6 75 be 51 8b 9e bd 3d 80 8c 3e 7c c3 0b be
       -0.2400156 -0.07741416 0.27441588 -0.1364879
0001a0 07 26 84 3c 2d 48 2a bf fc 3b 98 bb 30 fe 01 be
       0.016131414 -0.6651638 -0.0046458226 -0.12694621
0001b0 ba 49 3b 3e 91 b1 9f 3d 9c f8 c2 3d 90 79 12 3e
       0.18289843 0.0779754 0.09520075 0.14304185
0001c0 86 74 27 3e 1b b0 69 bb 01 56 b8 3d 01 c8 a4 3d
       0.16353044 -0.0035657946 0.09000779 0.0804596
0001d0 a3 ae 8c bd 59 24 98 3d b1 55 b5 bd 51 a9 f3 bd
       -0.06869247 0.07428808 -0.08854235 -0.11897529
0001e0 04 f7 80 bd 92 5a 85 3d 8f 39 be bd d7 b3 1a 3d
       -0.062971145 0.065114155 -0.09288322 0.037769165
0001f0 20 e5 8d 3e ac 3a 3c 3d 77 74 a5 bd 1e 1e 7c 3e
       0.2771387 0.04595439 -0.080788545 0.24620864
000200 7d 62 05 3e 15 e5 22 be e3 9a 80 3e e1 3a ff bd
       0.13025852 -0.159077 0.2511817 -0.12462402
000210 1d 2a 35 3e 2e ca 69 bd 6e 4b 3e 3e f9 90 a5 3c
       0.17691846 -0.05707758 0.18583462 0.02021073
000220 32 7b 16 bd 88 e2 2a 3e 19 d9 36 be f4 e5 1e 3d
       -0.036738582 0.16687977 -0.17856254 0.03879352
000230 d2 04 c3 3d 85 2b 82 bd 0b 77 e1 bd 7b c0 4b 3e
       0.09522404 -0.06355957 -0.11009034 0.19897644
000240 0c f5 81 3c ce 9a 54 be dc ca 93 3d 43 44 08 be
       0.015863918 -0.20762178 0.07216427 -0.1330729
000250 90 9c ef 3d ec 7e 6d 3e 45 58 88 be 46 2f 05 be
       0.11699784 0.23192948 -0.26629844 -0.13006315
000260 3e 0f 57 3e 1d 2d df 3c a2 4b 97 bd 11 b5 3d bd
       0.21001908 0.027243191 -0.07387473 -0.046315257
000270 92 ca 26 3e 2c 2e ac 3e 1f a5 ee bd db e8 fb 3d
       0.16288212 0.33628976 -0.11652588 0.12300273
000280 dc 50 95 ba b2 34 cf bd 51 af 3f 3e 20 7e 89 be
       -0.0011391896 -0.10117473 0.18719222 -0.26854038
000290 08 fa 83 be 2b ef 94 3d 1c 13 24 3e 56 b5 1b 3e
       -0.25776696 0.0727218 0.16022915 0.15205893
0002a0 57 7a 35 be af 59 ed 3c 55 2c b3 3c e0 e1 49 3e
       -0.1772245 0.028973429 0.021871725 0.1971507
0002b0 8d cd 0e 3d 35 ff 5e be 5e 87 83 3d 54 d1 3f 3e
       0.034863997 -0.21777041 0.064223036 0.18732196
0002c0 cb b4 02 3e 1d 39 ae 3c 1b 8a 4b be b6 21 63 be
       0.1276428 0.021267468 -0.19876902 -0.22180828
0002d0 95 62 42 3b 43 74 1c 3e 2a eb 17 3e f8 a9 45 3e
       0.002966081 0.15278725 0.14835802 0.19303119
0002e0 37 20 99 bd 32 09 00 3e d0 e9 bb be 9e 5b f7 bc
       -0.074768476 0.12503508 -0.36701822 -0.030195054
0002f0 f3 02 41 3e 06 91 6a 3d 41 63 3d be bd eb 84 3e
       0.18848781 0.05726721 -0.18494894 0.25961104
000300 30 2c 60 3e d2 cf c6 3d 89 85 c1 be ef f3 66 3e
       0.21891856 0.09707607 -0.37797192 0.22553991
000310 ae 7e d8 3e 51 84 0e be 88 14 63 bc eb 0a e9 bd
       0.4228415 -0.13917662 -0.0138598755 -0.113790356
000320 f8 bf 17 3e 29 c2 83 be 2c 35 40 be 43 07 3d be
       0.14819324 -0.2573407 -0.18770283 -0.18459801
000330 29 52 08 be a8 c6 88 3d b8 79 50 3e bf f2 48 bd
       -0.13312592 0.06678516 0.20358932 -0.049059626
000340 17 24 08 3e bf ae 1e be 13 90 ca bb d0 52 2a bd
       0.13295017 -0.15496348 -0.0061817258 -0.041582882
000350 e0 cd 0e be 32 b5 cc bd c4 61 2f bd df 80 7b bc
       -0.13945723 -0.09995498 -0.042817846 -0.0153505495
000360 d4 7a c5 bd 6c aa 3c be e4 92 81 3c 65 9c 86 bc
       -0.09642568 -0.18424386 0.015817113 -0.016431997
000370 13 54 c7 bd f1 7c 20 be 8c 7e e8 3d 4c ca 50 bd
       -0.09732833 -0.15672661 0.11352262 -0.050974175
000380 bb 75 15 be 3e c8 17 3e d6 31 46 3d 51 2a d8 bc
       -0.14595692 0.1482248 0.04838737 -0.026387366
000390 15 65 54 be de 7f 02 bd 29 cb 93 bd c9 70 21 3e
       -0.20741685 -0.031860225 -0.07216484 0.1576568
0003a0 b1 ec d6 bd e0 ce 1b 3e cf 42 60 3e bc 81 eb 3d
       -0.10494364 0.15215635 0.21900485 0.11499354
0003b0 9a 0e 51 3d 56 16 5f 3e 81 81 c1 bd f9 a9 23 3e
       0.051039316 0.21785864 -0.09448529 0.15982808
0003c0 ce ee 97 3d ef 44 54 be e1 07 6d be 2a c4 1c 3d
       0.07418595 -0.20729421 -0.23147537 0.038273014
0003d0 16 0a 5e 3e f1 bc 10 3e 05 93 d9 bd c7 d6 cc bd
       0.21683535 0.14134575 -0.10623745 -0.10001903
0003e0 e3 d2 ac 3d 1b bc f5 3c 26 82 54 3d e1 e9 a7 3d
       0.08438661 0.029996922 0.05188193 0.08198906
0003f0 fe 7a 84 bd f1 67 4c 3b e3 6e 36 3e 67 89 47 3d
       -0.064687714 0.0031189884 0.17815737 0.04871502

bias f4 [47]
000000 3e 9b 8d 3e 25 b8 b0 bd 26 c1 0b be cf f1 29 be
       0.27657503 -0.08628873 -0.13647899 -0.16596149
000010 26 02 91 be 90 bc ae bd b2 85 a6 3b ce 84 1d be
       -0.28321952 -0.08532059 0.0050818557 -0.15382692
000020 f4 12 ad be be 5d a2 3d 89 01 34 be 0f b7 41 be
       -0.33803523 0.07928036 -0.1757871 -0.18917488
000030 69 0f 5e bb ef 54 42 be aa 19 88 bc 32 bd b7 3b
       -0.0033883697 -0.18977712 -0.0166138 0.0056072706
000040 bc 5e 42 3e 5e cc f6 3d f5 04 97 3c df 16 db bd
       0.18981451 0.12050699 0.01843498 -0.10697722
000050 a4 20 3c 3e bc d9 90 bc 51 19 c3 bc fc 92 14 3d
       0.18371826 -0.017681949 -0.023815783 0.036272988
000060 a5 fa 47 3e da d1 71 3e f1 0d bf 3d dc d6 68 3e
       0.19529207 0.23615208 0.09328831 0.22738212
000070 df a9 73 be 30 37 48 be c5 a0 5d 3e 72 96 7e 3e
       -0.2379527 -0.19552302 0.2164336 0.24862078
000080 74 9b 54 be e0 84 7f be 70 11 62 3e e4 8a 3b 3e
       -0.20762426 -0.24953032 0.22076964 0.18314701
000090 5e c3 ad bd f5 4c 36 3e 8a 39 0c be cd c1 c8 3d
       -0.08484529 0.17802794 -0.13693824 0.098025896
0000a0 a7 e9 02 be b4 52 d4 3c 54 6b 32 3e f8 51 35 3e
       -0.12784444 0.025918342 0.17423755 0.1770705
0000b0 f5 10 87 be fa 64 02 3e 76 d7 76 3e
       -0.26380125 0.12733832 0.2410563
