src/ai/autoencoder_v2/data/autoencoder_v2_model.pth (torch, 133674 bytes, 16 tensors)

weight f4 [82, 110]
00000000: 9fc6 4ebc 731d ef3d 763d 9f3c e86d 9fbd
00000010: 5358 173d 7173 9d3c 87f5 cd3c becb 013e
00000020: 9abd 723d b6c9 99bb 5895 78bd dd39 483d
00000030: 9248 06bd d485 9abb 2b3b 003d 3ede 8d3d
00000040: ebbd 8d3d e373 513d db95 833c b4ea 71bd
00000050: a4a4 87bd b198 4f3d 66c9 a339 d9e5 d3bc
00000060: f8e9 8d3c cc0f e23d a0f9 e33d bf33 c93d
00000070: 8351 08bd ccba a5ba 9935 ae3d 1992 e53c
00000080: 2711 f03c 9afb 9bbd a3d9 8ebd d490 64bd
00000090: f160 c5b9 35a9 9bbc 2b3d a2bc d62f bebd
000000a0: 8378 9bbd f04e 5d3b d350 bc3d 5823 0dbd
000000b0: f074 33bd 8106 54bd 4dd7 08bd eadf 99bd
000000c0: 54a2 07bd f4a9 873d 7022 a7bd 52df 1abd
000000d0: 0910 2b3e 3a53 b63d 88a2 a9bd 092f 3abd
000000e0: 2421 243d 8293 c23d bdc7 6ebe bd0d 79bd
000000f0: e8d7 ca3e ae5b 8c3d fd16 783d 178e a93d
00000100: aaaa 053d f2a1 41bb b7bc 1dbc 91a3 013d
00000110: 858c 9e3b ac27 c23c 1b61 a13c a3c5 033d
00000120: 13f6 a9bd 3834 a2bd 20ff 163d b67e 8e3d
00000130: 6a39 53bd a228 9f3d 7a55 8b3d 9bbd 9dbd
00000140: 648e 81bd 6414 013d fcd1 b6bd 9442 c2bc
00000150: 37e2 d7bd 3c6a 7a3d 1f9c 7c3d d2d2 24bc
00000160: 9fc7 e5bd 744b 27bd a5e4 eb3d 2f58 b93c
00000170: 774a 103e b09a a03c 973d 27be 3fab 193c
00000180: 15a1 e4bd 4d2a 94bd 89be 073e 9dd4 9d3d
00000190: 4c89 e43b 529d 0e3e 5e4e 093e 3b70 e43b
000001a0: 8016 36bd b00e 473d dd29 5fbc 1862 b8bd
000001b0: 55a8 8b3d aeb2 813d b642 443d 8867 9d3d
000001c0: 97ab ce3c 195f e7bb 7f0e 2f3c 5944 06bd
000001d0: 51f4 ddbc e5ab 0f3d f351 983d 24f3 6bbc
000001e0: 08a0 d3bc ea74 9abd 266e 9dbd f8d9 4c3c
000001f0: 12e5 9d3d 27d4 8d3d 0ccc 9cbd 55d6 0dbc
00000200: 93a2 403d 5a2c abbc 444b cebc 3657 8fbd
00000210: cf9c b33d 7a0f d13c cda6 2bbb d905 a3bd
00000220: 9fc6 60bd ee73 9a3d f0c8 4fbd 5d5c 453c
00000230: a1bf 3dbc 65ca 9f3d 48c2 163d 77f7 fc3c
00000240: 89ea 93bd c7e5 edbc 6fb2 6fbd 22c7 7e3c
00000250: f470 833d fe49 ab3d 7780 10bd ec6f 90bd
00000260: 6b4a c1b9 3d7c a3bd e457 723d ae69 a53c
00000270: 1e98 14bd 3b32 003d 75ba 12bd 5de6 83bd
00000280: 233c 8dbd 3529 c2bd ab40 2cbc 27da 16bd
00000290: 9f2c a73d 095d 25bd 6ce9 65bd 64be 29bc
000002a0: e446 c63c 0e51 923d 6e73 46bd 14f1 543b
000002b0: 93dd 28bd 03dd e93c 67a0 9cbd bb56 4e3d
000002c0: fa4e 8abc 215b 823d e16b 893d d340 8cbb
000002d0: f9f3 d63c 82d4 0a3d ecc2 90bc d73c 4d3d
000002e0: ee77 75bd 9e8d 513c da3f be3d 59c9 553d
000002f0: 445f 25ba 90a5 263d 1431 27bc d4b4 8bbd
00000300: f981 82bc 53d6 6cbd 9daa 8d3d 7d69 b53d
00000310: 907a 8b3d 77de 9d3c 1904 c7b9 01ac 933d
00000320: f5db 223d f75e b33d deaa d5bd 2a27 763d
00000330: 0a1d 653d 0441 53bd 06ad de3c 09a5 9a3b
00000340: dcb0 2dbd e404 77bd 264b 3a3d dbf8 c63d
00000350: e103 e0bd f3c9 cabd bad0 b4bc 47e4 33bd
00000360: de97 b63c 8d57 c2bd 5262 63bc 9cd3 763d
00000370: d559 023d 81c9 363b 42cd c13d d2e4 c1bd
00000380: 37b0 dabd ada6 5fbd 3cde 3abd 2238 103d
00000390: 024a 95bd 485c a1bd 1386 a13c b97f 173d
000003a0: dfda 95bd def8 88bd a48f c6bc 3bb4 abbc
000003b0: e8af 98bd 0024 ad3d e4dd 42bd ca95 19bd
000003c0: 9727 a7bd fa4f 50bb 4633 d8bd f7d3 8ebd
000003d0: cd9d 2ebd 5422 2cbe 8f62 9d3e 1fd7 f1bb
000003e0: 31fb 40bd 4286 013d 104c 3e3d a687 0fbd
000003f0: 61c6 97bd 57a4 c33b e80b fc3c 7ccb b23d
-0.012620597 0.11675539 0.019438487 -0.07784635 0.036949467 0.019220086 0.02514149 0.12675378
0.05926285 -0.0046932353 -0.0606893 0.048883308 -0.032784052 -0.0047156606 0.031306427 0.06927155
0.069209896 0.05113591 0.016062668 -0.05906172 -0.066231996 0.050682727 0.00031239836 -0.025866436
0.017323479 0.11038169 0.111315966 0.09824323 -0.03328086 -0.0012644171 0.08506317 0.028023766
0.029305054 -0.076163486 -0.06975105 -0.05580218 -0.00037646995 -0.019001583 -0.019804558 -0.09286468
-0.07591345 0.0033768974 0.091951035 -0.034457535 -0.043812692 -0.051764015 -0.03340845 -0.07513411
-0.033113793 0.06624213 -0.08160865 -0.03781063 0.16705336 0.08902593 -0.082829535 -0.045455012
0.040070668 0.09500791 -0.23318382 -0.060804117 0.39617848 0.06853424 0.0605688 0.082790546
0.03263346 -0.002954599 -0.009627513 0.03165013 0.0048385286 0.023700558 0.019699624 0.032170903
-0.08298888 -0.07920116 0.0368644 0.06957762 -0.051568426 0.07771422 0.06803413 -0.0770218
-0.06325987 0.031513587 -0.0892677 -0.023713388 -0.10541194 0.06113647 0.061672326 -0.010060029
-0.11219715 -0.040843442 0.1151822 0.022625057 0.14090906 0.01960501 -0.16332088 0.009379207
-0.111635365 -0.07234631 0.13256277 0.077065684 0.006974375 0.139272 0.13408801 0.0069713867
-0.04445505 0.04859799 -0.013620821 -0.09003085 0.06819216 0.063329086 0.047915183 0.07685763
0.025228305 -0.007060897 0.0106846085 -0.032780025 -0.027094038 0.03507604 0.074375056 -0.014401231
-0.025833145 -0.07541831 -0.07687025 0.01250314 0.07709707 0.069252305 -0.07656106 -0.008657058
0.047030043 -0.020895172 -0.025182374 -0.06999056 0.08770143 0.025520075 -0.002619195 -0.079601
-0.05487692 0.07541643 -0.05072874 0.012045947 -0.011581332 0.078022756 0.036806375 0.03087972
-0.072224684 -0.02904023 -0.058519777 0.015550407 0.064180285 0.08363722 -0.035278764 -0.070525974
-0.00036867274 -0.07982681 0.05916585 0.020191994 -0.036277883 0.031297904 -0.03582235 -0.06440423
-0.06896236 -0.09480516 -0.010513465 -0.03682914 0.08162808 -0.04037193 -0.05613081 -0.010360334
0.024203725 0.07144366 -0.048449926 0.0032492327 -0.041226935 0.02854777 -0.07647782 0.05037568
-0.016883362 0.06365038 0.067100294 -0.0042801886 0.026239382 0.03389407 -0.017671071 0.05010685
-0.059928827 0.012790112 0.092895225 0.052193973 -0.0006308446 0.040685236 -0.010204572 -0.068215996
-0.015931116 -0.057821583 0.069173075 0.08858011 0.06810486 0.019271119 -0.0003795929 0.072105415
0.03976055 0.087583475 -0.10432981 0.060095944 0.055935897 -0.051575676 0.027182113 0.0047193808
-0.042404994 -0.0603074 0.045481823 0.09715434 -0.1093824 -0.099018 -0.022072185 -0.043918874
0.022289213 -0.09489355 -0.013878422 0.0602604 0.03182395 0.0027891102 0.09462978 -0.09467472
-0.106781416 -0.054602314 -0.045622095 0.035209782 -0.072895065 -0.078789294 0.019717252 0.03698704
-0.07317137 -0.06688093 -0.024238415 -0.020959964 -0.074554265 0.08454132 -0.047574893 -0.037496366
-0.08161848 -0.003178595 -0.10556655 -0.06974023 -0.04263096 -0.1680997 0.30739257 -0.0073803808
-0.047114555 0.03162218 0.046459258 -0.035041474 -0.07410885 0.0059705186 0.030767396 0.08730218

bias f4 [82]
00000000: 82b1 0f3d 1a02 a8bd 9bcf 813d 76bd b7bd
00000010: a6fe 173d 2b9f a2bc 71cf 55bd 1fad ef3d
00000020: 3c46 013b f011 093e f7a0 e6bc 5fae 473d
00000030: 0751 b5bc 16dd c3bd b20e 583d 960a f33d
00000040: a87c b8bd 1d34 1c3e 773d 3ebc 9f5e 3cbd
00000050: 0471 a6bd 3267 5a3d 814a 953d f256 093e
00000060: 5ab7 c33c 0c3f 0d3d c035 b03c d96f 493d
00000070: 5ea7 c3bc f34d b0bd 172f c3bc ceb4 70bd
00000080: 403d 35bd 45ca 533d 7652 7bbc d409 9bbc
00000090: deef 5b3c f349 293e 8c24 263e b49a ad3d
000000a0: 984b e03d bccc 6f3d 40c4 bdbc 2aba 0b3e
000000b0: d8c9 073e 93a6 c0bc 6a12 a9bd 5c6f b33d
000000c0: dc02 0c3d ef8d 873a e95d 273d 9e97 a93d
000000d0: 2504 d7bc 1ecd b0bd bcc5 17bd 3f53 133e
000000e0: 6a5e 1f3d 6296 3b3d 294e bd3d 7cea 0dbc
000000f0: e0d8 d13d c1a9 c9bb 80e1 e13c 3e48 f53d
00000100: d1a9 bf3d 97be 013c b4ef 9abc 4070 013e
00000110: e513 53bd 4dbb 02ba 5770 843d 62cb df3d
00000120: 1b07 18bd 44b2 e43d f66f 203e f657 ec3d
00000130: a83e 753c eca9 6fbc 2a20 5bbc 4155 103e
00000140: 49e8 0c3d e840 b2bd
0.035081394 -0.08203526 0.06338426 -0.08971684 0.037108086 -0.019851288 -0.052199785 0.11702942
0.00197257 0.13385749 -0.028152926 0.048750278 -0.022133363 -0.09563653 0.05274839 0.118672535
-0.09008151 0.15254255 -0.011611334 -0.045988675 -0.08127025 0.05332107 0.07289601 0.13412073
0.02389114 0.034483954 0.021510005 0.04917893 -0.023883518 -0.08608618 -0.023826165 -0.05876618
-0.044247866 0.05170657 -0.015339484 -0.018925585 0.013423888 0.16532116 0.16224879 0.08476773
0.10951918 0.05854486 -0.023164868 0.13645235 0.13260591 -0.023516929 -0.08255465 0.087614745
0.034182414 0.0010341982 0.040861044 0.08280872 -0.026247093 -0.08632873 -0.03705381 0.14387225
0.0389084 0.045797713 0.092434235 -0.008661862 0.10246444 -0.0061542694 0.027573347 0.1197667
0.09358562 0.007918975 -0.018913127 0.12640476 -0.051532645 -0.00049870164 0.064667396 0.10927464
-0.03711615 0.11166814 0.1566771 0.11540215 0.014968552 -0.014627915 -0.013374368 0.14095022
0.034401212 -0.08703786

weight f4 [55, 82]
00000000: 43b0 5c3d 34f4 c5bc 9991 09be 3e1d c23d
00000010: f7c9 eebd 4124 8e3d 2f59 c7bd d5af c7bd
00000020: 9d6d 6fbd df66 aabd cafa db3c e063 733d
00000030: 3646 253d 2a71 6c3d cef5 983c d16a a33d
00000040: 7a95 223d 3487 853c 8854 7d3d b70d 5abd
00000050: daca c13d 6a88 d1bd e935 cabd 93da 62bb
00000060: a239 733c 66da a3bd 4b54 29bd 1055 92bd
00000070: 525e 9f3c 4d10 c3bc 4232 c0bd 5684 89bd
00000080: 7bf1 c9bc ae7d 9b3d c49d cb3d ce0c a93d
00000090: 6a67 663d 8c14 773d be2e 533c 183d bdbc
000000a0: 7cd0 adbd caf3 2a3c 8d5f 9a3c 3e0f a5bd
000000b0: ffee 9e3b f47d bc3c 00c6 c6bd 951c 6bbc
000000c0: 514b 95bd 3264 d5bd b780 d6bd 75f1 e9bd
000000d0: ae91 383d 05fe 11bd 4c64 f03b 31e2 f7bb
000000e0: c7f3 bc3d dced edbd f028 6fbd c4df 823d
000000f0: 0db3 aa3d 37d3 843d fb01 b33d b4c8 82bd
00000100: 1cb9 6abd 1e8b b2bd 290d e4bd 201b bfbd
00000110: 30d4 583b 19a6 7bbd ecb3 b1bd 4963 e1bd
00000120: 8892 97bd e16f 283d 7d6b a7bc 6012 8e3d
00000130: 4505 bfbd 2413 1cbd bc52 0fbd e7c9 ffbd
00000140: ecac 80bd f133 64bd ba97 ca3d 94e5 a5bd
00000150: 8ab2 dbba aa1c b63d 733d 2b3e 55a5 74bb
00000160: 8290 623d efdd 683c 1218 1cbd 978a 21bb
00000170: f074 1bbd cc3d e2bd f047 ac3d 1b7a bd3d
00000180: 0fc7 c5be 9f42 413e fd4c 64bd a6dc 813e
00000190: 8470 a8bd dde1 81bd ffff b6bd f246 a33e
000001a0: 23a5 ffbd d9a5 c2bb b31d 5bbd eb7a 973d
000001b0: ea4f b1bd a510 283e c29b da3d d5c1 373b
000001c0: 0a38 0d3d 40f7 ec3b f47e 97bc c9a2 b2bc
000001d0: 5ad1 843d 9e7e 55be eaee 43bd f5cd 09bd
000001e0: e7a2 203e 25e8 df3d 9e4c 8ebd e56a f33d
000001f0: b509 233e 20ab 073d 40f5 e03b 5e17 0f3e
00000200: eb54 613d ce9f 803d 4cb0 133b e8d6 083e
00000210: 3b33 1e3e 6e3b 573d cbfa febd c014 c53d
00000220: fdc9 bc3d 050b d7bb c513 c7bd bd4f 95bc
00000230: cde9 22bc 41a1 7a3c 5a91 cf3c bb58 8ebd
00000240: aac7 a43e 80e7 e93d fe23 f13d 9319 ed3d
00000250: c6da 84be b0cf 003e 405c 88bd 8214 8f3c
00000260: 6704 d03d 273e 283e e152 d9bc c0e5 5f3e
00000270: edb0 66bc 67fe 343e 7627 e73d 2ab4 5f3d
00000280: a699 643e a4e6 3f3e 9c5e 163e 0e45 e8bc
00000290: 58b1 9f3d d6b1 92bd 5a61 f2bd 8a36 42bd
000002a0: 78fa 8abd 36ed 153c 4912 d83d 496a 233d
000002b0: 5545 b73d 5bae 173e 1a64 d53d a1bf a43b
000002c0: 5a38 ee3d 065a 20bd f2ac a43e df44 19bd
000002d0: d82f bdbc b838 a83c 44b7 553d 19d3 3ebd
000002e0: 1382 d93d 329f 85bd b1f8 8a3d 2ffc c13d
000002f0: 79ce e7bb 8068 3f3c fba8 b93d 7cdb d53d
00000300: 4872 9ebd 1886 bdbc 42dd 863d f091 cd3d
00000310: b9dc 913d a599 fc3d 4010 7e3d deae 023e
00000320: a415 1cbe 382c 1fbc b4a1 0c3e d5c9 f43d
00000330: 87aa 04be 64e1 76bd ef5e 153e 7f85 753c
00000340: fbb4 273e 13cc 3e3d 1e4e 57bd ceb9 f93c
00000350: cdec 7dbd 5d65 143e 83c4 443e 40ab 1fbd
00000360: 9922 cfbc bbca 103c 0970 9fbd 124c dc3c
00000370: 46f5 31bd 99ed 633d 7e7d 803d 23bb e13b
00000380: 51d0 343c 366c a6bd 1a07 243e b163 c7bc
00000390: f36b 43bd 6194 ba3d 716e 1e3b f39d 1f3e
000003a0: f9e6 3cbd 978c daba 2bc6 343d 1729 8e3c
000003b0: 0eb6 103d 2674 f23d e819 3d3d 06a7 493c
000003c0: cdd6 e0bd 5997 de3d 50c6 903d a8f9 2f3d
000003d0: 03e1 2f3e f9ac 373d c74d 313e f096 e6bd
000003e0: e1ce 09bc 9c20 f23c c30b 69be a1a1 0d3e
000003f0: d7ad 813d 66fd 9b3d 8b70 b53d 265a a4bd
0.053879034 -0.024164297 -0.13434447 0.09478234 -0.116596155 0.06940509 -0.09733807 -0.09750334
-0.058454145 -0.08320402 0.026852984 0.05942142 0.04035016 0.05772511 0.018671896 0.07979358
0.039693333 0.016299821 0.061848193 -0.053235736 0.09462519 -0.10231097 -0.09873564 -0.0034615144
0.014845284 -0.080006406 -0.041340154 -0.07145131 0.019454155 -0.023811484 -0.09384586 -0.06714694
-0.02465128 0.07592331 0.09942201 0.082543954 0.056250967 0.06032233 0.012889562 -0.02310042
-0.08487031 0.0104341 0.01884439 -0.08059548 0.004850268 0.023009278 -0.09705734 -0.014350076
-0.07289756 -0.10419501 -0.10473769 -0.114230074 0.045060806 -0.035642643 0.007336175 -0.007564806
0.09226184 -0.11617634 -0.05838865 0.06390336 0.083349325 0.064855985 0.08740612 -0.06385937
-0.05730544 -0.08717941 -0.111353226 -0.093313456 0.0033085458 -0.0614377 -0.086768955 -0.11005265
-0.074009955 0.04112232 -0.020436997 0.069370985 -0.09327177 -0.03810419 -0.03499101 -0.12489682
-0.06282982 -0.055713598 0.09892221 -0.08100429 -0.0016761583 0.08892186 0.1672266 -0.003732999
0.055313595 0.014213069 -0.038108893 -0.0024649256 -0.037953317 -0.11046943 0.084121585 0.092518054
-0.38628432 0.1887307 -0.055737484 0.25363654 -0.08224586 -0.06341908 -0.08935546 0.31890064
-0.12482669 -0.0059401807 -0.05349512 0.073964916 -0.086578205 0.164126 0.1067424 0.0028039117
0.03447727 0.007231623 -0.018493153 -0.021806138 0.06485243 -0.20849082 -0.047835268 -0.03364368
0.15687142 0.1093295 -0.06948207 0.11885623 0.15921672 0.033122182 0.0068651736 0.13973758
0.055012625 0.0628048 0.00225355 0.1336323 0.1544923 0.05254691 -0.12450179 0.096230984
0.09218214 -0.006562593 -0.097205676 -0.018226499 -0.009943438 0.015297235 0.025337864 -0.06950518
0.32183582 0.11421108 0.11774443 0.115771435 -0.2594816 0.12579226 -0.0665822 0.017465834
0.1015709 0.16429959 -0.026528778 0.21864986 -0.014080268 0.17675172 0.112868235 0.054615177
0.22324237 0.18740326 0.14684528 -0.02835324 0.077974975 -0.07162826 -0.118349746 -0.047415294
-0.067860544 0.009150794 0.105503626 0.039896283 0.08948771 0.14812605 0.104194835 0.0050277268
0.11631842 -0.039148353 0.32163197 -0.037419196 -0.023094103 0.020534858 0.05217673 -0.046588037
0.10620513 -0.06524505 0.06785715 0.09471928 -0.007074174 0.01168263 0.090654336 0.10442254
-0.07736641 -0.02313523 0.0658517 0.10037601 0.07122178 0.12333993 0.062027216 0.12762019
-0.1524263 -0.009715132 0.1373356 0.11952559 -0.12955676 -0.060273543 0.14586996 0.014985441
0.16377632 0.04658134 -0.052564733 0.030484106 -0.06199341 0.14491792 0.19215588 -0.038981676
-0.025285052 0.008837397 -0.07785041 0.026891742 -0.0434468 0.055646513 0.06273936 0.0068887635
0.011035995 -0.08126108 0.16018334 -0.024339529 -0.04771037 0.09110332 0.0024174715 0.15587597
-0.04611871 -0.0016673979 0.0441343 0.017353578 0.03532987 0.1183856 0.046167284 0.012307888
-0.1097847 0.10868711 0.07069075 0.0429627 0.17175679 0.044842694 0.17314826 -0.11259258
-0.00841114 0.029556565 -0.22758393 0.13831188 0.063319854 0.07616691 0.088593565 -0.08025007

bias f4 [55]
00000000: 55c3 853d 5c42 083d 1cf2 3fbd 3152 323d
00000010: 77c8 61bd ae7c 8fbc f62d fd3c ace1 ef3c
00000020: 489b ab3d 04e7 243d d10a 1bbd d512 a13d
00000030: 50c0 00bd 9acc b83d 20d8 84bc e316 153d
00000040: e018 26bd 0935 053d 9940 5a3d 4bf1 afbd
00000050: 0086 e53c 78fb e33d c7e0 c03c e9e8 4bb9
00000060: 5ec0 043e ace6 2d3d 9407 63bd 86e2 b5bd
00000070: 681d 21bd e3bc 973d 0430 203c af1a 153d
00000080: 0874 67bc 9b04 493d 5669 e63d 1d41 1bbd
00000090: b6e8 f33d b0eb 05bb 9d51 e3bd f0e5 973c
000000a0: e55e 473d edcf c4bc 9546 c93d 4aa2 45bd
000000b0: 5c33 9c3d e8b1 b13c b354 983d 2c11 733d
000000c0: 2702 f43d 8d96 143e 85f5 d23b 47eb 293e
000000d0: 7928 c13d 2a33 bdbd a8c9 53bd
0.06531397 0.03326641 -0.046861753 0.043535415 -0.05512282 -0.017515507 0.030905705 0.029282413
0.08379227 0.040259376 -0.037852112 0.0786492 -0.031433403 0.090234 -0.016216338 0.03639878
-0.040551066 0.03252128 0.05328426 -0.08590945 0.028017998 0.11131948 0.023544682 -0.00019446354
0.12964007 0.042456314 -0.05542715 -0.088810965 -0.039334685 0.07409074 0.009777073 0.0364024
-0.014126785 0.049076658 0.1125056 -0.037903894 0.119096205 -0.002043467 -0.11099551 0.01854226
0.048674483 -0.024024928 0.098279156 -0.048250474 0.076269835 0.021691278 0.0743803 0.05934255
0.11914473 0.14510556 0.0064379596 0.16593657 0.09431548 -0.092382744 -0.051705986

weight f4 [27, 55]
00000000: 7bc9 d23d 9889 27bd 08eb 7a3d 2132 c6bd
00000010: 7f8d ab3d 1227 25bd 3344 ce3d 76ce 57bd
00000020: 5aad 683c c5c7 823d 475a 023e 0779 b8bd
00000030: da19 93bd c948 093e 7df2 6e3c d7d0 ccbd
00000040: 2302 8e3c 7302 d63d 78e0 c1bc 7ec1 eebd
00000050: 14a9 d6bd f708 2bbc c4de 943b bd32 afbc
00000060: 4467 0ebc fb57 efbd b0ea fc3d c140 8f3d
00000070: f139 a1bc 9c09 0a3d 15cd c8bd 1704 49bd
00000080: 5d39 02be 9fe2 023d edec aebc f872 b9bd
00000090: 6634 333c 56d4 833d 440f 36bd 5ad1 533d
000000a0: 4412 c93d 6241 02ba 84e2 b5bd 2d2c cb3d
000000b0: f76e 6c3c f201 fc3d 271b cfbd 5749 3a3d
000000c0: e457 443c 257c acbc a7c4 cfbd bac5 08bd
000000d0: 76c8 b2bc cbcc 9b3d d337 dcbd 2c01 f53d
000000e0: b061 69bd 3e06 efbb 2153 df3d 79f2 bcbd
000000f0: b7b4 1bbd dbc3 0c3b ea47 143d 874b 97bd
00000100: f707 eebd 3074 01be 0d21 173d d2d4 afbd
00000110: 9837 fdbd 5198 1b3d 9646 01bc af6f 963d
00000120: a46e ea3c 8349 7d3c da6e 7b3d 86f0 28bc
00000130: 91a9 ddbd 218c a83d bca7 3ebd 1231 2c3c
00000140: fd34 03be 363b e03d e3a9 dbbd c3a8 fa3c
00000150: 2573 a43d 5977 d0bd 6049 003d 75e3 babd
00000160: c299 9bbd 3599 c4bd 64dd 243d 800b 41bd
00000170: 4ea5 bcbc 45be ef3d 5dad 523d 783a e2bc
00000180: c44c 98bd 406c 19be a42f 7abd 5d52 de3d
00000190: 5807 8b3d db22 b7bb 1804 8fbd cd27 653d
000001a0: 943e 0fbc 94cc ca3d 40ad c13d 23cb 803d
000001b0: 86a6 fe3d bb94 c63d ba99 9c3d 3c79 5b3d
000001c0: 3cc5 133d c477 ddbd 4200 eabd 4f48 91bd
000001d0: 6319 2dbd a5ad fbbd 8e4e deba e187 c63a
000001e0: 787e db3d b692 5f3b 3f63 eaba f433 8fbd
000001f0: dd1f c3bd 13ad b4bd 33a8 6d3d 72cf 4ebd
00000200: 5d18 8fbd 183a 41bd 13a9 55bd ee8c db3d
00000210: 98f1 c1bd 510e b8bd dd56 d0bd 7858 63bd
00000220: bbd7 ddbc 7d75 59bc 5e40 c83c 3a93 b8bd
00000230: a090 c03d 39d0 03be 55ff ebbd 13ee 86bd
00000240: 850c e3bd 65f0 a4bd 3952 3a3c 2d30 833d
00000250: e33b 403d a8cf ea3d dd75 43bd 6728 cc3d
00000260: 5288 4bba bc8f e23d a834 d0bd c32d d93d
00000270: 9951 9dbc 4b84 a8bb 3e1f 113c c7c3 903d
00000280: f514 d73c 5154 043c 7a16 8c3c 30f5 d03d
00000290: 25a2 9bbc fa28 60bd ec76 b9bd 36da 943d
000002a0: 99f6 a0bd 7467 583b 3905 bbbc 399f 9a3d
000002b0: e94b 0abe 26f3 dbbc a7a8 babc 641e d8bd
000002c0: 3eb8 12be b40f b6bb 8b2e 9b3d 236b 883c
000002d0: 0051 d6bd c6da b3bd cd71 013e 6520 953d
000002e0: effd 8a3d a7cf bf3d 9360 d5bd 8949 d13d
000002f0: def3 0cbe 8846 153d 48e3 703a 322f 91bd
00000300: eae0 0d3d 7e9f f83d c28b 803c 8c1f b03d
00000310: 8fc8 94bd 938b 2dbd 51fc babd 0837 863c
00000320: 6c75 0bbe 5294 cdbd c770 f9bd 92bd fa3d
00000330: 7b44 bcbc 712a db3d 90b8 f6bd c590 ba3d
00000340: 30a4 dd3d 07e6 2ebd b83b bcbd 18c2 a0bd
00000350: 77ca 07be 97d1 e4bd 482b 84ba 21b5 72bd
00000360: 6251 b2bd f47b 8f3d 7f6c 3d3c 8150 08be
00000370: 3412 efbd a58a f0bd 97f7 67bd 6e5a 2abe
00000380: 4cd7 bd3d 750c 513d 2dbc e43c e285 9bbd
00000390: 9898 aabd bf16 a03e 63d8 6dbd a1b9 423e
000003a0: d50f acbc ca65 013e c7c6 db3d b27d 81bd
000003b0: 1297 293e b225 be3d 6618 a73c e24a f33d
000003c0: ca6a b9be a1aa 6bbb 284a 803e 2f7b 1cbc
000003d0: 4cef 133e 4d5a 043e f5c5 81bd df9d 063e
000003e0: fa53 d93e de26 873d 215a 133e 2cee 8d3e
000003f0: c295 da3e a2f3 443e 463d b33d 8c5d d7bc
0.102923356 -0.040902704 0.0612593 -0.0967753 0.083765976 -0.040320463 0.10071602 -0.05268713
0.0142014865 0.06385759 0.1272975 -0.09007459 -0.07182665 0.13406672 0.014584181 -0.100007705
0.017335003 0.10449686 -0.023666605 -0.116579995 -0.10481468 -0.010439149 0.0045431573 -0.021386499
-0.008691613 -0.11686703 0.123494506 0.06994773 -0.019680949 0.03370057 -0.09804741 -0.049076166
-0.12717195 0.031954404 -0.02135321 -0.09055132 0.010937786 0.06436984 -0.044448152 0.051713325
0.09817937 -0.0004968849 -0.08881095 0.09920535 0.014430753 0.123050585 -0.10112601 0.0454801
0.011983845 -0.02105529 -0.1014493 -0.03339169 -0.021824103 0.076074205 -0.10752835 0.11963114
-0.056977928 -0.0072944453 0.109045275 -0.092259355 -0.03801414 0.0021479044 0.036201395 -0.073874526
-0.11622613 -0.12641978 0.036896754 -0.08585514 -0.12364119 0.037987057 -0.007890364 0.07345521
0.02861721 0.015459421 0.061385013 -0.0103112515 -0.10823358 0.082298525 -0.046546683 0.010509746
-0.12813182 0.109487936 -0.10725763 0.03059805 0.080297746 -0.10179014 0.031319976 -0.09125415
-0.07597686 -0.095995344 0.040250197 -0.047130108 -0.023028042 0.11706213 0.051434863 -0.02761577
-0.07436517 -0.149827 -0.06108059 0.10855553 0.0678851 -0.005588872 -0.06983203 0.05594616
-0.008742947 0.099023014 0.09456873 0.06288745 0.124341056 0.09696337 0.076465085 0.053582415
0.03607677 -0.10813859 -0.114258304 -0.0709387 -0.04226054 -0.122889794 -0.0016960667 0.0015146696
0.107174814 0.0034114546 -0.0017882361 -0.06992331 -0.09527562 -0.08822074 0.058021735 -0.050490804
-0.06987069 -0.047174543 -0.052163195 0.107202396 -0.094699085 -0.08987106 -0.10172818 -0.055504292
-0.027080407 -0.01327264 0.024444755 -0.09012456 0.09402585 -0.128724 -0.1152331 -0.06588378
-0.11086372 -0.08053664 0.0113721425 0.06405673 0.046932112 0.114653885 -0.047719825 0.09968644
-0.0007764149 0.110625714 -0.101662934 0.106044315 -0.019203948 -0.0051427237 0.008857546 0.070685916
0.02625511 0.008076743 0.017100561 0.10203016 -0.018998215 -0.05472658 -0.09055886 0.07268183
-0.07859535 0.0033020647 -0.022829639 0.075499006 -0.1350552 -0.02684934 -0.022785498 -0.105526716
-0.14328095 -0.005556071 0.07577237 0.01665265 -0.10464668 -0.08781962 0.12641068 0.072815694
0.06786715 0.093657784 -0.10418811 0.10219104 -0.13764903 0.036444217 0.0009189141 -0.0708908
0.034638323 0.12139796 0.015691642 0.08599767 -0.07264816 -0.042369436 -0.09130157 0.016383663
-0.13619012 -0.100380555 -0.12179714 0.12243189 -0.022981873 0.107014544 -0.12046921 0.09109644
0.10822332 -0.04269984 -0.09191078 -0.078495204 -0.13260828 -0.111727886 -0.00100837 -0.05925477
-0.08706929 0.07006064 0.011561512 -0.1331196 -0.11673394 -0.11745194 -0.056632604 -0.16636059
0.0926958 0.05103727 0.02792176 -0.075938955 -0.08329886 0.31267354 -0.05806769 0.19016124
-0.021003643 0.12636486 0.10731273 -0.063228026 0.16561535 0.092845336 0.020397376 0.11879517
-0.36214286 -0.0035959857 0.25056577 -0.009550854 0.14446753 0.12925072 -0.063365854 0.1314616
0.42446882 0.0659921 0.1438985 0.27720773 0.4269238 0.19233564 0.08751921 -0.026289724

bias f4 [27]
00000000: b91f 00be d1cc a53c 76c0 6ebd f1d7 513d
00000010: 5635 2c3d 5f55 1b3e 70a5 063e a94b 8d3d
00000020: 0280 a0bd 2b66 c13d c8ce ac3d 9eea 083e
00000030: 40bc 863b dcb6 fc3c 8020 0ebd 07c6 a4bc
00000040: b50f 073e 964d 82bd 37ad 60bd c019 173e
00000050: 6f76 c73d bea8 8abc 1d9f 99bd 72d9 513d
00000060: 51ec d63d 3955 cc3d 5234 e23c
-0.12512101 0.020239266 -0.058289014 0.05123133 0.042043053 0.15169285 0.13149047 0.06899197
-0.078369156 0.09443315 0.08437878 0.1337075 0.0041117966 0.030848913 -0.034698963 -0.020113958
0.13189586 -0.063624546 -0.05485269 0.14755917 0.09739386 -0.016926166 -0.075010516 0.051232763
0.104942925 0.099771924 0.027612839

weight f4 [11, 27]
00000000: 9980 b0bd 43ad 42bd 37f7 d1bd 48f1 e9bd
00000010: 5c17 6b3d edae a53d 9bc2 9e3e 6341 04be
00000020: e27b 56bd dc7c 0fbb 7d8f 923e 840f 0c3d
00000030: 4d0c f83c 0f94 2e3e 8442 7b3e 4ad7 163e
00000040: 9138 ca3c 2fd4 183e 3453 dcbd c607 103e
00000050: c314 52bd fe51 cfbd f460 113e 0c06 fc3b
00000060: 3816 3ebe 249c 463e d34b 0abd f3d3 e13d
00000070: feec 263e 4abe 2b3e 49ff 16be 3606 313d
00000080: 1870 803d 2fe6 733d d22e 273e 25d1 0a3c
00000090: 1c54 4d3e 6f0e 92bd 34c6 8abd 1336 703d
000000a0: 0a8d 163e 5d4c 053e f99b d7bd 744b 353e
000000b0: 0a25 363e 1c2d 843c f93d 0bbe 2306 2b3d
000000c0: 29f0 0e3d 3e08 f53d 59f8 e8bd dad0 78be
000000d0: 2994 bbbc 4dba f13d af5b a0bd 6637 85bd
000000e0: ad2c 45bc 84ad dcbd c4e5 06be f533 643e
000000f0: 649e 8abd db69 8c3e 6939 6a3d 72f2 75bb
00000100: 5e21 553e 1c56 7bbd 2ce6 5c3d 6061 bfbe
00000110: 1912 5c3d 94e8 683e e456 933d 7081 43bc
00000120: c2b1 fdbd 78e1 773e 2948 0fbd 46c6 bc3d
00000130: 191f 72bd dd26 d03c be90 b7be bbf1 c73c
00000140: 5389 94bc 9103 743c 1da4 e63d e5f6 263e
00000150: fd9d 02bd c65d 88be 4b7d 213e 1fbe ee3d
00000160: 6db4 0fbe 4dc2 23be 7386 24bd 6642 713e
00000170: 0ac2 66be 472f 993a bee7 6cbd 5ad3 ebbd
00000180: b168 493d e8d8 71be 50b6 7cbd 3de5 88be
00000190: 605b 593d 1d9c c6bd 8a39 713d 7398 84bd
000001a0: 42db cabd c011 593e 8fb7 50be a750 70bc
000001b0: 27b6 2fbe 4c28 3ebd 0469 0a3e e3ef 373e
000001c0: c7df 0bbc 100b 5f3e e734 813e 13cc 40be
000001d0: a9a6 153d 7237 19bd d52c 853e 950c 29be
000001e0: 8cab 0ebd f556 313d d3ae 123d 4774 01be
000001f0: b218 77bd a5f9 63bd 5a05 92be 7b76 f7bd
00000200: 0fcf 3abe e1a8 a23c 6ee7 023e 282b cb3c
00000210: bb25 10be f8ce 8dbc 5112 6cbe 9f6c 083e
00000220: 2b17 ec3d b7a1 a03d 6bd4 02bd 9dd0 6ebe
00000230: 98eb b93d ede8 2a3e 58a6 3bbd d0d0 153e
00000240: 4d07 66be 61fe 503e 4d42 82be 8aae cc3d
00000250: 3094 cc3c f544 e53d 7393 1f3d 7f5c b43c
00000260: bcc3 d8bd e226 6f3e 8f39 78be 3d00 61bc
00000270: 0f0a cf3d ac01 0cbe 0b12 d33d c3c9 903e
00000280: 8a99 17be cc6a 563d d6b9 483d 5a27 1dbe
00000290: e766 393e 4b91 24be 8545 6a3d a083 ad3d
000002a0: 85f5 b63c 3057 7f3e d948 1d3e 002d 383e
000002b0: 4328 6e3e de47 453e 5795 1fbd a051 533e
000002c0: 36a3 773e 2c45 193e ca8c 983c c1bb 2ebc
000002d0: 8689 433e 6171 e73d 0a1a 443d 070f 263e
000002e0: ebfb 0abe f016 3e3e 757c 3bbd 5801 46bc
000002f0: 1e7c 453e b2da 42be f8c5 fc3c 28cc 31bd
00000300: ae86 e43d 40a9 2bbd 1d23 f0bd 8456 8d3e
00000310: e779 23be 17e2 1c3e 253a 81bd 3812 4d3e
00000320: d353 b7bd 0a6d 7f3d 3401 7fbe 410b 0a3e
00000330: 2b2a a3bd fd53 653e 4931 723d bb5c 2f3e
00000340: dc7b 13bd c229 01bd 3be5 1a3d b63d 2bbb
00000350: f63a d9bc 5f70 e7bc bc8d 1f3e 1063 923c
00000360: 3bc8 4dbc 3800 1bbb d1fc 10bd 15ef e03d
00000370: 4a89 e1bc 49d2 3ebe 9250 b83c d524 21be
00000380: 98af 643c b3d7 0abe 0b5c 6ebd 8aea 78bd
00000390: 47a4 1cbb ac7c 243e 67f7 343e d37b 7abe
000003a0: cb1e b9bd d14e 7b3c d1a8 583e 5b60 92bc
000003b0: 713e 3cbd a8ce aabd 6a24 91bb 4bd7 203e
000003c0: 7062 0b3e 33a6 60be 2cd7 c23d 5303 0a3e
000003d0: 4fc5 0cbe 3e99 35be 9e05 00be 961e be3d
000003e0: 98e2 1f3e c709 5c3e fd17 39be 0108 033e
000003f0: 51d6 35be 17b5 1e3e bbd4 d53d 3047 3b3d
-0.08618278 -0.047528517 -0.102522306 -0.11422974 0.057395324 0.08090005 0.31007847 -0.12915568
-0.052364238 -0.002189449 0.28625098 0.034194484 0.030279303 0.17048667 0.24537092 0.14730564
0.024685176 0.14924692 -0.10758057 0.14065465 -0.05128933 -0.10123061 0.14197141 0.0076911505
-0.18563163 0.193955 -0.033763718 0.11026754 0.16301343 0.16771808 -0.14745821 0.043218814
0.0627138 0.059545692 0.16326454 0.0084727155 0.20051616 -0.07131659 -0.067760855 0.05864532
0.1470224 0.13017412 -0.10527796 0.17704564 0.17787567 0.016134791 -0.1359786 0.0417539
0.034897003 0.11964463 -0.113754936 -0.2429842 -0.022897797 0.11803112 -0.07829987 -0.06504707
-0.012034577 -0.10775283 -0.13173586 0.22285445 -0.06768492 0.2742451 0.057183657 -0.0037528542
0.2081351 -0.061361417 0.053930447 -0.3737898 0.053728197 0.22744972 0.071943074 -0.011932716
-0.1238742 0.24207103 -0.034980927 0.09217505 -0.05911169 0.025409156 -0.35852617 0.024407258
-0.018131888 0.014893428 0.11261771 0.1630512 -0.03188895 -0.26634043 0.15770452 0.116573565
-0.1403367 -0.15992089 -0.040167283 0.23560485 -0.22534958 0.0011687063 -0.057838194 -0.115149215
0.049172107 -0.236179 -0.061697304 -0.26737395 0.053065658 -0.09697745 0.058892764 -0.0647439
-0.09905101 0.21198177 -0.20382522 -0.0146676665 -0.1715933 -0.04642515 0.13516623 0.17962603
-0.008537239 0.21781564 0.25235674 -0.18827848 0.036535893 -0.037406392 0.26010767 -0.16508706
-0.03483157 0.04329582 0.035811257 -0.12642013 -0.060326286 -0.055658 -0.28519708 -0.12083145
-0.18243049 0.019855918 0.12783596 0.024800852 -0.14076893 -0.017310604 -0.23053862 0.13322686
0.115278564 0.07843345 -0.03194086 -0.23321767 0.09078139 0.16690417 -0.045812935 0.14630437
-0.22463723 0.20409538 -0.25441208 0.09994228 0.024973005 0.11194793 0.038958978 0.022016762
-0.10584208 0.23354676 -0.24240707 -0.013732967 0.101093404 -0.13672513 0.10306176 0.28278932
-0.14804664 0.052347943 0.049005352 -0.15347043 0.1810566 -0.1607105 0.057195205 0.08472371
0.02233387 0.24935603 0.1535982 0.17985916 0.23257546 0.19265696 -0.03896078 0.20636606
0.24183354 0.14967793 0.018621821 -0.010664881 0.1909543 0.11300922 0.047876395 0.1621667
-0.13572662 0.18563437 -0.04577299 -0.012085281 0.19285628 -0.19028738 0.030856118 -0.04340759
0.111585006 -0.041909456 -0.11725447 0.2760507 -0.15964471 0.15320621 -0.06309918 0.20026481
-0.08951535 0.062359847 -0.24902803 0.13480856 -0.07967027 0.2239532 0.059129033 0.17125218
-0.036006793 -0.031533964 0.037816267 -0.0026129312 -0.026517373 -0.028251825 0.15581411 0.017869502
-0.012559946 -0.0023651253 -0.035397355 0.10983101 -0.027531285 -0.18634905 0.022499356 -0.15736707
0.01395788 -0.13558845 -0.058193248 -0.06077055 -0.0023901628 0.16063184 0.17672502 -0.24461298
-0.090390764 0.0153386155 0.21158148 -0.017868211 -0.045957986 -0.08340198 -0.0044293897 0.15707128
0.1361177 -0.219384 0.09513697 0.1347783 -0.13747142 -0.17734239 -0.12502143 0.092831776
0.15613782 0.21488105 -0.18075557 0.12796022 -0.17757536 0.15498768 0.10440966 0.045722187

bias f4 [11]
00000000: 1577 653e 096e 503e c2f3 f63d 0e3b 99bd
00000010: 90a7 4b3e 82b3 11be b840 78be be62 123d
00000020: e651 25be b8dd 47be e5e7 933d
0.22408707 0.20354475 0.12058212 -0.07481967 0.19888139 -0.14228633 -0.24243438 0.0357387
-0.16144523 -0.19518173 0.07221965

weight f4 [27, 11]
00000000: 84aa b1bd 0c64 e6bd 35bc 26bc 6614 9cbd
00000010: b4ad 4ebe c71f 913e 9994 7dba a4dc 99be
00000020: e1ad 693e 970d f9bc 9170 1dbe 5ffe 803e
00000030: fd1a 073e 899f ad3d 4738 6fbe 3cdf 533e
00000040: d1ae 2d3e 64a1 d9bd e021 9d3e 54e9 22be
00000050: 2a5b cfbe 7bfb 21be fec5 813e 7a41 1cbe
00000060: 4004 c13d b8fb 91be f118 b6be acfb a1be
00000070: 6898 3abe bae5 0fbe 5a19 513e 9305 553e
00000080: d1e8 3d3e 9b72 603e 128e f2bd 80cd 243d
00000090: e0c5 813e 87e7 60be 4819 82be 2cf3 88be
000000a0: da70 f8bd acf2 87be 7fa2 4ebe 475c 9ebe
000000b0: e9c4 6e3e eb66 833e 9cac 303e e089 b9bd
000000c0: 4d88 9e3e 3cae 28be 98f7 403e 7d54 973d
000000d0: 8ebf 42be aedb 50be f823 cebd 0c14 4abe
000000e0: 88df b23d 4467 8abe ffcf 8abe c1e2 66bc
000000f0: 66c5 38be 3f97 55be c1f7 4b3c 0916 803e
00000100: 633f 07be 1f3d 9ebe c07d a23e f39c 923e
00000110: c33e 373e 98f5 42be 9502 cfbe 922a 88be
00000120: 78e2 ba3e fbc5 a2be 3030 87be 64e0 883e
00000130: ca11 aa3e 775b 633c 4d8b 803d 6f95 8fbe
00000140: 5eb0 33be 611b 64bd bb21 f0bd 1487 193e
00000150: 6184 733e 8ae0 a7b9 740d b43e 44b2 c8be
00000160: c856 94be 3319 973d e008 a5be 1549 0a3f
00000170: a1d6 8d3e b75b ca3d 566b 213d b594 d13d
00000180: 74df e13d 3aa1 23be b91c 69be c54b 8f3e
00000190: cca4 683e 45cd 44be 7568 a03e 8aa8 ca3e
000001a0: 12b1 1f3e 8a7a 463e 4f77 c23d 681f 13be
000001b0: 4bf9 a53e 6145 bebe eed4 9c3e 5636 b8bd
000001c0: 65f6 d9bc 59d7 663e 8cc5 b9bd 0759 cd3e
000001d0: fff4 5f3e c9bc 0dba 5c9e a8bd a5e4 8c3e
000001e0: 8f5e 9bbe f4ea 973e a850 413e 54c5 983d
000001f0: 7d7c ffbc adc2 58be 820c bbbe ffe3 a4be
00000200: 64b1 f23d af20 d4bd 76d3 e8bd 8ddd 333e
00000210: 8a69 a1be fa3f aebd 2bdc 85be e6a9 81be
00000220: cc5b dfbe 1fee 033e 2a93 323e a377 cdbc
00000230: cad0 18bc 50ad 10bf ec47 b13d ea46 fbbd
00000240: c483 62be df1b 85be 1cba 763e b3f4 09be
00000250: 7809 cabd 05e8 62bd 16ce a73d 8ea7 49be
00000260: fd18 83be 05e6 9b3c 44cc 4d3e 8b42 923e
00000270: d674 8e3e 04f0 6cbe 6a15 2fbe 5ee0 5dbe
00000280: f216 283e 111a 1f3e da36 aebe 0753 79be
00000290: e3d7 773d b4ab 19be c1e1 803e 0d9a 47be
000002a0: ab42 bcbd cac8 023e 00ee fe3d ee2e 85be
000002b0: c765 0ebe 654f ad3d e7a9 3fbe ae19 113e
000002c0: c142 a73b f934 2cbe ac3e 06bf c762 77be
000002d0: e035 34be 4b1c 883e 0ad1 afbc 5429 9dbc
000002e0: d598 813e 4f82 953e 60b5 19be 823d 85be
000002f0: e051 8bbd c7a2 4abe 2c55 083f 3727 10bd
00000300: b39c c73e 4873 63be 57a2 87bc cc04 023d
00000310: 1987 7d3e 846a 86be b817 d03c 140b 4f3d
00000320: d404 8bbe d87a c23d 248c 80bd 0c22 a53e
00000330: 7f07 46be b346 933e f3f5 e7bc ee69 05be
00000340: ea5e 07bf 549b 193d 57a2 733e b398 a0be
00000350: fc3f 273e 079c 6cbe f779 e1bd b2c8 c2bd
00000360: c26c 14bd 63a2 1a3e ff49 08bd 4aca 81be
00000370: 1607 bc3e a2de 333e 4685 2d3e 47ab f63d
00000380: bf26 e83c 9816 a53e 2647 f13d fe99 193d
00000390: b888 003c 9f0a 91be 4832 34be 9096 a63e
000003a0: 2e98 8fbe 2827 dc3e c2a8 e4bd 8ac5 9c3e
000003b0: e934 10be b497 66be a385 023e f605 c5be
000003c0: a3da bbbe da23 6a3e 0b92 4c3c a8df 933e
000003d0: 5e75 acbd 41c5 a8be e11b 04be 7408 27be
000003e0: 6543 293e ef2c 62bd dbf1 f1bd 2c22 83bb
000003f0: 355b 843e 0b73 423e e769 c6be 0340 8d3e
-0.086751014 -0.11249551 -0.010176708 -0.07621078 -0.2018345 0.28344557 -0.0009673327 -0.30051148
0.22820236 -0.030401988 -0.15374972 0.2519407 0.13193889 0.084776945 -0.23361312 0.20690626
0.16961218 -0.10626486 0.30689907 -0.1590932 -0.4049924 -0.15818588 0.2534637 -0.15259352
0.09424639 -0.2851236 -0.35565904 -0.31637323 -0.18222201 -0.14052477 0.20419827 0.20802908
0.18545844 0.21918719 -0.11843504 0.040235043 0.2534628 -0.2196332 -0.25409913 -0.26748025
-0.121309 -0.2655233 -0.20179175 -0.30929777 0.23317303 0.25664458 0.17253345 -0.09059501
0.30963364 -0.16472715 0.1884445 0.07389162 -0.19018385 -0.20396301 -0.10065454 -0.1973421
0.087340415 -0.2703191 -0.27111813 -0.014092148 -0.18044052 -0.20858477 0.012449206 0.2501681
-0.13207774 -0.30906007 0.31736565 0.28635368 0.17895035 -0.19038999 -0.40431657 -0.2659498
0.36500907 -0.31791672 -0.26403952 0.26733696 0.33216697 0.013876787 0.062765695 -0.28043696
-0.17547747 -0.055690173 -0.117251836 0.14992934 0.23780967 -0.00032020017 0.35166514 -0.39198506
-0.2897246 0.07377853 -0.32233334 0.54017764 0.2770281 0.098807745 0.039409004 0.10233442
0.110289484 -0.15979472 -0.22764863 0.27987495 0.22719115 -0.19218929 0.31329694 0.3958171
0.1559489 0.19382682 0.094954126 -0.1436745 0.32416758 -0.37162307 0.30631202 -0.08994739
-0.026606748 0.22543086 -0.09070882 0.40106985 0.21870802 -0.00054068543 -0.0823333 0.27518192
-0.3034558 0.29671443 0.18878424 0.07459512 -0.03118729 -0.21168013 -0.3653298 -0.32205197
0.11850241 -0.103577964 -0.11368458 0.17564984 -0.31525832 -0.08508296 -0.26144537 -0.25324935
-0.43624723 0.12883805 0.17438951 -0.025081461 -0.009327123 -0.56514454 0.08656296 -0.12269385
-0.22120577 -0.25997826 0.24094433 -0.13472252 -0.09865087 -0.055397052 0.08193605 -0.19692823
-0.25605002 0.01903058 0.20097452 0.28566393 0.27823514 -0.23138434 -0.17098013 -0.2166762
0.16415003 0.15537287 -0.34026223 -0.24348079 0.06050862 -0.15006906 0.25172237 -0.1949236
-0.091924034 0.12771907 0.12447739 -0.26012367 -0.13906012 0.08462409 -0.18717156 0.14169952
0.005104393 -0.16817082 -0.5243938 -0.24158774 -0.17598677 0.26584086 -0.021461982 -0.019184746
0.25311914 0.2920098 -0.15010595 -0.2602349 -0.06802726 -0.19788657 0.5325496 -0.03519365
0.3898674 -0.22211945 -0.016556902 0.031742856 0.24758567 -0.2625314 0.025401935 0.050547674
-0.2715212 0.09496087 -0.0627673 0.32252538 -0.19338797 0.28764877 -0.02831552 -0.1302869
-0.528792 0.037501648 0.23792396 -0.313665 0.16333002 -0.23106395 -0.11009591 -0.09510936
-0.036236532 0.15101008 -0.033273693 -0.25349647 0.36724156 0.17565396 0.16945371 0.12044387
0.028338788 0.322438 0.117811486 0.037500374 0.007845096 -0.28328416 -0.17597306 0.32536745
-0.2804579 0.42998624 -0.111650005 0.3061946 -0.14082684 -0.22518808 0.12746291 -0.3848111
-0.36690244 0.22865239 0.012485991 0.28881574 -0.084208235 -0.32962993 -0.1290126 -0.16311818
0.16529615 -0.055218633 -0.118137084 -0.0040018763 0.25850835 0.18989198 -0.38752672 0.275879

bias f4 [27]
00000000: aaa4 663c 06e6 89bd 0ae2 893e 246e 61be
00000010: 0c6b b63e e5a2 81be b497 acbe 8d16 643e
00000020: 14ac 873d 60c5 0fbe bf4c 94bd 719d c23e
00000030: 9d3b c2be 94fb 623e feaa d13d 99a4 98be
00000040: 7414 d5be 244b af3e c052 c83c 1792 29be
00000050: 3759 c73e 4c46 54bd 2475 e9b9 5f4a f3be
00000060: dd0b 94bc 0a5c 903e 5b36 713e
0.014077345 -0.067333266 0.26930267 -0.22014672 0.35628545 -0.2531959 -0.3370949 0.22274227
0.06624618 -0.14040136 -0.07241201 0.38010743 -0.37936106 0.22166282 0.10237692 -0.29813078
-0.41617167 0.34237015 0.02445352 -0.16559635 0.38935253 -0.051824853 -0.000445285 -0.47517678
-0.018072063 0.2819522 0.23555891

weight f4 [55, 27]
00000000: 0625 08bd 1852 89bd 6212 1ebe f2aa 2ebe
00000010: 9c33 263e d46e 73bd ffdd 4a3e 7929 f73d
00000020: 6eff 4c3e 9de9 09be c596 c13b dfe5 13be
00000030: b7ce 0dbf 107c cb3d 03af 9cbd 1c52 0d3e
00000040: 151e 3fbd 2953 68bd a654 3ebd 4abc bc3d
00000050: 1ec4 1b3e 48c2 873e 893c 853b 3c42 e43c
00000060: 5bb7 893e cab3 913e 767e c63d 9203 a4bd
00000070: d1ab b1bd 4641 2b3e 5df7 8c3d 6b3c 47bd
00000080: 54ff 063e 32d9 e2bc f2f2 51bc c87e a4bd
00000090: 0414 263e a40a 8a3e f43a 1f3e b7a3 383d
000000a0: deb4 28be b9ad 62be 9435 133d a3e0 a03e
000000b0: e45f 483e e63a 813e e018 98bb a41b 71bd
000000c0: 3732 dc3d cbeb 48bf 0105 db3d 91bb 053e
000000d0: eb1b dfbd cb21 6cbd 7f87 d13b d6fb 743d
000000e0: 5031 373d 3172 ab3d 4356 2dbe f272 f9bd
000000f0: f9ed 84be 1339 623d b7d2 033e 0710 4f3e
00000100: 4440 b03d 70b8 88be 420e 8abd 6d37 293e
00000110: 8962 033e d6c7 9d3d 9695 b73e 8ba6 57bc
00000120: 01d7 963e 01a4 2a3e 499c 79bd 7d5e 2d3e
00000130: d903 debe c888 9f3d 64f3 bd3d 6a90 823b
00000140: c8da 55bd 93dc 8abd 540a e13d af31 49be
00000150: 67dc 673c 9f73 2e3e 8617 193e 0497 8cba
00000160: fc69 793d 8994 a23d 5ba6 29be 20ed 173d
00000170: 49c6 ebbd 6f17 dbbe 18b3 103e 1a43 5a3e
00000180: 47c5 1a3e ab78 e03e 0c5f d2bd 9021 0fbe
00000190: 4c60 a2bd 4faa 843e 84cf b33e aab7 eebc
000001a0: ee78 9f3d 118e 3cbe 3f8a a53d 44e5 c33c
000001b0: 1bde e4bd f7f7 febd 0545 183e d9c7 f73c
000001c0: bfb5 543d e23c 2c3e a05f 2b3e 8adf 503d
000001d0: e3c5 293e df05 0bbe c488 5f3d 5d5c 3ebd
000001e0: 7770 b0be 0526 443d b49a 8b3d 4125 333e
000001f0: 8ffa b6be 5aeb 1f3e 62d2 1c3e f395 443d
00000200: a377 533e 3a54 78be de7a 9abd 9b22 5dbc
00000210: 3e24 f23d 6da6 8d3d dbac dabd 76e4 1ebe
00000220: c700 c63d 5ed1 e8bd d55f 623b 018d 9d3d
00000230: c5dd 2b3d 16a8 28be cc1a a83e 62ed e53d
00000240: 7eaf 423e 26eb 963d d6dc 4c3b 5a4d 7dbe
00000250: ae58 383e 8df6 72bc 4c75 123d 95d5 56be
00000260: 1192 133e 0e1f 6f3d 7360 00bd 37a0 813e
00000270: eea7 febd c3db 033e 9b45 07be 28cc af3c
00000280: db98 ac3d eed3 aebd 0e99 b93d 8710 39be
00000290: f39f 043d 30ea 863d 0237 013e 9009 88bd
000002a0: 9b05 3bbe 0704 02be a261 f1bd 6d35 363d
000002b0: ba8e d33b c2bd cabd ae0c 34be bab9 283e
000002c0: 3c11 583a 8126 913d 54ec 8f3d b303 10be
000002d0: 6951 77bd 120d cd3b 0f1c 1b3e 120f 5f3d
000002e0: 29fa 9f3d 8c10 3cbe 1559 1abc 0ebd 35be
000002f0: 9452 38be 6cbd a5bd a6d7 7dbb a81f 7e3e
00000300: 268f 3bbe abbe 60bd 0d43 1cbd 4278 1f3e
00000310: ca30 083e 5906 a33d 1881 8ebe b500 9cbd
00000320: cf0f 10be 6afe ebbe dba9 e0bc 9ba5 47be
00000330: c202 e03d 30c4 37bc eb21 91ba 4d9a 28be
00000340: 2a6e d6bd becc 84be 210d 86be 3d35 133d
00000350: 6a63 41be 190b ea3d d468 8cbe fd0f f73d
00000360: 161d a3bd 259f 8a3e 3d80 38be 3cbe 26be
00000370: cc70 613e aae1 61bc b6c5 b8bd 5727 443e
00000380: 4df1 5dbc 4bd5 1dbe 868d 6cbe 4206 4d3e
00000390: 8e23 cabe edcd 06bd 68b6 113e f9c9 39bd
000003a0: 513b e43d 3845 1e3e 1310 433d c129 adbd
000003b0: d058 793e 93b1 c43b 960b 9fbc e884 fa3d
000003c0: 01fb 26bd 266f c9bd 2a6a 9ebd 0998 05be
000003d0: 3070 a33a e471 42bd 97a5 1f3e 91a1 e7bd
000003e0: 7094 efbd d18e 30be 1bb0 42be 73bb 333e
000003f0: 079e e3bd 19cb e73b 3b94 6bbd 1206 2a3e
-0.033238433 -0.06705111 -0.154367 -0.17057398 0.16230625 -0.059431866 0.19811247 0.12068457
0.20019314 -0.13468023 0.0059078657 -0.14443158 -0.55393547 0.099357724 -0.07650568 0.13800853
-0.046659548 -0.056719933 -0.046467446 0.09215601 0.15211532 0.26515412 0.0040660542 0.027863614
0.26897702 0.2845748 0.09692089 -0.080084935 -0.086753495 0.16724119 0.06883118 -0.048641603
0.13183337 -0.027691457 -0.01281427 -0.08031994 0.16218573 0.26961243 0.15549833 0.045078006
-0.16475245 -0.22136582 0.035939768 0.31421384 0.1956783 0.25240248 -0.004641637 -0.05886425
0.10751765 -0.7848479 0.10694314 0.13059832 -0.10893997 -0.057649415 0.006394326 0.059810482
0.044724762 0.0837139 -0.16927437 -0.12180127 -0.2596281 0.05523021 0.1287335 0.20220958
0.08606008 -0.26703215 -0.06741001 0.1652505 0.12830557 0.07704131 0.35856313 -0.0131622655
0.2946091 0.16664125 -0.06094006 0.16930576 -0.4336231 0.07789761 0.09274939 0.0039845007
-0.0522106 -0.067803524 0.10988298 -0.19647859 0.014151669 0.17036293 0.1495038 -0.0010726159
0.06089209 0.07938487 -0.16567366 0.037091374 -0.11512429 -0.42791316 0.14130819 0.2131466
0.15114318 0.43842062 -0.10272035 -0.13977647 -0.079285234 0.25911185 0.3511926 -0.029140312
0.077867374 -0.18413569 0.08083009 0.023913033 -0.11175176 -0.12449639 0.14870079 0.030246662
0.05193114 0.168201 0.16735697 0.050994433 0.16579394 -0.13576458 0.05457379 -0.046474803
-0.34460804 0.04788782 0.06816617 0.1749468 -0.35738036 0.15617123 0.1531463 0.047994565
0.20651107 -0.2425088 -0.07542966 -0.01349702 0.11823319 0.06916509 -0.10677501 -0.15516838
0.09668117 -0.113680586 0.0034541984 0.0769291 0.041959543 -0.1647037 0.32832944 0.11226918
0.19012257 0.0736907 0.0031259558 -0.24736539 0.18002579 -0.01482929 0.035756394 -0.20979913
0.14411189 0.058379225 -0.03134198 0.25317547 -0.12434374 0.12876801 -0.13210146 0.021459654
0.08427592 -0.08536516 0.09062396 -0.18072711 0.032379102 0.065876365 0.1261864 -0.06642449
-0.18263857 -0.12696849 -0.117862 0.044484545 0.0064562233 -0.09899475 -0.17582962 0.16477099
0.0008242314 0.07087422 0.07027498 -0.14063911 -0.060380373 0.0062576616 0.15147422 0.05445773
0.07811386 -0.18365687 -0.009420653 -0.177479 -0.18000251 -0.0809277 -0.0038733273 0.24816763
-0.18316326 -0.054869335 -0.038149882 0.15573218 0.13299862 0.07960195 -0.27832866 -0.07617322
-0.1406853 -0.4609254 -0.027424743 -0.19496767 0.10938026 -0.011216208 -0.001107273 -0.16465111
-0.10470231 -0.25937456 -0.26181892 0.035939444 -0.1888558 0.11427898 -0.27423728 0.120635964
-0.07964532 0.27074543 -0.18017669 -0.16283506 0.22015685 -0.013786713 -0.09022085 0.19155632
-0.0135463 -0.15413396 -0.23100862 0.20021918 -0.3948025 -0.03291123 0.14229739 -0.04535863
0.11144126 0.15456092 0.04762275 -0.084552296 0.24350286 0.006002614 -0.019414704 0.12232381
-0.04076672 -0.09835653 -0.07735093 -0.13046278 0.0012469348 -0.047471896 0.15590511 -0.11310113
-0.11698234 -0.1724198 -0.19012491 0.17551975 -0.11114126 0.0070737717 -0.05751441 0.16603878

bias f4 [55]
00000000: df8a 6b3e 5dd2 a4bd afcb 3fbe eadf 5fbd
00000010: 0935 ac3d 78f5 453e ae19 0cbe 0bd6 9d3d
00000020: 6b9c 23bd aabd 06be 3e11 4abe bac0 41bd
00000030: b435 523e 84a0 e73c 5427 863c 2fc6 ddbe
00000040: cc4c 903d 616d 923d d1f8 49be 06f0 71be
00000050: b620 913e b5a2 0ebe 80b4 17ba 2866 ecbe
00000060: 62be 853e b8b0 2cbe 0469 c7bd 1359 98bd
00000070: 3588 f23d 4039 4f3d b939 03be d964 4a3d
00000080: 6920 2c3e 2394 09be f4b3 0bbd 0875 e2bc
00000090: 53f8 533e 70aa 0a3e 2f86 a93e 5290 8a3d
000000a0: 981b 6b3c 63b4 18bc 7797 3dbe d5ab 7ebe
000000b0: bbd4 7fbd c7a8 a43e 61d8 74bd d46e d8bd
000000c0: f3bf 2cbe b0ff 743e 33dc 29be d1b7 573e
000000d0: ac02 433e 7ea2 9dbd 16ca 153e
0.23002194 -0.08047936 -0.18730043 -0.0546569 0.08408553 0.1933192 -0.13681671 0.07706841
-0.039944094 -0.13158289 -0.1973314 -0.04730294 0.20528299 0.028274782 0.016376175 -0.43315265
0.07045898 0.071497686 -0.19723822 -0.23626718 0.2834527 -0.13929255 -0.00057870895 -0.4617169
0.26121813 -0.16864288 -0.09736827 -0.074388646 0.11842386 0.050591707 -0.12814988 0.049412582
0.16809238 -0.13435416 -0.034107164 -0.027643695 0.20700197 0.13541579 0.33110186 0.06765808
0.014349841 -0.009320351 -0.1851481 -0.24870236 -0.062458735 0.32160017 -0.059776668 -0.10568014
-0.16870098 0.23925662 -0.16587906 0.21066214 0.19043988 -0.076970086 0.14627871

weight f4 [82, 55]
00000000: 8fc1 0b3c 03e4 2f3e 229a 023e 0324 c23d
00000010: bf21 d03c 4691 e83a b646 e23b 5e4e 693b
00000020: 26fd 033e d82f 843b 8152 d2bd 3e09 853d
00000030: b70a ab3b 278d 8dbd c45e 86bd 65a6 b83e
00000040: a75f 3f3d 0516 093d 429d 053c faa2 5a3c
00000050: 004f 093c 596e c4bd cadd df3d 96e4 963d
00000060: 8933 cf3d 3269 64be 3da2 ae3d d43f b63d
00000070: 392d d6bd fc75 4e3d 4811 013e 6bb0 d9bc
00000080: 7bd9 633d 9e26 85bd 83a2 3dbd 2a38 663c
00000090: a105 16be 71b2 4dbd d29a 3f3d 16b4 e7bd
000000a0: 63bd e83d bd6d 1e3d 0717 b63d da53 983d
000000b0: 9081 763d b700 6fbd 293e 3f3d 81d7 52bd
000000c0: 2cfd 313d 418b 093e d1b6 9f3c 893e 5a3d
000000d0: 7596 d5bd be5c 48bd 3a23 603d 3814 123e
000000e0: 8154 83bd 7c12 9bbc fb28 3bbd deae 1c3e
000000f0: f55c ab3d 9805 8bbc 20cc 1f3d 0d26 d5bd
00000100: a360 afbd c489 8cbd c6ac c83b 3d63 073e
00000110: 7a77 bd3d 18a5 98bc d7b8 d5bd c5a4 49bd
00000120: e033 81bb 51b2 95bd 6234 c83c c836 183e
00000130: 7872 1c3d e159 07bd 6e8e 0f3e 6517 c1bd
00000140: a41a a93d 4bcd 97bd 7d2a 2ebe 9590 97bd
00000150: 587b 183d 3324 bdbd 8a63 3ebd 01eb 1abd
00000160: 2301 043d 0cd8 b3bd 001e f93d 5a1d 8cbc
00000170: 90f0 2f3e 4abf e6bd 9fb4 91bd 8ae0 c5bd
00000180: 552a ac3b 1dad d83d 61fd b33d b369 01bf
00000190: 0c63 f8bd b31a b73c 9c26 cf3d e0e6 5ebd
000001a0: debd 19be 81e3 a63c 008d 563d ede1 64bd
000001b0: f8fd ab3c f575 eb3d a0e0 b93d 94b4 13be
000001c0: c793 bb3d a902 383d 7aee 683d 8947 b7ba
000001d0: 07a8 f1bd 2233 9ebe 44ea 913d 7793 853d
000001e0: 5f47 dcbd b279 6fbc e1fc 103e bd83 2ebd
000001f0: 5163 9ebd 4d29 6e3e 8ea3 683d 1a10 bf3d
00000200: 46fa 023e d8db f13d 2be6 153a 5c43 54bd
00000210: 5b56 2a3e bc1d da3d ffd8 c0bb 89d2 5bbe
00000220: 9c38 e6bd beaa b23e 8fc8 da3d 24e9 8b3d
00000230: c412 17bd 47c1 62bd 6959 0a3d 6331 85bb
00000240: 604b 46be 3c1d 8abc a704 43bd 4509 0dbd
00000250: 5f85 003e e15a 0d3d a450 7f3d 061d e33d
00000260: 5e3a 213d 5129 a93d 07c7 4f3e 3ad2 af3d
00000270: e10d 423d 1b40 53be 775f 6b3c 2dcd 9b3d
00000280: 7543 f63d 2024 3fbd d2a1 2cbe e5ce afbd
00000290: dc3d b63d 2367 7fbd c332 a93d 96ea d7bd
000002a0: 1aca 103c 0afe 7dbd 26f9 5dbe 5399 9e3d
000002b0: 66ea d23e 34cf ff3d 8599 f2bd 66c1 91bd
000002c0: ea96 08be eb5d fd3a ae86 c93d c7d8 01be
000002d0: 3305 05bf 96f3 db3d 57a3 273e 423e 7bbc
000002e0: e793 e83d b1bb d53d 11c1 00be cf2f 95be
000002f0: 6d63 c3bc 46f9 e6bd af5b 913e 38c7 0f3e
00000300: e7fc b93d 89d8 303d 52d9 f63c bde6 013d
00000310: f9a2 873d 1a4e 33bf 9e16 9bbd b35f 9b3d
00000320: bd5e 243e 5a78 24bf 3e9a e03e a08b d33d
00000330: ebb9 b93d 0df2 da3d 53eb 8abd 0626 73bd
00000340: 58cc 57bd c4f4 92bd 18c5 8cbf 19e7 8abd
00000350: fa16 263e a8b6 903d e352 86bd 41a4 72bc
00000360: 4c5d 233d 515f 5ebf 7ca7 6ebb 0035 31bd
00000370: 72a2 26bd 20c1 8abd 5892 66be 611e 96bd
00000380: b606 ab3d cff4 5dbe b943 433d c7d9 6f3d
00000390: f2e7 bcbd f04f 99bc 5ee5 503c 4cf5 e6bd
000003a0: a75f 10bf ae52 18be 5140 453e 93a5 4ebe
000003b0: 2e7f df3d d1a6 ff3d ebb1 883d 0564 363e
000003c0: b3b9 0b3e c1ae 5d3d f873 77bd 8bce 50bd
000003d0: c689 93be 7247 cb3d b202 923c af6e cbbd
000003e0: a9e3 2f3e 7413 b0be 3836 823d 7c38 75bd
000003f0: d562 153e dc20 81bd c057 ca3d 796f 7b3e
0.008530035 0.17176823 0.1275411 0.09479525 0.025406716 0.001774349 0.006905402 0.003559969
0.12889537 0.0040340237 -0.102696426 0.064959034 0.005219783 -0.06911688 -0.06561044 0.3606445
0.04672208 0.033468265 0.008155169 0.013344521 0.0083806515 -0.0959136 0.10930975 0.07367818
0.101172514 -0.22305754 0.08527038 0.08898893 -0.10457844 0.050405487 0.12604249 -0.02657338
0.055627327 -0.06501506 -0.04629756 0.0140514765 -0.14650585 -0.050219003 0.046778508 -0.113136455
0.11364248 0.038678873 0.08891111 0.074378684 0.060182154 -0.05835029 0.04669014 -0.05147505
0.043454334 0.13432027 0.019496353 0.053282294 -0.10429088 -0.04891657 0.054721095 0.14265525
-0.06412602 -0.018929712 -0.04569338 0.15301082 0.083673395 -0.01697044 0.03901303 -0.10407648
-0.08563354 -0.06862214 0.006124112 0.1322145 0.09251304 -0.01863341 -0.10435646 -0.049229402
-0.0039429516 -0.07309402 0.02443904 0.14864647 0.038195103 -0.0330447 0.14019176 -0.0942829
0.082570344 -0.074122034 -0.17008395 -0.07400624 0.037227005 -0.0923542 -0.046481647 -0.037821773
0.032227647 -0.08781442 0.12163925 -0.01710384 0.17181611 -0.11266954 -0.07114529 -0.09661968
0.00525407 0.10579894 0.087885626 -0.5055191 -0.12128267 0.022351598 0.10114786 -0.0544194
-0.15013835 0.020372154 0.05238056 -0.055879522 0.020995125 0.11497108 0.09076047 -0.14424354
0.09159046 0.044924412 0.056868054 -0.0013983111 -0.11799627 -0.30898386 0.07124761 0.06522267
-0.107558005 -0.014616417 0.14158966 -0.042606104 -0.07733787 0.23257942 0.056796603 0.09329243
0.12790784 0.1180951 0.00057181966 -0.05182205 0.16634504 0.10650203 -0.005885243 -0.21467032
-0.11241266 0.3489589 0.10682785 0.068315774 -0.03688313 -0.055360105 0.033776674 -0.0040647252
-0.19364691 -0.016859643 -0.04761186 -0.03443267 0.12550877 0.034510497 0.062332764 0.1108952
0.039362304 0.082598336 0.20290767 0.085850194 0.047376517 -0.20629923 0.014366022 0.076074935
0.12024585 -0.04666531 -0.16858605 -0.08584384 0.088985175 -0.06235422 0.08261635 -0.105427906
0.008837247 -0.06200985 -0.21677074 0.07744088 0.41194457 0.12490693 -0.11845688 -0.07116966
-0.13338819 0.0019330358 0.09840141 -0.1268035 -0.5196106 0.1073982 0.16370903 -0.015334668
0.11356335 0.1043619 -0.12573649 -0.29138038 -0.02385112 -0.11278014 0.28390262 0.1404084
0.090814404 0.043175254 0.030132923 0.03171419 0.066228814 -0.7004105 -0.07572673 0.075866126
0.16051765 -0.6424614 0.43867677 0.10329366 0.09068664 0.10690699 -0.06783166 -0.059362434
-0.05268511 -0.071755916 -1.0997648 -0.0678236 0.16219702 0.07066089 -0.06558778 -0.014809669
0.039883897 -0.8686419 -0.0036415746 -0.043263435 -0.040682264 -0.06775117 -0.22516763 -0.07330013
0.083508894 -0.21675418 0.047672007 0.058557298 -0.092239276 -0.018714875 0.012749998 -0.112772554
-0.56395954 -0.1487529 0.19262816 -0.20180349 0.109129295 0.124829896 0.0667456 0.17811592
0.13645057 0.054121736 -0.06041333 -0.050978225 -0.2881605 0.099257365 0.01782355 -0.099332206
0.17176689 -0.34389842 0.06357998 -0.05986832 0.14588483 -0.063050956 0.09880018 0.24554242
