src/ai/autoencoder_v2/data/autoencoder_v2_model.pth (torch, 133674 bytes, 16 tensors)

weight f4 [82, 110]
-0.03766403 -0.06529515 -0.019167164 -0.029962163 0.03552586 0.043723617 0.09718533 0.19715916
-0.034960285 0.026214058 -0.07022025 -0.07438372 0.03655684 -0.064764045 -0.06631853 0.05768457
-0.015282484 -0.005890137 0.0105083445 0.058379143 0.07241488 -0.10252797 0.1638053 -0.06525016
-0.039286043 0.44239384 -0.061677355 0.11647923 -0.07145129 0.080375426 0.06842553 0.11641684
0.1439439 0.0732948 0.051839504 0.02817067 0.06811391 0.022233618 -0.060396586 -0.30113506
-0.049041048 0.028666774 -0.065572955 0.056837924 -0.022992844 -0.031982817 0.07268799 -0.026715942
0.06780786 0.09009841 0.06728771 0.032858986 0.17873155 0.07854124 -0.08923778 -0.061050747
-0.006089113 -0.2761741 -0.08974554 0.10476592 -0.17903784 0.036151547 -0.053464733 0.06086618
0.015741518 -0.021012358 -0.039538663 -0.04164469 0.050879657 0.07198158 0.049364787 0.06732221
-0.044853706 -0.035291143 -0.08703074 -0.03104413 0.006758057 -0.04357625 -0.09484219 -0.053732794
-0.07978809 0.028379334 0.055396184 0.10665307 0.16310653 0.033310384 0.08374194 -0.03849417
0.15210584 -0.061176185 -0.03487428 -0.07546059 0.12246522 0.008850169 -0.39214465 0.07283072
-0.27308476 -0.12692475 0.25661838 0.07626927 -0.0078091584 -0.0040622144 -0.013740435 -0.027826246
0.030355705 0.051740043 0.11275277 -0.0015293736 -0.037348554 -0.0014701453 -0.064075835 -0.12024665
0.026998186 0.08579374 -0.078103505 -0.05555849 -0.031001378 0.055842865 -0.084125996 -0.08605598
0.072436035 0.03389873 -0.049769588 -0.018303007 -0.033180773 0.0074357027 -0.052281015 -0.015289405
0.07840153 -0.12149863 0.20749427 -0.032030076 0.036269415 -0.06793002 0.059968483 0.13083266
0.23433213 -0.07579248 -0.08563492 -0.038083114 -0.06908287 0.04253556 0.06280166 0.020696322
0.04156195 0.09141647 0.059977815 -0.010611071 -0.32991746 0.23740485 0.03792385 -0.07715855
-0.023037318 -0.022476502 0.06911404 -0.006085169 -0.029695898 -0.069302544 -0.0117022 -0.0947853
0.092521496 0.027519178 0.10127492 0.22019422 -0.030277858 0.07519147 0.03349122 -0.01588982
0.22050999 0.14605972 0.36749372 -0.08626359 -0.07103288 0.034418277 -0.089956574 0.025911082
-0.07318719 -0.01232452 -0.052247122 -0.0501685 0.01918045 -0.06842544 0.06400264 -0.02678497
-0.04778154 -0.093058065 -0.050040755 -0.07276434 0.054178312 0.08176001 -0.037141927 -0.014064076
0.050028164 -0.013943877 0.09125348 -0.094959214 0.06006229 0.06759317 0.0040124715 0.029922348
0.029800486 -0.050234333 0.09688485 0.049901485 -0.40268573 0.062077973 -0.025687777 0.17738172
0.11390248 -0.010064553 -0.088282414 0.12517394 -0.039842863 0.02827515 0.07154438 -0.008343511
0.026617311 -0.062952496 0.09338897 0.10611005 -0.07039835 0.13887228 -0.0033985157 -0.030046567
0.1628033 -0.08961063 0.25155583 -0.11729408 -0.038468402 0.0054712715 -0.020973861 0.014975267
-0.09130329 -0.056664705 0.081852555 -0.086972386 0.04515317 -0.08051694 -0.08218164 0.0056649256
-0.2566739 0.055628255 0.14604153 0.029597854 -0.18100888 -0.13858555 -0.12792407 -0.07342433
0.033618383 0.029266383 -0.043749906 -0.22006737 -0.013562184 -0.023542682 -0.011395612 0.21365955
00000000: 9945 1abd 77b9 85bd 7504 9dbc 3673 f5bc
00000010: 9083 113d 8917 333d 1a09 c73d 17e4 493e
00000020: 8432 0fbd ddbe d63c a2cf 8fbd 7e56 98bd
00000030: a0bc 153d 03a3 84bd 02d2 87bd a846 6c3d
00000040: 6263 7abc 0d02 c1bb 312b 2c3c f81e 6f3d
00000050: 414e 943d 2ffa d1bd 94bc 273e e0a1 85bd
00000060: 67ea 20bd 7281 e23e 65a1 7cbd aa8c ee3d
00000070: 0e55 92bd df9b a43d af22 8c3d f46b ee3d
00000080: 0866 133e 961b 963d a955 543d 2dc6 e63c
00000090: 4e7f 8b3d 4723 b63c 6962 77bd 602e 9abe
000000a0: 44df 48bd 95d6 ea3c 1d4b 86bd e2ce 683d
000000b0: 7d5b bcbc 6a00 03bd 71dd 943d 64db dabc
000000c0: d9de 8a3d 8485 b83d 24ce 893d 2597 063d
000000d0: 6705 373e 3bda a03d 4cc2 b6bd 5910 7abd
000000e0: 2f87 c7bb b166 8dbe 82cc b7bd 848f d63d
000000f0: b255 37be a513 143d d6fd 5abd d14e 793d
00000100: 5bf4 803c 1c22 acbc 4bf3 21bd 9f93 2abd
00000110: 3067 503d 146b 933d bb32 4a3d 3ae0 893d
00000120: 85b8 37bd 728d 10bd 2c3d b2bd 4250 febc
00000130: b172 dd3b 037d 32bd 9f3c c2bd eb16 5cbd
00000140: f067 a3bd c77b e83c 1ce7 623d ed6c da3d
00000150: 6605 273e 7870 083d e580 ab3d 10ac 1dbd
00000160: a2c1 1b3e e193 7abd 55d8 0ebd 158b 9abd
00000170: 0ccf fa3d 4d00 113c 2fc7 c8be 4628 953d
00000180: c4d1 8bbe 90f8 01be 7c63 833e 1033 9c3d
00000190: f8e3 ffbb 531c 85bb 901f 61bc def3 e3bc
000001a0: 87ac f83c 5eed 533d edea e63d 4375 c8ba
000001b0: ccfa 18bd e4b1 c0ba 313a 83bd e043 f6bd
000001c0: 4d2b dd3c a1b4 af3d bbf4 9fbd 4d91 63bd
000001d0: 9af6 fdbc 7dbb 643d 404a acbd 1e3e b0bd
000001e0: 5859 943d 65d9 0a3d 32db 4bbd 30f0 95bc
000001f0: 90e8 07bd 32a7 f33b 9e24 56bd 6a80 7abc
00000200: fb90 a03d 46d4 f8bd 6179 543e f831 03bd
00000210: 3d8f 143d e51e 8bbd 83a1 753d fff8 053e
00000220: c3f4 6f3e 1639 9bbd 5c61 afbd 0afd 1bbd
00000230: 527b 8dbd c439 2e3d 289e 803d 558b a93c
00000240: dd3c 2a3d 8f38 bb3d 4cab 753d 0fda 2dbc
00000250: f1ea a8be 421a 733e 0a56 1b3d 4d05 9ebd
00000260: c2b8 bcbc a420 b8bc a98b 8d3d 1966 c7bb
00000270: d044 f3bc 7eee 8dbd 96ba 3fbc cc1e c2bd
00000280: e97b bd3d e66f e13c 3a69 cf3d 987a 613e
00000290: 4509 f8bc fcfd 993d 172e 093d 5e2b 82bc
000002a0: 5fcd 613e ae90 153e 2328 bc3e f7aa b0bd
000002b0: b079 91bd 2efa 0c3d 273b b8bd 7a43 d43c
000002c0: 2ae3 95bd c9ec 49bc 1401 56bd 7c7d 4dbd
000002d0: 5220 9d3c a322 8cbd d113 833d 276c dbbc
000002e0: 93b6 43bd 3a95 bebd 89f7 4cbd 7805 95bd
000002f0: 14ea 5d3d cb71 a73d 2222 18bd 036d 66bc
00000300: 55ea 4c3d dc74 64bc 1be3 ba3d fa79 c2bd
00000310: e003 763d 4a6e 8a3d 0d7b 833b b61f f53c
00000320: 2620 f43c 84c2 4dbd 906b c63d 8065 4c3d
00000330: d32c cebe 7945 7e3d 2c6f d2bc 8ea3 353e
00000340: b445 e93d cbe5 24bc 69cd b4bd 992d 003e
00000350: 4532 23bd 4aa1 e73c dc85 923d 39b3 08bc
00000360: 8c0c da3c 3ded 80bd b742 bf3d 3a50 d93d
00000370: 032d 90bd 8934 0e3e a2b9 5ebb 3824 f6bc
00000380: e9b5 263e c785 b7bd edcb 803e e137 f0bd
00000390: 0b91 1dbd 5a48 b33b 60d1 abbc d35a 753c
000003a0: 38fd babd 4019 68bd 50a2 a73d 941e b2bd
000003b0: 88f2 383d 11e6 a4bd d94e a8bd d7a0 b93b
000003c0: c36a 83be 74da 633d e98b 153e 3377 f23c
000003d0: 645a 39be 5fe9 0dbe 87fe 02be 7f5f 96bd
000003e0: 6eb3 093d 0ec0 ef3c 1a33 33bd 5759 61be
000003f0: ec33 5ebc 95dc c0bc a9b4 3abc 92c9 5a3e

bias f4 [82]
0.06679081 0.0861202 0.042330675 0.08619186 0.12418219 0.013096522 0.06670979 -0.0025336184
0.109350406 0.044618964 -0.021786727 0.12741742 0.019886602 -0.08961008 -0.026895167 -0.03622662
-0.011084825 0.042561244 0.08551097 -0.016618732 0.09528965 -0.07982475 0.12631641 -0.028148219
0.078847185 0.022083623 0.10929137 0.11905023 -0.033857036 0.039506547 0.06990895 0.1282749
0.11901664 0.123771444 0.1121622 -0.026408153 -0.073487535 0.055883586 -0.03610043 0.019788006
-0.10093854 0.019544613 0.10948772 0.004395286 0.117756836 -0.07612924 -0.050617907 0.11159926
0.07006193 0.12789348 -0.06794908 0.045677777 -0.018995015 0.12228694 0.06822878 -0.057835855
0.058969878 0.067652516 -0.009278676 0.17105472 0.034337226 0.0019606706 0.019283313 0.12479013
0.11604035 0.14822719 0.13669446 -0.019374346 0.09792349 0.11379677 0.032224204 0.026227625
0.04005347 0.004787558 0.06804789 -0.030478679 0.015835084 0.07034821 -0.02212194 -0.021002328
0.021221582 0.09784687
00000000: 9fc9 883d ca5f b03d ee62 2d3d 5c85 b03d
00000010: 3b53 fe3d cb92 563c 249f 883d 100b 26bb
00000020: 1bf3 df3d 60c2 363d 147a b2bc b679 023e
00000030: 3ae9 a23c 7d85 b7bd 4153 dcbc 5d62 14bd
00000040: 209d 35bc b354 2e3d 6020 af3d 0224 88bc
00000050: 3827 c33d 297b a3bd 1759 013e 1897 e6bc
00000060: a27a a13d b7e8 b43c 27d4 df3d 9bd0 f33d
00000070: adad 0abd 9ed1 213d 6c2c 8f3d 7f5a 033e
00000080: ffbe f33d e27b fd3d 4cb5 e53d e955 d8bc
00000090: a280 96bd 30e6 643d 0bde 13bd 751a a23c
000000a0: deb8 cebd 061c a03c 193b e03d 5506 903b
000000b0: 7f2a f13d a6e9 9bbd b954 4fbd 278e e43d
000000c0: a17c 8f3d 82f6 023e e328 8bbd 9f18 3b3d
000000d0: 6f9b 9bbc 9371 fa3d 88bb 8b3d 4ae5 6cbd
000000e0: 668a 713d 678d 8a3d 9605 18bc f828 2f3e
000000f0: 31a5 0c3d 987e 003b 0af8 9d3c f891 ff3d
00000100: 90a6 ed3d dec8 173e a2f9 0b3e f3b6 9ebc
00000110: 1c8c c83d 480e e93d 87fd 033d 51db d63c
00000120: 1b0f 243d f3e0 9c3b b15c 8b3d 6cae f9bc
00000130: 94b8 813c b912 903d 1239 b5bc 130d acbc
00000140: e2d8 ad3c f163 c83d

weight f4 [55, 82]
0.1807776 0.07669478 -0.0891336 0.13910492 0.21764915 0.05694488 -0.041657858 0.14218733
-0.021414327 -0.100637406 -0.037102982 -0.04893108 0.14342183 0.0083916085 0.25275096 0.1445843
0.08859591 -0.04133088 0.06582064 0.01287654 0.07031706 -0.00514878 0.16339433 0.07757365
-0.2112342 0.114044644 -0.09407775 0.1587121 0.24727172 0.011710021 0.036406 0.12564461
-0.062412348 0.118614465 -0.04324029 0.10687411 0.1099017 0.12824816 -0.102142975 -0.0009892078
0.0016316461 0.19288133 -0.027481737 -0.008793965 0.07435037 0.00586075 0.013999262 0.05979839
0.060676683 -0.051923502 0.34258175 -0.007860316 -0.01811057 0.051254783 0.022282481 0.03341334
-0.044235647 0.17988122 0.034179147 0.064211644 0.11421402 -0.28914928 -0.13602051 0.025202114
0.12180392 0.007355819 -0.00021568238 -0.08233034 -0.024513505 0.11415265 0.07165533 0.07184888
0.037871763 -0.108252764 0.02603443 0.096076734 -0.10747441 0.09779324 -0.16062437 0.022321437
0.025677914 0.041234184 -0.16648772 0.12614802 -0.14510888 -0.10533249 -0.17202929 0.09713348
0.35960057 0.0029721681 -0.27425694 0.26248866 0.087886095 0.009663443 0.043706074 0.016482396
0.022773657 0.25055453 -0.09466017 0.077560395 0.13123046 0.04298189 0.066230714 0.0093752835
-0.033394095 0.20916066 0.13474834 0.14456718 0.1779968 0.23266828 0.2395857 0.020764098
0.08899922 -0.0148356445 0.29046965 -0.3160614 0.09367899 -0.23373312 -0.065756924 -0.06614605
-0.16330639 -0.21417588 -0.06633031 -0.11420167 0.044163562 -0.041946538 -0.0825218 -0.08027925
-0.025232276 0.14337479 -0.10330045 0.06520698 -0.05578889 -0.09671413 0.00067244 0.18971583
0.11555668 -0.026025802 0.1862954 -0.091054685 -0.15757169 0.0711546 0.11964328 0.4596354
0.015113576 0.3028887 -0.066476665 0.28852633 0.15789999 0.10850522 0.15032606 0.03715735
0.35852084 -0.11185053 0.058083072 -0.008006082 -0.04852763 0.14548965 0.060594108 -0.0112304
0.008671932 0.11195774 0.20400763 0.093465 -0.08337858 -0.114501774 -0.08722804 -0.10018919
0.023314504 -0.038909916 0.036934156 0.010692813 0.061316077 0.06727987 0.020191155 -0.099221714
-0.033188157 0.034856737 -0.046241716 0.036575127 0.01750421 -0.02391458 0.06435806 -0.0016421742
-0.07146977 0.033486344 -0.04919262 -0.03630972 -0.015594855 0.06225544 0.053252533 -0.03875885
-0.02166991 -0.1081241 0.028149337 0.056015324 -0.033718158 -0.061731797 0.07749053 -0.005261547
0.004073612 -0.11122943 0.0859021 -0.00033406843 -0.093757786 0.056398977 -0.048338298 0.019832797
0.07217513 0.0020076202 0.0563151 -0.10294146 0.005492299 0.00090742327 -0.0883142 0.003923366
0.06779603 -0.06393871 -0.014964576 -0.0899065 0.072895326 -0.03861917 0.06711084 -0.12435982
-0.07355933 0.07807356 -0.06937325 0.06651059 0.0637547 0.041234728 -0.051679503 -0.02540132
0.08462044 -0.011909962 -0.0059559536 -0.11520924 -0.102714285 -0.013197213 0.0053053317 -0.072806485
-0.0067336103 -0.05242096 -0.11136915 -0.088119775 -0.0053161085 -0.019320644 0.086910516 0.025141167
-0.078267604 0.17821966 0.06724267 0.047004543 0.05492037 -0.013691265 -0.11620306 0.22776574
00000000: c31d 393e 2712 9d3d ad8b b6bd 8571 0e3e
00000010: 6bdf 5e3e 093f 693d 6ea1 2abd 8e99 113e
00000020: 196d afbc fc1a cebd 4cf9 17bd f56b 48bd
00000030: 2cdd 123e f57c 093c 9368 813e e80d 143e
00000040: c671 b53d 924a 29bd f9cc 863d 20f8 523c
00000050: 6402 903d 19b7 a8bb d850 273e efde 9e3d
00000060: c74d 58be 3d90 e93d d6ab c0bd 6d85 223e
00000070: cc34 7d3e 63db 3f3c 751e 153d fba8 003e
00000080: 17a4 7fbd 24ec f23d bb1c 31bd d0e0 da3d
00000090: 2414 e13d 7c53 033e 5630 d1bd 4ea8 81ba
000000a0: f5dc d53a af82 453e 6121 e1bc 9014 10bc
000000b0: 0245 983d 890b c03b 295d 653c 28ef 743d
000000c0: 1d88 783d bdad 54bd e066 af3e 8ec8 00bc
000000d0: 9e5c 94bc 89f0 513d c089 b63c 6ddc 083d
000000e0: 7030 35bd c832 383e 6fff 0b3d 6581 833d
000000f0: 0ae9 e93d 600b 94be f648 0bbe aa74 ce3c
00000100: 5574 f93d 1509 f13b cc28 62b9 cf9c a8bd
00000110: 8cd0 c8bc ddc8 e93d 08c0 923d 8125 933d
00000120: 6c1f 1b3d a0b3 ddbd 2846 d53c e1c3 c43d
00000130: 8b1b dcbd d247 c83d b77a 24be 72db b63c
00000140: 7d5a d23c 2de5 283d c27b 2abe f22c 013e
00000150: 6c97 14be 8fb8 d7bd 7228 30be ebed c63d
00000160: 911d b83e b5c8 423b 686b 8cbe ea64 863e
00000170: a0fd b33d 6b53 1e3c 2405 333d 1706 873c
00000180: d28f ba3c af48 803e 31dd c1bd fcd7 9e3d
00000190: 4761 063e c70d 303d f8a3 873d ca9a 193c
000001a0: 3fc8 08bd 362e 563e 78fb 093e 6b09 143e
000001b0: cb44 363e 9840 6e3e f455 753e 7819 aa3c
000001c0: 3945 b63d 3411 73bc 70b8 943e cdd2 a1be
000001d0: c5da bf3d bc57 6fbe 91ab 86bd 9577 87bd
000001e0: ca39 27be ec50 5bbe 30d8 87bd 91e2 e9bd
000001f0: dae4 343d 22d0 2bbd 3101 a9bd 7369 a4bd
00000200: ebb3 cebc d7d0 123e 308f d3bd 3d8b 853d
00000210: e482 64bd 0f12 c6bd af46 303a de44 423e
00000220: fba8 ec3d 1034 d5bc 39c4 3e3e e17a babd
00000230: 795a 21be 81b9 913d 8907 f53d 5555 eb3e
00000240: ef9e 773c 3a14 9b3e eb24 88bd b9b9 933e
00000250: 89b0 213e fc37 de3d 13ef 193e 4e32 183d
00000260: 0b90 b73e e411 e5bd 84e8 6d3d f12b 03bc
00000270: e8c4 46bd 3dfb 143e 8731 783d b6ff 37bc
00000280: b814 0e3c 194a e53d 60e7 503e 946a bf3d
00000290: 64c2 aabd e87f eabd 9da4 b2bd fd2f cdbd
000002a0: 0ffe be3c 0160 1fbd 4548 173d e930 2f3c
000002b0: 9126 7b3d 07ca 893d ec67 a53c c134 cbbd
000002c0: 4ef0 07bd f0c5 0e3d f467 3dbd cdcf 153d
000002d0: fd64 8f3c 82e8 c3bc 29ce 833d 393e d7ba
000002e0: be5e 92bd fa28 093d 337e 49bd 80b9 14bd
000002f0: 9081 7fbc 8fff 7e3d 541f 5a3d 9ac1 1ebd
00000300: 1885 b1bc 2b70 ddbd 7099 e63c 5370 653d
00000310: 0d1c 0abd 7bda 7cbd 5bb3 9e3d 0e69 acbb
00000320: ef7b 853b 41cc e3bd 71ed af3d e825 afb9
00000330: 1504 c0bd 9d02 673d 61fe 45bd 6478 a23c
00000340: 8ed0 933d 4792 033b aaaa 663d f9d2 d2bd
00000350: bef8 b33b 25e0 6d3a 13de b4bd 948f 803b
00000360: a5d8 8a3d 4cf2 82bd fb2d 75bc e620 b8bd
00000370: 254a 953d 232f 1ebd 6871 893d 5cb0 febd
00000380: 46a6 96bd 08e5 9f3d 9013 8ebd b436 883d
00000390: d391 823d bfe5 283d e3ad 53bd 6e16 d0bc
000003a0: 7b4d ad3d 0022 43bc 292a c3bb d2f2 ebbd
000003b0: de5b d2bd 2039 58bc 59d8 ad3b 911b 95bd
000003c0: 9ea5 dcbb 5cb7 56bd 8215 e4bd 2478 b4bd
000003d0: c032 aebb 5446 9ebc 24fe b13d d9f4 cd3c
000003e0: c44a a0bd 377f 363e 86b6 893d d687 403d
000003f0: 2ff4 603d 5451 60bc dffb edbd 6c3b 693e

bias f4 [55]
0.11870897 0.12926199 -0.050689418 0.008685571 0.036498986 0.0015149906 0.14867193 0.04192144
0.06343503 -0.010913731 0.048796378 0.052774858 -0.00309354 -0.031335037 -0.036552113 -0.062370192
-0.034855302 -0.09215413 -0.065871306 0.04017609 -0.055266857 0.06597686 0.006341896 0.07062388
0.14655147 0.093621254 -0.01948727 -0.10394652 0.103403725 -0.12001309 -0.0068837386 0.048938673
-0.06459093 0.05011735 0.013591502 0.0583943 0.062484812 -0.07356505 0.1282297 -0.07063755
-0.01085325 -0.064110115 -0.047637083 -0.044121254 -0.11053332 0.08177974 0.1471624 0.05524013
0.08143747 -0.002875292 0.06413883 -0.11730469 -0.11864237 -0.0943283 0.094399065
00000000: b01d f33d 415d 043e b59f 4fbd ed4d 0e3c
00000010: f67f 153d a692 c63a 743d 183e d1b5 2b3d
00000020: 3aea 813d 81cf 32bc b6de 473d 732a 583d
00000030: fdbc 4abb 2b59 00bd abb7 15bd e377 7fbd
00000040: 6fc4 0ebd 4ebb bcbd 89e7 86bd af8f 243d
00000050: 805f 62bd e01e 873d aecf cf3b 41a3 903d
00000060: 9711 163e 80bc bf3d c4a3 9fbc eae1 d4bd
00000070: 55c5 d33d 6cc9 f5bd fc90 e1bb eb73 483d
00000080: 4048 84bd da47 4d3d e4ae 5e3c dd2e 6f3d
00000090: 13f0 7f3d 46a9 96bd a54e 033e 6baa 90bd
000000a0: d4d1 31bc 2a4c 83bd 1a1f 43bd 7db8 34bd
000000b0: 4b5f e2bd 237c a73d bdb1 163e 7943 623d
000000c0: b0c8 a63d 656f 3cbb 385b 833d 713d f0bd
000000d0: c5fa f2bd 322f c1bd 4c54 c13d

weight f4 [27, 55]
0.014101755 0.12103075 0.092684664 -0.06697113 0.04238169 -0.10865406 -0.02357395 0.03939165
-0.10848795 0.083204456 0.020087011 0.11273942 -0.060114376 0.024547143 -0.09845426 -0.054842826
-0.08288765 0.06608775 0.052371424 0.03686103 0.014170451 -0.110071965 0.018019907 -0.071173005
-0.01449594 -0.08804648 -0.10996396 -0.051582757 -0.07320846 -0.0890006 0.07411969 -0.13790697
0.118077286 -0.013928355 -0.07570652 0.02222652 0.034042537 -0.004265428 0.105019614 0.123295605
0.038188636 -0.033157714 -0.02061727 0.07793798 0.070139125 -0.12420496 0.05983153 0.060363617
-0.0759131 -0.07930184 0.03073402 -0.07404221 0.017512204 -0.068009056 -0.011447324 -0.01399858
-0.032988176 -0.006439947 0.1336008 0.02804715 -0.0088906875 -0.10824726 -0.06538534 -0.10020516
-0.029081294 0.098239526 -0.061073497 0.1513444 0.048863705 -0.024667436 0.075932905 0.05845038
0.083248936 0.00078423374 -0.08495121 0.16659911 -0.005083607 0.12519988 0.07175272 0.10933446
0.020078847 -0.1772084 -0.062820844 -0.12838532 0.107235625 0.11102111 -0.019017713 -0.116671324
-0.02695498 0.13038456 0.04212514 0.048851203 0.108616345 0.21827224 -0.11315578 0.120534725
-0.1094725 -0.035199907 0.15023272 0.0492022 0.10761838 0.07571372 0.11069758 0.12931861
-0.18575187 0.063473865 0.026799971 0.06656996 0.11081049 0.025151987 -0.049372684 -0.025089025
0.034661904 0.024362747 -0.010243204 0.13399857 0.004940162 0.12831986 -0.0036690272 -0.13391104
-0.027934583 0.13205071 -0.12400391 -0.007392302 0.07585081 -0.09347218 0.034587078 -0.027049523
0.03143699 -0.11232776 0.07637623 0.091265626 -0.082125634 -0.116069585 -0.10465396 0.07663274
0.0044701323 0.090984374 -0.09940173 0.069106616 0.026032241 0.09014839 -0.04065201 0.015179681
-0.09109593 -0.11731907 -0.02423533 0.1106311 0.107381985 -0.06691797 0.08018727 -0.07415701
-0.11740709 0.06774517 -0.07764228 -0.09721321 0.04998365 0.020354599 -0.14117578 -0.0898659
-0.04417539 0.06983905 -0.07235338 -0.12910739 -0.043773327 0.22083117 -0.050641946 0.06639985
-0.009630712 -0.105589904 0.10234254 0.21983646 0.108003184 0.30674905 0.11846235 0.18432608
-0.07028102 0.058696102 0.075329825 0.22020754 -0.03698178 -0.03233864 0.09169628 0.017826816
0.0462864 0.12283879 -0.028924651 -0.014187616 0.024582647 -0.058119863 0.074075505 0.16060965
0.030436011 0.192937 -0.052958302 0.044737242 0.14326057 -0.06386297 0.0012280081 -0.14198284
-0.100024834 -0.13071075 0.12616949 -0.23544341 -0.035679903 0.071778856 -0.085633084 0.148691
0.21835622 0.1079005 0.006493959 0.039893266 -0.023909878 -0.08939162 -0.14940332 0.25504664
-0.04904387 0.05527307 -0.12795356 0.21419641 0.17218336 -0.2487272 -0.124406606 0.12181522
0.08449346 0.036382183 0.07893392 0.13352826 -0.09408868 -0.04101476 0.14374258 -0.015074503
0.092305 0.047231928 0.18899599 0.23092009 -0.059395812 0.1080946 -0.10540893 -0.08824132
0.18019962 0.22876091 -0.08523422 -0.23965599 0.14558071 0.18092816 0.09634443 -0.018658523
-0.05273619 0.03012168 -0.1266198 -0.06502832 -0.10817832 -0.016507411 -0.1541787 0.0072607906
00000000: 0c0b 673c f8de f73d 75d1 bd3d 2928 89bd
00000010: 6c98 2d3d 0586 debd 281e c1bc 2459 213d
00000020: ee2e debd 1967 aa3d 848d a43c ede3 e63d
00000030: 7e3a 76bd 1717 c93c 63a2 c9bd dfa2 60bd
00000040: 00c1 a9bd 0459 873d 6b83 563d 97fb 163d
00000050: 2e2b 683c 696d e1bd 7c9e 933c 27c3 91bd
00000060: 6180 6dbc b751 b4bd c934 e1bd 7148 53bd
00000070: 51ee 95bd f245 b6bd 10cc 973d 7c37 0dbe
00000080: 81d2 f13d c133 64bc 050c 9bbd 6414 b63c
00000090: 3070 0b3d 01c5 8bbb 8614 d73d 6882 fc3d
000000a0: b06b 1c3d 62d0 07bd 8de5 a8bc f39d 9f3d
000000b0: 1aa5 8f3d 2c5f febd e811 753d d73f 773d
000000c0: 5478 9bbd 0169 a2bd e9c5 fb3c 71a3 97bd
000000d0: c175 8f3c 5548 8bbd 8f8d 3bbc 4d5a 65bc
000000e0: 9c1e 07bd 3106 d3bb a6ce 083e 23c3 e53c
000000f0: 3faa 11bc bdb0 ddbd c0e8 85bd 5d38 cdbd
00000100: e53b eebc ce31 c93d 3428 7abd 07fa 1a3e
00000110: 4f25 483d 5d13 cabc b682 9b3d aa69 6f3d
00000120: 6b7e aa3d 0995 4d3a e6fa adbd f598 2a3e
00000130: 6394 a6bb 6634 003e 17f3 923d bfea df3d
00000140: 657c a43c 1e76 35be 37a8 80bd 7177 03be
00000150: 5a9e db3d 095f e33d 09cb 9bbc 60f1 eebd
00000160: b1d0 dcbc 8883 053e 698b 2c3d 3318 483d
00000170: 3f72 de3d c282 5f3e 38be e7bd e9da f63d
00000180: 1e33 e0bd c72d 10bd 9bd6 193e 3f88 493d
00000190: 0667 dc3d cb0f 9b3d 6ab5 e23d 196c 043e
000001a0: bd35 3ebe 96fe 813d 9d8b db3c d555 883d
000001b0: 9cf0 e23d 8a0b ce3c 033b 4abd 8087 cdbc
000001c0: a4f9 0d3d 6294 c73c 1dd3 27bc ec36 093e
000001d0: 15e1 a13b 4866 033e 1074 70bb fa1f 09be
000001e0: 11d7 e4bc 4d38 073e c3f5 fdbd 203b f2bb
000001f0: ab57 9b3d 586e bfbd 2eab 0d3d f696 ddbc
00000200: 13c4 003d 190c e6bd 246b 9c3d 79e9 ba3d
00000210: 7c31 a8bd e4b5 edbd d154 d6bd a0f1 9c3d
00000220: 307a 923b 0456 ba3d 2293 cbbd c587 8d3d
00000230: 9141 d53c b89f b83d b982 26bd 32b4 783c
00000240: 8190 babd fb44 f0bd 2c89 c6bc 8f92 e23d
00000250: 16eb db3d 4a0c 89bd 3939 a43d a1df 97bd
00000260: 2173 f0bd fbbd 8a3d ea02 9fbd b817 c7bd
00000270: a8bb 4c3d b0be a63c 6290 10be 9d0b b8bd
00000280: 41f1 34bd c707 8f3d 022e 94bd ba34 04be
00000290: a94b 33bd 9121 623e ee6d 4fbd a5fc 873d
000002a0: 22ca 1dbc 853f d8bd f798 d13d cf1c 613e
000002b0: c630 dd3d 360e 9d3e 639c f23d fabf 3c3e
000002c0: 7fef 8fbd 536b 703d 8646 9a3d 167e 613e
000002d0: 357a 17bd 8675 04bd 42cb bb3d 8b09 923c
000002e0: cf96 3d3d e792 fb3d 64f3 ecbc 2d73 68bc
000002f0: 8c61 c93c 180f 6ebd e6b4 973d db76 243e
00000300: f154 f93c 4791 453e ceea 58bd 663e 373d
00000310: e6b2 123e 97ca 82bd 1df5 a03a f363 11be
00000320: d2d9 ccbd 0ad9 05be 9332 013e 1418 71be
00000330: 1725 12bd cb00 933d 6660 afbd 7442 183e
00000340: c698 5f3e f0fa dc3d 47cb d43b 1f67 233d
00000350: a6de c3bc f412 b7bd 2ffd 18be 7995 823e
00000360: 3ae2 48bd 0466 623d 4206 03be 4e56 5b3e
00000370: d650 303e 58b2 7ebe e4c8 febd 427a f93d
00000380: e80a ad3d 7c05 153d 1ba8 a13d a2bb 083e
00000390: 91b1 c0bd 18ff 27bd 4131 133e 0cfb 76bc
000003a0: 670a bd3d 4476 413d 2a88 413e 5176 6c3e
000003b0: 0649 73bd b460 dd3d a3e0 d7bd ddb7 b4bd
000003c0: 4086 383e 4d40 6a3e 478f aebd 6168 75be
000003d0: 1c13 153e 3b45 393e 3b50 c53d c2d9 98bc
000003e0: e701 58bd bec1 f63c 9fa8 01be 912d 85bd
000003f0: 988c ddbd 8d3a 87bc 05e1 1dbe edeb ed3b

bias f4 [27]
-0.07539796 0.13839282 -0.028810065 0.054749265 0.13082351 -0.015632069 -0.078183755 -0.12529543
0.03144985 0.0031237912 -0.06312776 0.14920852 0.09380764 -0.030532628 -0.072492875 0.07805757
-0.05369456 0.13373704 -0.12620626 0.043318257 -0.0068159928 -0.07469843 0.06969679 -0.08187247
-0.14684235 -0.0024816731 0.030064123
00000000: 3f6a 9abd d9b6 0d3e 1603 ecbc c440 603d
00000010: 99f6 053e d30e 80bc ce1e a0bd 724d 00be
00000020: 8fd1 003d 85b8 4c3b 2149 81bd 1eca 183e
00000030: 381e c03d 901f fabc 2577 94bd a6dc 9f3d
00000040: d4ee 5bbd 5df2 083e 373c 01be 7c6e 313d
00000050: b158 dfbb 7efb 98bd 31bd 8e3d c1ac a7bd
00000060: d75d 16be 91a3 22bb 0949 f63c

weight f4 [11, 27]
0.018214822 -0.02696513 0.15603617 0.27115297 -0.07285753 -0.051887874 -0.07713644 0.14380537
0.15330757 0.17958513 -0.27014956 0.011778487 0.15442583 0.11773158 0.2977374 -0.43756935
-0.09296302 0.1528108 0.13165928 -0.12316962 0.21926871 -0.16981606 -0.038391907 -0.04083073
0.06593221 -0.0365446 0.22724651 0.069837965 -0.21484722 0.03445825 -0.18186784 -0.05790596
-0.2321437 0.022781176 -0.05571765 -0.32510167 0.016027605 0.5094688 -0.24072292 0.06513336
-0.08171871 0.009120059 0.36120382 -0.0364245 -0.12968567 -0.17390029 -0.16557197 -0.082141615
-0.032679044 -0.1668239 0.092079364 0.1336644 0.103120275 0.18839213 -0.010817208 0.04001763
0.022002038 0.081717975 0.16910763 0.081978545 -0.19174452 0.0129024675 -0.11026615 0.11055642
0.34577832 0.14490153 -0.13110186 -0.09015872 0.041714642 0.015680896 0.054751653 -0.05705843
-0.036307156 -0.10932104 -0.05057666 0.078530535 0.013872711 -0.14582251 0.059485964 -0.16365083
0.11611804 0.027008746 0.15784557 0.08630459 0.06452875 0.01609145 0.0346048 0.28840128
-0.04173297 0.38963243 -0.16219825 0.0024570492 0.11735533 0.040202 0.04647864 -0.121909976
0.34724563 0.018992791 0.15575457 0.18652803 -0.16358806 -0.20081402 -0.11990692 -0.021630555
0.12950215 0.14760219 0.13176157 -0.02586459 0.08637101 0.21956724 -0.08893864 -0.21943839
-0.06680511 0.2660847 0.30760306 -0.16505231 -0.088034704 0.09126495 0.08918937 0.24385184
0.15163836 0.21524438 0.20120662 0.031464346 0.103697196 0.16997433 -0.15346806 -0.111219816
0.24123245 0.110396884 0.09461562 0.16765444 -0.15465799 -0.02607564 -0.17964141 -0.02658779
-0.0449261 -0.15919164 0.09431091 -0.1281431 0.0079454575 -0.09756411 -0.188353 -0.17053354
0.14051314 -0.031681627 0.06310361 -0.16880801 -0.16360241 0.25733683 -0.20823543 0.11743861
0.20866896 -0.04910446 0.15003982 -0.1598633 0.09822491 -0.028343674 0.030446038 0.09633264
0.1656714 -0.03418332 -0.04246004 -0.0069416915 0.018926473 -0.2751008 -0.119339556 0.12233622
-0.022340342 -0.15702727 0.08309947 0.19232437 -0.119564004 0.022332225 -0.19620048 -0.23419432
-0.10248202 0.04415089 0.12607333 -0.10155271 0.11552973 0.06168463 -0.009293927 -0.08663499
0.16342025 -0.0758114 -0.123548456 -0.03619878 -0.015230092 -0.191634 -0.19432522 0.12330423
-0.19053398 -0.25560635 -0.073008455 0.20267735 0.18611321 -0.10865216 -0.01793866 -0.2523313
0.107156746 -0.052384514 -0.048979197 0.2627762 -0.48989788 -0.13384262 -0.034027915 -0.11190921
-0.19150655 0.026181133 -0.15917227 0.16707453 0.090737514 0.04858876 0.14036013 0.024091078
-0.03872706 -0.19104092 -0.13823709 -0.05736488 0.10806844 -0.024664741 -0.096866205 0.11120031
0.07884304 -0.030190956 -0.5201836 -0.19648296 -0.03075453 -0.045211017 -0.1963653 0.042460006
-0.051218275 -0.039804958 0.07769311 -0.13385832 -0.24917045 -0.05833332 0.15273258 0.10214406
-0.1485044 -0.12343851 -0.05156086 -0.08681418 -0.23283054 -0.11230749 -0.12684143 -0.19645491
0.09761232 0.028450865 0.16950391 0.25773993 0.18153314 0.32350567 0.18384926 0.08571144
00000000: 4037 953c fae5 dcbc f2c7 1f3e 90d4 8a3e
00000010: 5436 95bd 6188 54bd b6f9 9dbd b741 133e
00000020: a9fc 1c3e 2ae5 373e 0b51 8abe 8efa 403c
00000030: ce21 1e3e 411d f13d 0971 983e 1709 e0be
00000040: 6563 bebd 6f7a 1c3e b1d1 063e 5b40 fcbd
00000050: fa87 603e 43e4 2dbe d540 1dbd 203e 27bd
00000060: 7707 873d caaf 15bd 4fb3 683e 3507 8f3d
00000070: e900 5cbe 1824 0d3d 903b 3abe cd2e 6dbd
00000080: 14b7 6dbe 979f ba3c 3138 64bd ba73 a6be
00000090: 534c 833c 8c6c 023f 1280 76be a464 853d
000000a0: 245c a7bd 4d6c 153c b5ef b83e db31 15bd
000000b0: 52cc 04be eb12 32be b38b 29be dd39 a8bd
000000c0: 76da 05bd e2d3 2abe 1b94 bc3d 52df 083e
000000d0: b930 d33d dee9 403e a93a 31bc 87e9 233d
000000e0: 9e3d b43c c15b a73d 8d2a 2d3e 5ee4 a73d
000000f0: ad58 44be df64 533c 38d3 e1bd 686b e23d
00000100: db09 b13e 1161 143e 913f 06be 23a5 b8bd
00000110: f9dc 2a3d 3975 803c 4543 603d 1ab6 69bd
00000120: d0b6 14bd b6e3 dfbd 7929 4fbd 9ed4 a03d
00000130: 5e4a 633c 7f52 15be 8ea7 733d 1594 27be
00000140: 4ccf ed3d 7241 dd3c 45a2 213e 76c0 b03d
00000150: a627 843d 37d2 833c c3bd 0d3d 55a9 933e
00000160: 31f0 2abd e77d c73e 4c17 26be 7206 213b
00000170: fe57 f03d daaa 243d 6360 3e3d f0ab f9bd
00000180: 2eca b13e c596 9b3c 207e 1f3e 3401 3f3e
00000190: a183 27be 31a2 4dbe c291 f5bd 9032 b1bc
000001a0: 369c 043e 0725 173e 81ec 063e fae1 d3bc
000001b0: 49e3 b03d 3cd6 603e 7625 b6bd 75b4 60be
000001c0: 1ed1 88bd 413c 883e 267e 9d3e 7903 29be
000001d0: 8a4b b4bd 1ee9 ba3d eba8 b63d 4cb4 793e
000001e0: 1647 1b3e 0669 5c3e 1c09 4e3e c2e0 003d
000001f0: 325f d43d c00d 2e3e bb26 1dbe 37c7 e3bd
00000200: a405 773e c317 e23d d6c5 c13d 9bad 2b3e
00000210: aa5e 1ebe 959c d5bc ebf3 37be a3ce d9bc
00000220: 6e04 38bd 2203 23be 1426 c13d f237 03be
00000230: aa2d 023c b1cf c7bd 9cdf 40be 58a0 2ebe
00000240: ade2 0f3e 98c4 01bd 773c 813d 02dc 2cbe
00000250: 6487 27be a7c1 833e ab3b 55be a783 f03d
00000260: 51ad 553e c221 49bd 0aa4 193e 34b3 23be
00000270: 242a c93d fe30 e8bc f869 f93c 0c4a c53d
00000280: c3a5 293e cf03 0cbd 94ea 2dbd 2177 e3bb
00000290: b10b 9b3c 03da 8cbe 4c68 f4bd 6a8b fa3d
000002a0: 1803 b7bc c2cb 20be 0e30 aa3d aef0 443e
000002b0: f9dd f4bd 12f2 b63c c7e8 48be a3d0 6fbe
000002c0: 18e2 d1bd 90d7 343d 5e19 013e defa cfbd
000002d0: da9a ec3d 06a9 7c3d 8e45 18bc b06d b1bd
000002e0: a357 273e 0243 9bbd f906 fdbd 2c45 14bd
000002f0: a387 79bc b43b 44be 31fd 46be ee86 fc3d
00000300: 571b 43be d6de 82be 7585 95bd a78a 4f3e
00000310: 7694 3e3e 0685 debd 19f4 92bc 9131 81be
00000320: ff74 db3d 2591 56bd 699e 48bd 9a8a 863e
00000330: e5d3 fabe 0a0e 09be db60 0bbd a830 e5bd
00000340: 4b1a 44be d179 d63c 0efe 22be 9615 2b3e
00000350: 97d4 b93d 0205 473d 91ba 0f3e a75a c53c
00000360: 44a0 1ebd 3ba0 43be 068e 0dbe 70f7 6abd
00000370: fc52 dd3d b60d cabc ca61 c6bd fdbc e33d
00000380: 7678 a13d 0653 f7bc c12a 05bf d432 49be
00000390: edf0 fbbc 302f 39bd fc13 49be 8bea 2d3d
000003a0: 41ca 51bd 860a 23bd 911d 9f3d 2812 09be
000003b0: 8a26 7fbe ebee 6ebd ee65 1c3e e830 d13d
000003c0: 8a11 18be 54cd fcbd 7b31 53bd a2cb b1bd
000003d0: 216b 6ebe 7801 e6bd b8e2 01be 7a2b 49be
000003e0: f8e8 c73d ca11 e93c 6f92 2d3e 7df6 833e
000003f0: d3e3 393e 89a2 a53e fb42 3c3e 7b89 af3d

bias f4 [11]
-0.060567155 -0.1310255 -0.081553556 -0.025052153 0.084489346 -0.16765954 -0.105410606 0.14627461
0.007928264 0.17505212 -0.073523074
00000000: 4415 78bd 8c2b 06be 8d05 a7bd 2c3a cdbc
00000010: c008 ad3d f1ae 2bbe 84e1 d7bd 03c9 153e
00000020: 8de5 013c dd40 333e 4493 96bd

weight f4 [27, 11]
-0.33040854 -0.14160205 -0.018296808 -0.12183161 0.31578285 -0.3531434 -0.04085291 -0.30141604
-0.058566168 0.1214483 -0.0956434 -0.022782559 0.31603724 0.17779562 0.030239198 0.26334843
0.14169328 -0.15723966 -0.23802255 0.0828658 -0.25295946 -0.1201765 0.13967931 0.2739815
-0.112528905 0.15021965 -0.22966926 -0.09443353 0.18520178 0.09292788 0.28160506 0.1273166
-0.28505158 -0.33999345 0.21403955 0.37489077 0.33835885 0.11645186 -0.011635792 -0.23110406
-0.048796076 -0.20685928 0.13550732 -0.059976183 0.1493677 0.26629916 0.07012625 -0.18750381
0.09825646 0.050602358 0.1695763 0.2030237 -0.20051916 0.19136445 0.26596814 -0.13268223
0.1944264 0.027658498 -0.28917763 -0.25990203 0.043522783 0.1352556 -0.02035471 0.02185346
-0.2032074 -0.05218899 0.3801212 -0.3211247 0.22308193 -0.264926 0.1086821 0.23581068
-0.21470222 -0.053888272 -0.32831225 -0.38377544 0.1846064 -0.12462273 -0.24167073 0.3171113
-0.23801517 0.26659334 0.21972483 -0.15635751 -0.078818604 -0.24080224 0.3186867 -0.27820683
-0.021995617 -0.29415414 0.11756491 -0.28503346 0.12260782 -0.043761674 0.26795566 0.3078798
0.20201659 0.024148718 -0.064843126 -0.1202899 0.09517249 0.08752407 -0.19872807 -0.045087185
0.121588044 0.26180464 0.21195638 -0.25979742 -0.1411705 0.17698091 -0.5129102 0.16139153
-0.08780152 0.27501652 -0.27832872 -0.10564223 0.21747352 -0.3022977 -0.26058206 0.014978185
0.55175006 0.31725276 -0.27007884 0.08316051 0.22109634 0.31724915 0.14739022 0.2318999
0.30195487 -0.21682891 0.30470246 0.016400747 -0.110922314 -0.2032722 0.30212045 0.2694815
0.18361746 0.3240967 -0.25902358 -0.31573722 -0.15012878 -0.1974869 -0.10539259 -0.22762033
0.29647595 0.015034255 -0.16387495 0.047544513 0.2958684 -0.22432001 -0.13152713 -0.0025960878
0.092947006 0.15939485 0.21268809 -0.082343124 -0.019573338 0.11525883 -0.052817054 0.2700498
0.20178038 0.022584258 0.11424132 -0.0072797867 -0.13344347 -0.19524753 0.2270877 -0.24088077
-0.27486914 -0.16132948 -0.13705613 -0.11555845 0.22107147 -0.017641556 -0.11214079 0.31862247
0.04377228 -0.060242508 0.15164053 0.2194031 0.06616381 0.07084785 -0.17908749 -0.15780577
-0.25906733 -0.16509846 -0.27595872 0.20523734 0.293758 0.0665353 -0.24833122 -0.0848431
-0.14611058 0.005982518 -0.12018389 0.08208611 0.25541553 0.3067767 -0.13831308 -0.29884198
-0.13995181 0.13854448 0.2643728 0.12070921 0.15592872 0.08199418 -0.028149717 -0.0056055877
0.13979602 0.16975427 -0.16662543 -0.23534334 0.31726557 0.28274038 -0.35840243 0.23821694
0.16700119 -0.09600497 -0.2118056 0.2014623 0.24204732 -0.1154502 0.19132398 0.04041385
0.005953953 -0.13545948 0.028843604 -0.01837563 -0.08209617 0.013799692 -0.17022075 0.11106265
-0.17606327 -0.1430084 0.2612792 -0.08863164 -0.23283349 -0.31783277 -0.35646215 0.28353825
-0.18802279 -0.01926024 -0.073299326 0.17487256 -0.0026914442 0.11884933 -0.08167936 0.26097134
0.09986286 0.104299374 0.1404899 -0.08046736 -0.05434855 -0.11572855 0.10839383 0.256425
00000000: 4f2b a9be 2100 11be 30e3 95bc da82 f9bd
00000010: 4aae a13e 36cf b4be 6255 27bd 3453 9abe
00000020: 14e3 6fbd e3b9 f83d b0e0 c3bd 7da2 babc
00000030: a2cf a13e 0e10 363e 32b8 f73c 9bd5 863e
00000040: 0b18 113e 6f03 21be 2fbc 73be 8bb5 a93d
00000050: e783 81be 191f f6bd 1808 0f3e 4e47 8c3e
00000060: 8e75 e6bd 2ed3 193e 6b2e 6bbe 5e66 c1bd
00000070: 89a5 3d3e f950 be3d 8a2e 903e 485f 023e
00000080: 48f2 91be 9f13 aebe 2f2d 5b3e aff1 bf3e
00000090: 5f3d ad3e 507e ee3d 0da4 3ebc 8ba6 6cbe
000000a0: 65de 47bd ebd2 53be 6ec2 0a3e 96a9 75bd
000000b0: d9f3 183e 5d58 883e 5a9e 8f3d 0001 40be
000000c0: af3a c93d 6b44 4f3d 69a5 2d3e 72e5 4f3e
000000d0: e554 4dbe 0bf5 433e fa2c 883e dadd 07be
000000e0: b717 473e 1394 e23c 170f 94be e111 85be
000000f0: f244 323d 7280 0a3e ecbe a6bc 0706 b33c
00000100: 9a15 50be 1fc4 55bd 3f9f c23e 756a a4be
00000110: 976f 643e 61a4 87be b994 de3d 5b78 713e
00000120: e6da 5bbe f3b9 5cbd 8b18 a8be 377e c4be
00000130: 7609 3d3e 343a ffbd 8878 77be 6a5c a23e
00000140: 40ba 73be ec7e 883e 8cff 603e 2f1c 20be
00000150: a66b a1bd dd94 76be e72a a33e 2071 8ebe
00000160: 2730 b4bc 5f9b 96be dfc5 f03d e8ef 91be
00000170: cf19 fb3d 713f 33bd 7c31 893e 6ca2 9d3e
00000180: 70dd 4e3e 88d3 c53c 79cc 84bd 8d5a f6bd
00000190: cbe9 c23d d23f b33d 5f7f 4bbe 57ad 38bd
000001a0: 2703 f93d 420b 863e 180b 593e 2b04 85be
000001b0: 008f 10be 7c3a 353e 154e 03bf d243 253e
000001c0: 49d1 b3bd f7ce 8c3e 1a81 8ebe f45a d8bd
000001d0: 61b1 5e3e c4c6 9abe 036b 85be 1067 753c
000001e0: 7e3f 0d3f f46e a23e c647 8abe 0f50 aa3d
000001f0: 1467 623e 7b6e a23e 76ed 163e 2b77 6d3e
00000200: d499 9a3e 6608 5ebe f601 9c3e dc5a 863c
00000210: 3d2b e3bd 9626 50be 88af 9a3e 7bf9 893e
00000220: 3706 3c3e 01f0 a53e bd9e 84be 4fa8 a1be
00000230: 5cbb 19be 023a 4abe 12d8 d7bd 4e15 69be
00000240: b2cb 973e 3c52 763c d6ce 27be 09be 423d
00000250: 107c 973e 25b4 65be 0caf 06be 2023 2abb
00000260: 005b be3d 6738 233e e8ca 593e 83a3 a8bd
00000270: 4458 a0bc d20c ec3d b256 58bd f843 8a3e
00000280: 849f 4e3e 9f02 b93c 5af7 e93d 478b eebb
00000290: 68a5 08be f8ee 47be ae89 683e 73a9 76be
000002a0: a6bb 8cbe 8e33 25be 7158 0cbe e9a9 ecbd
000002b0: 8f60 623e 0685 90bc 12aa e5bd 7c22 a33e
000002c0: 904a 333d d9c0 76bd a847 1b3e 35ab 603e
000002d0: e480 873d ad18 913d b662 37be d697 21be
000002e0: 79a4 84be 920f 29be 764a 8dbe bd29 523e
000002f0: 7367 963e a943 883d 8a4a 7ebe 38c2 adbd
00000300: 039e 15be 0009 c43b f922 f6bd c31c a83d
00000310: d3c5 823e d611 9d3e f2a1 0dbe d101 99be
00000320: 874f 0fbe 9bde 0d3e df5b 873e 6436 f73d
00000330: c7ab 1f3e 91ec a73d 3c9a e6bc 14af b7bb
00000340: b026 0f3e 10d4 2d3e db9f 2abe d8fd 70be
00000350: a270 a23e 59c3 903e 8680 b7be 24ef 733e
00000360: 5c02 2b3e 419e c4bd 91e3 58be 224c 4e3e
00000370: 41db 773e 2871 ecbd 6fea 433e fe88 253d
00000380: 6119 c33b e4b5 0abe 6c49 ec3c 7d88 96bc
00000390: 0922 a8bd 1a18 623c 594e 2ebe d174 e33d
000003a0: ee49 34be cb70 12be 63c6 853e 8184 b5bd
000003b0: e76b 6ebe faba a2be 3582 b6be ed2b 913e
000003c0: 0c89 40be a7c7 9dbc f51d 96bd cb11 333e
000003d0: f162 30bb 4767 f33d 8247 a7bd 099e 853e
000003e0: e684 cc3d e99a d53d 96dc 0f3e 12cc a4bd
000003f0: 969c 5ebd 1703 edbd 96fd dd3d 234a 833e

bias f4 [27]
-0.01552853 0.023335138 -0.030949615 -0.063439704 -0.27831638 -0.16881694 -0.14369431 -0.04715284
-0.21174063 0.15041108 -0.009819706 -0.1463961 0.027612668 0.0023145825 0.44854495 -0.0452466
0.39059788 0.057773452 0.24434957 0.24531582 0.31773362 0.08945769 0.098930284 -0.21007665
-0.33143115 -0.3250107 -0.41373864
00000000: 606b 7ebc 5529 bf3c 0c8a fdbc adec 81bd
00000010: 7c7f 8ebe 59de 2cbe 9a24 13be 5623 41bd
00000020: 89d2 58be 5d05 1a3e d5e2 20bc dce8 15be
00000030: f633 e23c 40b0 173b afa7 e53e 8054 39bd
00000040: 72fc c73e dba3 6c3d c636 7a3e 1234 7b3e
00000050: fbad a23e 9835 b73d f69b ca3d 551e 57be
00000060: 58b1 a9be cd67 a6be 8dd5 d3be

weight f4 [55, 27]
-0.030537058 -0.038030878 0.13810301 0.27506796 0.03345177 0.17006291 -0.11383353 0.12965985
0.10140742 -0.12190486 0.14520189 0.046051964 0.17570756 -0.16116521 -0.007007721 -0.16727434
0.11543486 -0.026027976 0.059318475 0.21068788 0.03155891 0.14149985 -0.15834765 0.15155144
0.10495263 0.20435026 0.15745184 -0.10954463 0.17429927 -0.084458776 -0.17008668 0.01894638
-0.0011366534 -0.007402707 -0.14324231 0.12762372 0.083974585 -0.08149349 -0.30512968 0.19133885
-0.02118252 -0.11985099 0.1487787 0.010323489 0.033257842 0.08227476 0.16849762 0.17436683
-0.074460514 -0.16980968 0.031436235 0.08026985 -0.3422168 -0.006436608 -0.029018655 -0.21010949
-0.07532097 -0.23271401 0.18882532 -0.0771877 0.061121088 -0.10475301 -0.15219568 -0.12625755
-0.0647116 0.17814629 0.16402876 -0.115280904 0.19235831 0.057664327 -0.043604266 0.14252695
0.27618527 0.15168692 0.09936005 -0.13123317 0.11908622 -0.24322014 0.040087167 0.27888885
0.06613601 0.15764163 -0.04256925 0.11468852 -0.23719834 0.07396873 0.017417353 -0.08355377
-0.18482992 -0.002826687 0.027066026 0.13253899 -0.03898559 -0.10919397 -0.07813311 -0.08730726
0.16911523 0.066386476 -0.16458048 0.21038221 0.203664 0.22990367 0.020024516 -0.18378508
-0.23474386 -0.0934535 -0.100490294 -0.14116198 0.0077585187 -0.006507026 -0.10830553 -0.055996906
-0.056779146 0.11649723 -0.19690543 0.017815568 -0.1393367 0.14483462 -0.1757971 0.061956465
0.18025203 -0.039805353 0.21902901 -0.18935448 0.192837 -0.1533077 0.21043837 -0.13693167
-0.0017075117 -0.031217046 -0.13239293 -0.19617204 -0.059188403 0.044090945 0.12316838 -0.07469048
0.029799357 0.16234508 -0.20783548 -0.06561412 0.11307381 0.09901372 -0.054362707 0.17767303
-0.1884454 0.17292307 0.12096692 -0.0656375 -0.111967646 0.15124522 0.1226331 0.18047859
0.06466093 -0.08325113 0.09584603 0.12643848 0.29996604 0.015136314 -0.18890344 0.03512256
-0.07661489 -0.36102018 -0.11767912 0.15113558 -0.04289743 0.048024014 -0.12673567 -0.13043156
-0.01524098 0.1389394 -0.080394216 -0.04379409 -0.027451409 0.035745334 -0.15238671 -0.1073573
-0.12348256 0.16733535 -0.120420426 0.17278096 0.14986968 0.13724174 -0.08490525 -0.17067058
0.10633583 -0.014652727 -0.22652914 -0.13528171 0.15911193 -0.13834906 0.008426571 -0.15457375
-0.1119218 -0.1358584 0.044162534 0.040605027 -0.07218043 0.23123062 0.18243618 -0.2900233
0.1257427 0.1321546 -0.14414212 0.16962527 0.010248923 0.081953846 -0.15678464 -0.04699895
-0.1273153 0.104402 -0.14876018 -0.109542206 0.19294775 0.23236904 0.15921251 -0.33762956
0.13729344 -0.1737174 0.17541929 -0.04064959 0.025578383 0.16656964 0.10418276 0.042853583
0.1354045 -0.05368482 -0.079964235 -0.0937523 -0.068297245 -0.1739238 -0.016755318 0.06372231
-0.18246417 0.19186005 -0.07081164 -0.11787419 0.16558343 0.08233857 0.052666847 0.046684645
0.0054191896 0.059296947 -0.11782423 -0.39896205 -0.19766195 -0.010998501 -0.44204035 0.00061153766
-0.07610136 0.25043568 0.17903979 -0.055404745 -0.119290344 -0.047164526 0.1938057 0.16800398
00000000: da28 fabc 44c6 1bbd e06a 0d3e b5d5 8c3e
00000010: b904 093d f924 2e3e 8e21 e9bd 8dc5 043e
00000020: b2ae cf3d 41a9 f9bd ceaf 143e fca0 3c3d
00000030: afec 333e 7e08 25be 06a1 e5bb f749 2bbe
00000040: 1d69 ec3d 9f38 d5bc eef7 723d 90be 573e
00000050: ea43 013d 56e5 103e e325 22be 4d30 1b3e
00000060: 68f1 d63d 3241 513e 0e3b 213e ef58 e0bd
00000070: 827b 323e b9f8 acbd 342b 2ebe 7035 9b3c
00000080: c2fb 94ba 6892 f2bb 1dae 12be cbaf 023e
00000090: defa ab3d 0fe6 a6bd f539 9cbe 55ee 433e
000000a0: f786 adbc 7074 f5bd 7259 183e da23 293c
000000b0: 6039 083d ab7f a83d a48a 2c3e 388d 323e
000000c0: c17e 98bd 97e2 2dbe 48c3 003d 8564 a43d
000000d0: 0a37 afbe 2eea d2bb 88b8 edbc f126 57be
000000e0: e141 9abd 954c 6ebe 6d5b 413e 9614 9ebd
000000f0: 1b5a 7a3d bf88 d6bd 2fd9 1bbe a949 01be
00000100: 8487 84bd fb6b 363e 28f7 273e 6518 ecbd
00000110: 94f9 443e 6e31 6c3d 639a 32bd 96f2 113e
00000120: 2868 8d3e d153 1b3e 487d cb3d fd61 06be
00000130: 7ae3 f33d b30e 79be 7132 243d 85ca 8e3e
00000140: 5172 873d cf6c 213e 185d 2ebd d1e1 ea3d
00000150: 1fe4 72be eb7c 973d d6ae 8e3c 3d1e abbd
00000160: 0e44 3dbe f03f 39bb 92b9 dd3c 4db8 073e
00000170: 5baf 1fbd 17a1 dfbd 4104 a0bd 26ce b2bd
00000180: 8b2c 2d3e a2f5 873d c987 28be 6f6e 573e
00000190: 4c8d 503e de6b 6b3e 740a a43c 2832 3cbe
000001a0: b260 70be 8c64 bfbd dbcd cdbd c48c 10be
000001b0: 2c3b fe3b e438 d5bb 4acf ddbd 035d 65bd
000001c0: 4091 68bd 1a96 ee3d 94a1 49be f4f1 913c
000001d0: 48ae 0ebe 874f 143e 2804 34be 10c6 7d3d
000001e0: fd93 383e f00a 23bd 2449 603e 24e6 41be
000001f0: 1077 453e b2fc 1cbe 287d 573e d137 0cbe
00000200: 96ce dfba e4ba ffbc 0392 07be 53e1 48be
00000210: 8a6f 72bd b598 343d b43f fc3d 53f7 98bd
00000220: c81d f43c ca3d 263e d3d2 54be b260 86bd
00000230: 3e93 e73d b5c7 ca3d 6eab 5ebd ebef 353e
00000240: d5f7 40be bf12 313e 81bd f73d f46c 86bd
00000250: 4b4f e5bd 07e0 1a3e 1027 fb3d 61cf 383e
00000260: f36c 843d 927f aabd ec4a c43d 1779 013e
00000270: 2695 993e 4dfe 773c e76f 41be acdc 0f3d
00000280: 44e8 9cbd a3d7 b8be c001 f1bd 49c3 1a3e
00000290: 37b5 2fbd d4b4 443d ffc6 01be da8f 05be
000002a0: 4eb5 79bc 2146 0e3e b9a5 a4bd 6f61 33bd
000002b0: c7e1 e0bc b369 123d 430b 1cbe 25de dbbd
000002c0: 6de4 fcbd f559 2b3e fc9e f6bd 7eed 303e
000002d0: 7077 193e 1989 0c3e cee2 adbd 45c4 2ebe
000002e0: 9ac6 d93d fe11 70bc 41f7 67be 4a87 0abe
000002f0: 3dee 223e 60ab 0dbe 9a0f 0a3c 9548 1ebe
00000300: 4237 e5bd 771e 0bbe c6e3 343d 7551 263d
00000310: 55d3 93bd b8c7 6c3e 8dd0 3a3e ef7d 94be
00000320: b2c2 003e 8953 073e fe99 13be 3fb2 2d3e
00000330: 19eb 273c 6bd7 a73d 278c 20be f981 40bd
00000340: f15e 02be b7d0 d53d 9754 18be aa57 e0bd
00000350: 1894 453e 26f2 6d3e 9b08 233e c8dd acbe
00000360: a796 0c3e f9e2 31be 1da1 333e 2f80 26bd
00000370: c289 d13c 3b91 2a3e c55d d53d 3d87 2f3d
00000380: 7aa7 0a3e 9de4 5bbd 4ac4 a3bd 3501 c0bd
00000390: 6ddf 8bbd 1519 32be 7342 89bc d880 823d
000003a0: e3d7 3abe f676 443e b105 91bd 0668 f1bd
000003b0: b48e 293e 20a1 a83d 31b9 573d 6638 3f3d
000003c0: 7593 b13b 5be1 723d d44d f1bd c144 ccbe
000003d0: e567 4abe 0f33 34bc 1d53 e2be 994f 203a
000003e0: 08db 9bbd 1b39 803e 3556 373e 16f0 62bd
000003f0: 7f4e f4bd 972f 41bd 0075 463e 3c09 2c3e

bias f4 [55]
-0.22362132 0.16511561 0.29385272 0.20353411 0.14600575 -0.25672787 0.009254785 -0.10133565
-0.1904089 0.1078768 0.35947794 0.13280964 0.037135128 -0.17964967 0.28493714 -0.14136165
0.19227336 0.012849302 -0.10064442 -0.23502351 -0.035949256 0.2148877 0.07582611 0.22126144
0.14765354 -0.29994673 0.09598013 -0.19193266 0.24266107 -0.13104106 -0.22421756 0.27707645
0.12307174 0.010764307 -0.1346322 0.2189647 -0.17391548 0.08992263 0.033455513 -0.021960134
0.20066102 0.05259608 0.06086061 -0.055702683 0.19241278 0.25224426 0.124963425 -0.21015218
0.12902941 0.0639227 -0.15450232 -0.1750157 0.28090328 0.07498852 0.11085841
00000000: fdfc 64be 1114 293e dd73 963e 3f6b 503e
00000010: 8882 153e d671 83be 62a1 173c 1189 cfbd
00000020: 8dfa 42be 83ee dc3d 7e0d b83e 40ff 073e
00000030: 011b 183d 15f6 37be 48e3 913e 1cc1 10be
00000040: 4fe3 443e e185 523c a91e cebd 01aa 70be
00000050: 873f 13bd 850b 5c3e b84a 9b3d 5c92 623e
00000060: 7d32 173e 9e92 99be 3b91 c43d ff89 44be
00000070: 257c 783e a12f 06be 4a99 65be f7dc 8d3e
00000080: 090d fc3d c75c 303c 06dd 09be 4838 603e
00000090: e616 32be 5b29 b83d a608 093d bde5 b3bc
000000a0: 157a 4d3e fd6e 573d fa48 793d 7f28 64bd
000000b0: db07 453e 2926 813e d3ec ff3d 2232 57be
000000c0: 4920 043e e8e9 823d db35 1ebe 5137 33be
000000d0: 8ed2 8f3e 9593 993d bc09 e33d

weight f4 [82, 55]
0.021798817 -0.009329291 -0.09532993 -0.082427844 -0.09339053 0.0033510157 0.12701267 -0.088782616
-0.040317893 -0.11307871 -0.039119177 -0.07081057 -0.06727619 -0.101673044 0.0411556 0.07997472
-0.04239784 0.11124883 0.103654325 -0.023211626 -0.07435928 0.0525587 -0.06479282 -0.027973808
0.092646316 -0.048749972 0.04033858 -0.123438634 -0.09473861 -0.09351123 0.049188957 0.025423449
-0.061189182 -0.1020088 -0.12365202 -0.051647745 -0.1133109 -0.08778609 0.05591391 -0.013702079
-0.1026751 -0.08181542 -0.120814875 -0.079551265 -0.12686685 -0.04360117 -0.021794815 -0.10642003
-0.11459757 -0.12300063 -0.09851339 0.11825437 -0.12741093 0.10011479 -0.02977484 -0.13247657
-0.02653006 0.047908247 0.08250563 -0.05777167 0.081705414 -0.12067112 0.123213485 0.10495304
0.082422286 0.009557751 -0.21192513 0.04352348 -0.06230629 0.27808696 -0.09255086 -0.04089247
0.05258559 -0.13271946 -0.10719438 0.1065867 0.119435534 0.09189286 0.10653136 -0.12177761
0.014886808 -0.06798778 0.12064782 -0.123440795 0.06026593 -0.06717416 0.30673498 -2.3551374e-05
0.06839738 0.033014543 -0.655487 0.12037077 -0.04773751 0.1106291 -0.009750161 0.04621582
0.07112928 -0.1232893 -0.052612517 -0.5786828 0.007994157 -0.05560704 0.05889288 0.018238246
0.04276804 -0.24011457 0.032889206 0.032381233 0.19183128 -0.037520528 0.11804348 0.093225904
0.093882725 0.0011645753 -0.17089303 0.18250576 0.027571272 -0.1347135 -0.08331852 -0.11947305
-0.09790019 0.07619718 -0.029461484 -0.018236186 -0.13402285 0.10356296 0.15422422 -0.09918356
-0.102940194 0.12901111 0.11618834 -0.14927223 0.15584792 -0.0981588 -0.10771786 0.11265461
-0.0771637 -0.07893421 0.12261768 0.05346786 0.11321128 0.18949997 -0.058256943 0.0056534647
0.04079889 -0.3195912 -0.036200583 0.12166977 -0.06885643 -0.033883013 -0.043164246 0.073289104
0.023043964 0.0884912 -0.09081056 -0.012936987 0.03873924 0.1562981 -0.22414985 0.18884794
-0.02785175 -0.11885661 0.101380035 -0.21100877 -0.11587041 0.0005055339 0.08454553 -0.10456368
-0.043071166 -0.024277525 -0.08056358 0.035926074 -0.047515865 0.112015314 0.121045336 -0.043641176
0.06728319 0.04395992 0.13438657 -0.06115809 -0.08355345 -0.030612484 0.06333565 0.015312454
0.039842773 0.06772689 0.09366301 -0.063727774 0.0065659788 -0.0042609856 0.09855037 -0.1311857
-0.05511782 0.121082656 0.022372779 0.09134547 0.014753402 -0.08078549 -0.014849479 0.047447756
-0.14251019 0.110773094 0.06403182 0.05971684 -0.08338071 -0.00065869064 -0.056512706 -0.060108677
-0.015264785 0.012953063 -0.05910786 -0.01414936 -0.07340582 -0.11579642 0.015127721 0.049785454
-0.0113837635 0.03224154 0.03963345 -0.011888396 0.11277911 -0.11419561 -0.17450486 0.12092616
-0.059075415 -0.019660557 -0.023408946 -0.047995005 -0.11362648 0.04422273 -0.11012243 0.056391813
0.10091924 -0.06482473 0.062507816 0.15366928 0.083078936 -0.00585967 -0.042503495 -0.09227223
0.32491484 0.12431147 -0.04484134 0.00046311587 -0.021395395 0.010743784 -0.07235401 0.063750364
-0.062547795 -0.056160998 -0.08222345 0.15666015 -0.028101407 0.15286452 -0.03614774 -0.057587605
00000000: 6f93 b23c e2d9 18bc 573c c3bd eecf a8bd
00000010: 8943 bfbd b79c 5b3b 9c0f 023e a9d3 b5bd
00000020: 6024 25bd d095 e7bd 6e3b 20bd 2205 91bd
00000030: 19c8 89bd f539 d0bd c692 283d c9c9 a33d
00000040: 5ca9 2dbd 6dd6 e33d b848 d43d 4f26 bebc
00000050: ae49 98bd cb47 573d 19b2 84bd 5429 e5bc
00000060: 5abd bd3d 0dae 47bd 113a 253d 65cd fcbd
00000070: 5106 c2bd d182 bfbd 5c7a 493d d644 d03c
00000080: 82a1 7abd fde9 d0bd 453d fdbd 968c 53bd
00000090: 8c0f e8bd 32c9 b3bd fc05 653d af7e 60bc
000000a0: 5347 d2bd d88e a7bd ca6d f7bd c6eb a2bd
000000b0: 62e9 01be 2497 32bd 0a8b b2bc bff2 d9bd
000000c0: 21b2 eabd c1e7 fbbd 63c1 c9bd 592f f23d
000000d0: 0378 02be fc08 cd3d 5eea f3bc f0a7 07be
000000e0: 9255 d9bc 703b 443d b6f8 a83d fda1 6cbd
000000f0: 2b55 a73d 6c22 f7bd 5a57 fc3d 9ff1 d63d
00000100: 04cd a83d 1d98 1c3c e702 59be ad45 323d
00000110: e134 7fbd 6a61 8e3e 4e8b bdbd dd7e 27bd
00000120: fd63 573d 9ce7 07be ba88 dbbd 214a da3d
00000130: 9e9a f43d 5332 bc3d 1d2d da3d 8a66 f9bd
00000140: cce7 733c 2d3d 8bbd 3416 f73d 87ce fcbd
00000150: 68d9 763d 9b92 89bd 5e0c 9d3e 3190 c5b7
00000160: ed13 8c3d 423a 073d ffcd 27bf f384 f63d
00000170: 6888 43bd 8291 e23d 24bf 1fbc cd4c 3d3d
00000180: 3aac 913d 1a7f fcbd 3980 57bd 8e24 14bf
00000190: edf9 023c 35c4 63bd a939 713d 6068 953c
000001a0: 8a2d 2f3d 98e0 75be d5b6 063d 2fa2 043d
000001b0: 6b6f 443e 20af 19bd c8c0 f13d 39ed be3d
000001c0: 9645 c03d aaa4 983a 95fe 2ebe cae2 3a3e
000001d0: 26dd e13c 56f2 09be e6a2 aabd 49ae f4bd
000001e0: e57f c8bd 440d 9c3d 3659 f1bc 0e64 95bc
000001f0: 493d 09be d118 d43d f4ec 1d3e c020 cbbd
00000200: 4fd2 d2bd 7d1b 043e 27f4 ed3d d2da 18be
00000210: 9996 1f3e 7b07 c9bd 2e9b dcbd 76b7 e63d
00000220: 0008 9ebd 42a8 a1bd fa1e fb3d 1d01 5b3d
00000230: 51db e73d 480c 423e d59e 6ebd b340 b93b
00000240: bd1c 273d 75a1 a3be 1047 14bd 002e f93d
00000250: 9a04 8dbd eac8 0abd fecc 30bd 9918 963d
00000260: b2c6 bc3c e03a b53d e3fa b9bd a8f5 53bc
00000270: 0aad 1e3d 9c0c 203e 8a87 65be 5b61 413e
00000280: 5a29 e4bc 186b f3bd 56a0 cf3d af12 58be
00000290: 774d edbd ce85 043a 3526 ad3d 7c25 d6bd
000002a0: 646b 30bd a9e1 c6bc 85fe a4bd 3827 133d
000002b0: ff9f 42bd 4968 e53d 9ee6 f73d 17c1 32bd
000002c0: c5cb 893d 510f 343d a29c 093e e880 7abd
000002d0: 121e abbd 08c7 fabc 1fb6 813d 16e1 7a3c
000002e0: 2d32 233d 65b4 8a3d 64d2 bf3d b583 82bd
000002f0: 6c27 d73b bd9f 8bbb c7d4 c93d 8b55 06be
00000300: 39c3 61bd 2ffa f73d 1e47 b73c 5513 bb3d
00000310: 41b8 713c dd72 a5bd 3b4b 73bc 9458 423d
00000320: 31ee 11be 01dd e23d 1d23 833d a599 743d
00000330: 81c3 aabd fbab 2cba de79 67bd 8434 76bd
00000340: 2619 7abc 1539 543c 151b 72bd b8d2 67bc
00000350: ca55 96bd ac26 edbd 43da 773c d5eb 4b3d
00000360: f782 3abc b40f 043d af56 223d 8cc7 42bc
00000370: bcf8 e63d 63df e9bd 67b1 32be 22a8 f73d
00000380: 10f9 71bd 2d0f a1bc 1ec4 bfbc 6996 44bd
00000390: 00b5 e8bd e522 353d de87 e1bd 1afb 663d
000003a0: bfae ce3d d4c2 84bd 1904 803d 7b5b 1d3e
000003b0: 4a25 aa3d 7a02 c0bb 2518 2ebd 39f9 bcbd
000003c0: 3d5b a63e 0397 fe3d 8eab 37bd 5cce f239
000003d0: 6545 afbc b206 303c 572e 94bd 8d8f 823d
000003e0: 0f19 80bd 1309 66bd c564 a8bd 856b 203e
000003f0: ec34 e6bc 8488 1c3e a70f 14bd fbe0 6bbd
